…
I1230 17:20:16.344874  8308 net.cpp:294] The NetState phase (0) differed from the phase (1) specified by a rule in layer mnist
I1230 17:20:16.344894  8308 net.cpp:294] The NetState phase (0) differed from the phase (1) specified by a rule in layer accuracy
I1230 17:20:16.344954  8308 net.cpp:51] Initializing net from parameters: 
name: "CNN"
state {
  phase: TRAIN
  level: 0
  stage: ""
}
layer {
  name: "mnist"
  type: "Data"
  top: "data"
  top: "label"
  include {
    phase: TRAIN
  }
  transform_param {
    scale: 0.00390625
  }
  data_param {
    source: "/data2/xyyu/datasets/Mnist/train_R_ran"
    batch_size: 256
    backend: LMDB
  }
}
layer {
  name: "conv1"
  type: "Convolution"
  bottom: "data"
  top: "conv1"
  convolution_param {
    num_output: 32
    kernel_size: 9
    stride: 1
    weight_filler {
      type: "xavier"
    }
    bias_filler {
      type: "constant"
    }
  }
}
layer {
  name: "pool1"
  type: "Pooling"
  bottom: "conv1"
  top: "pool1"
  pooling_param {
    pool: MAX
    kernel_size: 2
    stride: 2
  }
}
layer {
  name: "relu1"
  type: "ReLU"
  bottom: "pool1"
  top: "pool1"
}
layer {
  name: "conv2"
  type: "Convolution"
  bottom: "pool1"
  top: "conv2"
  convolution_param {
    num_output: 64
    kernel_size: 7
    stride: 1
    weight_filler {
      type: "xavier"
    }
    bias_filler {
      type: "constant"
    }
  }
}
layer {
  name: "pool2"
  type: "Pooling"
  bottom: "conv2"
  top: "pool2"
  pooling_param {
    pool: MAX
    kernel_size: 2
    stride: 2
  }
}
layer {
  name: "relu2"
  type: "ReLU"
  bottom: "pool2"
  top: "pool2"
}
layer {
  name: "classification"
  type: "InnerProduct"
  bottom: "pool2"
  top: "class"
  inner_product_param {
    num_output: 10
    weight_filler {
      type: "xavier"
    }
    bias_filler {
      type: "constant"
    }
  }
}
layer {
  name: "loss"
  type: "SoftmaxWithLoss"
  bottom: "class"
  bottom: "label"
  top: "loss"
}
I1230 17:20:16.345278  8308 layer_factory.hpp:77] Creating layer mnist
I1230 17:20:16.345374  8308 db_lmdb.cpp:35] Opened lmdb /data2/xyyu/datasets/Mnist/train_R_ran
I1230 17:20:16.345412  8308 net.cpp:84] Creating Layer mnist
I1230 17:20:16.345424  8308 net.cpp:380] mnist -> data
I1230 17:20:16.345449  8308 net.cpp:380] mnist -> label
I1230 17:20:16.346987  8308 data_layer.cpp:45] output data size: 256,1,28,28
I1230 17:20:16.377219  8308 net.cpp:122] Setting up mnist
I1230 17:20:16.377260  8308 net.cpp:129] Top shape: 256 1 28 28 (200704)
I1230 17:20:16.377274  8308 net.cpp:129] Top shape: 256 (256)
I1230 17:20:16.377279  8308 net.cpp:137] Memory required for data: 803840
I1230 17:20:16.377290  8308 layer_factory.hpp:77] Creating layer conv1
I1230 17:20:16.377310  8308 net.cpp:84] Creating Layer conv1
I1230 17:20:16.377319  8308 net.cpp:406] conv1 <- data
I1230 17:20:16.377336  8308 net.cpp:380] conv1 -> conv1
I1230 17:20:17.015413  8308 net.cpp:122] Setting up conv1
I1230 17:20:17.015458  8308 net.cpp:129] Top shape: 256 32 20 20 (3276800)
I1230 17:20:17.015466  8308 net.cpp:137] Memory required for data: 13911040
I1230 17:20:17.015491  8308 layer_factory.hpp:77] Creating layer pool1
I1230 17:20:17.015513  8308 net.cpp:84] Creating Layer pool1
I1230 17:20:17.015522  8308 net.cpp:406] pool1 <- conv1
I1230 17:20:17.015532  8308 net.cpp:380] pool1 -> pool1
I1230 17:20:17.023764  8308 net.cpp:122] Setting up pool1
I1230 17:20:17.023835  8308 net.cpp:129] Top shape: 256 32 10 10 (819200)
I1230 17:20:17.023855  8308 net.cpp:137] Memory required for data: 17187840
I1230 17:20:17.023914  8308 layer_factory.hpp:77] Creating layer relu1
I1230 17:20:17.023950  8308 net.cpp:84] Creating Layer relu1
I1230 17:20:17.023972  8308 net.cpp:406] relu1 <- pool1
I1230 17:20:17.023999  8308 net.cpp:367] relu1 -> pool1 (in-place)
I1230 17:20:17.024469  8308 net.cpp:122] Setting up relu1
I1230 17:20:17.024514  8308 net.cpp:129] Top shape: 256 32 10 10 (819200)
I1230 17:20:17.024533  8308 net.cpp:137] Memory required for data: 20464640
I1230 17:20:17.024582  8308 layer_factory.hpp:77] Creating layer conv2
I1230 17:20:17.024636  8308 net.cpp:84] Creating Layer conv2
I1230 17:20:17.024657  8308 net.cpp:406] conv2 <- pool1
I1230 17:20:17.024678  8308 net.cpp:380] conv2 -> conv2
I1230 17:20:17.030689  8308 net.cpp:122] Setting up conv2
I1230 17:20:17.030761  8308 net.cpp:129] Top shape: 256 64 4 4 (262144)
I1230 17:20:17.030781  8308 net.cpp:137] Memory required for data: 21513216
I1230 17:20:17.030819  8308 layer_factory.hpp:77] Creating layer pool2
I1230 17:20:17.030851  8308 net.cpp:84] Creating Layer pool2
I1230 17:20:17.030872  8308 net.cpp:406] pool2 <- conv2
I1230 17:20:17.030895  8308 net.cpp:380] pool2 -> pool2
I1230 17:20:17.031019  8308 net.cpp:122] Setting up pool2
I1230 17:20:17.031047  8308 net.cpp:129] Top shape: 256 64 2 2 (65536)
I1230 17:20:17.031064  8308 net.cpp:137] Memory required for data: 21775360
I1230 17:20:17.031078  8308 layer_factory.hpp:77] Creating layer relu2
I1230 17:20:17.031098  8308 net.cpp:84] Creating Layer relu2
I1230 17:20:17.031118  8308 net.cpp:406] relu2 <- pool2
I1230 17:20:17.031137  8308 net.cpp:367] relu2 -> pool2 (in-place)
I1230 17:20:17.034512  8308 net.cpp:122] Setting up relu2
I1230 17:20:17.034574  8308 net.cpp:129] Top shape: 256 64 2 2 (65536)
I1230 17:20:17.034591  8308 net.cpp:137] Memory required for data: 22037504
I1230 17:20:17.034610  8308 layer_factory.hpp:77] Creating layer classification
I1230 17:20:17.034644  8308 net.cpp:84] Creating Layer classification
I1230 17:20:17.034665  8308 net.cpp:406] classification <- pool2
I1230 17:20:17.034688  8308 net.cpp:380] classification -> class
I1230 17:20:17.034993  8308 net.cpp:122] Setting up classification
I1230 17:20:17.035025  8308 net.cpp:129] Top shape: 256 10 (2560)
I1230 17:20:17.035042  8308 net.cpp:137] Memory required for data: 22047744
I1230 17:20:17.035070  8308 layer_factory.hpp:77] Creating layer loss
I1230 17:20:17.035104  8308 net.cpp:84] Creating Layer loss
I1230 17:20:17.035120  8308 net.cpp:406] loss <- class
I1230 17:20:17.035140  8308 net.cpp:406] loss <- label
I1230 17:20:17.035161  8308 net.cpp:380] loss -> loss
I1230 17:20:17.035200  8308 layer_factory.hpp:77] Creating layer loss
…
I1230 17:20:17.036619  8308 solver.cpp:172] Creating test net (#0) specified by net file: examples/mnist_tests/CNN/CNN.prototxt
I1230 17:20:17.036691  8308 net.cpp:294] The NetState phase (1) differed from the phase (0) specified by a rule in layer mnist
I1230 17:20:17.036851  8308 net.cpp:51] Initializing net from parameters: 
name: "CNN"
state {
  phase: TEST
}
layer {
  name: "mnist"
  type: "Data"
  top: "data"
  top: "label"
  include {
    phase: TEST
  }
  transform_param {
    scale: 0.00390625
  }
  data_param {
    source: "/data2/xyyu/datasets/Mnist/test_R_ran"
    batch_size: 100
    backend: LMDB
  }
}
layer {
  name: "conv1"
  type: "Convolution"
  bottom: "data"
  top: "conv1"
  convolution_param {
    num_output: 32
    kernel_size: 9
    stride: 1
    weight_filler {
      type: "xavier"
    }
    bias_filler {
      type: "constant"
    }
  }
}
layer {
  name: "pool1"
  type: "Pooling"
  bottom: "conv1"
  top: "pool1"
  pooling_param {
    pool: MAX
    kernel_size: 2
    stride: 2
  }
}
layer {
  name: "relu1"
  type: "ReLU"
  bottom: "pool1"
  top: "pool1"
}
layer {
  name: "conv2"
  type: "Convolution"
  bottom: "pool1"
  top: "conv2"
  convolution_param {
    num_output: 64
    kernel_size: 7
    stride: 1
    weight_filler {
      type: "xavier"
    }
    bias_filler {
      type: "constant"
    }
  }
}
layer {
  name: "pool2"
  type: "Pooling"
  bottom: "conv2"
  top: "pool2"
  pooling_param {
    pool: MAX
    kernel_size: 2
    stride: 2
  }
}
layer {
  name: "relu2"
  type: "ReLU"
  bottom: "pool2"
  top: "pool2"
}
layer {
  name: "classification"
  type: "InnerProduct"
  bottom: "pool2"
  top: "class"
  inner_product_param {
    num_output: 10
    weight_filler {
      type: "xavier"
    }
    bias_filler {
      type: "constant"
    }
  }
}
layer {
  name: "accuracy"
  type: "Accuracy"
  bottom: "class"
  bottom: "label"
  top: "accuracy"
  include {
    phase: TEST
  }
}
layer {
  name: "loss"
  type: "SoftmaxWithLoss"
  bottom: "class"
  bottom: "label"
  top: "loss"
}
I1230 17:20:17.037359  8308 layer_factory.hpp:77] Creating layer mnist
I1230 17:20:17.037420  8308 db_lmdb.cpp:35] Opened lmdb /data2/xyyu/datasets/Mnist/test_R_ran
I1230 17:20:17.037441  8308 net.cpp:84] Creating Layer mnist
I1230 17:20:17.037451  8308 net.cpp:380] mnist -> data
I1230 17:20:17.037462  8308 net.cpp:380] mnist -> label
I1230 17:20:17.037560  8308 data_layer.cpp:45] output data size: 100,1,28,28
I1230 17:20:17.041363  8308 net.cpp:122] Setting up mnist
I1230 17:20:17.041396  8308 net.cpp:129] Top shape: 100 1 28 28 (78400)
I1230 17:20:17.041405  8308 net.cpp:129] Top shape: 100 (100)
I1230 17:20:17.041411  8308 net.cpp:137] Memory required for data: 314000
I1230 17:20:17.041420  8308 layer_factory.hpp:77] Creating layer label_mnist_1_split
I1230 17:20:17.041438  8308 net.cpp:84] Creating Layer label_mnist_1_split
I1230 17:20:17.041446  8308 net.cpp:406] label_mnist_1_split <- label
I1230 17:20:17.041456  8308 net.cpp:380] label_mnist_1_split -> label_mnist_1_split_0
I1230 17:20:17.041468  8308 net.cpp:380] label_mnist_1_split -> label_mnist_1_split_1
I1230 17:20:17.041540  8308 net.cpp:122] Setting up label_mnist_1_split
I1230 17:20:17.041553  8308 net.cpp:129] Top shape: 100 (100)
I1230 17:20:17.041560  8308 net.cpp:129] Top shape: 100 (100)
I1230 17:20:17.041566  8308 net.cpp:137] Memory required for data: 314800
I1230 17:20:17.041573  8308 layer_factory.hpp:77] Creating layer conv1
I1230 17:20:17.041587  8308 net.cpp:84] Creating Layer conv1
I1230 17:20:17.041594  8308 net.cpp:406] conv1 <- data
I1230 17:20:17.041604  8308 net.cpp:380] conv1 -> conv1
I1230 17:20:17.042979  8308 net.cpp:122] Setting up conv1
I1230 17:20:17.043011  8308 net.cpp:129] Top shape: 100 32 20 20 (1280000)
I1230 17:20:17.043020  8308 net.cpp:137] Memory required for data: 5434800
I1230 17:20:17.043035  8308 layer_factory.hpp:77] Creating layer pool1
I1230 17:20:17.043048  8308 net.cpp:84] Creating Layer pool1
I1230 17:20:17.043056  8308 net.cpp:406] pool1 <- conv1
I1230 17:20:17.043066  8308 net.cpp:380] pool1 -> pool1
I1230 17:20:17.043553  8308 net.cpp:122] Setting up pool1
I1230 17:20:17.043579  8308 net.cpp:129] Top shape: 100 32 10 10 (320000)
I1230 17:20:17.043587  8308 net.cpp:137] Memory required for data: 6714800
I1230 17:20:17.043601  8308 layer_factory.hpp:77] Creating layer relu1
I1230 17:20:17.043614  8308 net.cpp:84] Creating Layer relu1
I1230 17:20:17.043637  8308 net.cpp:406] relu1 <- pool1
I1230 17:20:17.043668  8308 net.cpp:367] relu1 -> pool1 (in-place)
I1230 17:20:17.043851  8308 net.cpp:122] Setting up relu1
I1230 17:20:17.043870  8308 net.cpp:129] Top shape: 100 32 10 10 (320000)
I1230 17:20:17.043876  8308 net.cpp:137] Memory required for data: 7994800
I1230 17:20:17.043915  8308 layer_factory.hpp:77] Creating layer conv2
I1230 17:20:17.043931  8308 net.cpp:84] Creating Layer conv2
I1230 17:20:17.043948  8308 net.cpp:406] conv2 <- pool1
I1230 17:20:17.043958  8308 net.cpp:380] conv2 -> conv2
I1230 17:20:17.046440  8308 net.cpp:122] Setting up conv2
I1230 17:20:17.046474  8308 net.cpp:129] Top shape: 100 64 4 4 (102400)
I1230 17:20:17.046485  8308 net.cpp:137] Memory required for data: 8404400
I1230 17:20:17.046501  8308 layer_factory.hpp:77] Creating layer pool2
I1230 17:20:17.046515  8308 net.cpp:84] Creating Layer pool2
I1230 17:20:17.046532  8308 net.cpp:406] pool2 <- conv2
I1230 17:20:17.046547  8308 net.cpp:380] pool2 -> pool2
I1230 17:20:17.046599  8308 net.cpp:122] Setting up pool2
I1230 17:20:17.046612  8308 net.cpp:129] Top shape: 100 64 2 2 (25600)
I1230 17:20:17.046617  8308 net.cpp:137] Memory required for data: 8506800
I1230 17:20:17.046624  8308 layer_factory.hpp:77] Creating layer relu2
I1230 17:20:17.046633  8308 net.cpp:84] Creating Layer relu2
I1230 17:20:17.046654  8308 net.cpp:406] relu2 <- pool2
I1230 17:20:17.046687  8308 net.cpp:367] relu2 -> pool2 (in-place)
I1230 17:20:17.046842  8308 net.cpp:122] Setting up relu2
I1230 17:20:17.046860  8308 net.cpp:129] Top shape: 100 64 2 2 (25600)
I1230 17:20:17.046867  8308 net.cpp:137] Memory required for data: 8609200
I1230 17:20:17.046881  8308 layer_factory.hpp:77] Creating layer classification
I1230 17:20:17.046903  8308 net.cpp:84] Creating Layer classification
I1230 17:20:17.046917  8308 net.cpp:406] classification <- pool2
I1230 17:20:17.046929  8308 net.cpp:380] classification -> class
I1230 17:20:17.047056  8308 net.cpp:122] Setting up classification
I1230 17:20:17.047070  8308 net.cpp:129] Top shape: 100 10 (1000)
I1230 17:20:17.047096  8308 net.cpp:137] Memory required for data: 8613200
I1230 17:20:17.047132  8308 layer_factory.hpp:77] Creating layer class_classification_0_split
I1230 17:20:17.047158  8308 net.cpp:84] Creating Layer class_classification_0_split
I1230 17:20:17.047190  8308 net.cpp:406] class_classification_0_split <- class
I1230 17:20:17.047219  8308 net.cpp:380] class_classification_0_split -> class_classification_0_split_0
I1230 17:20:17.047250  8308 net.cpp:380] class_classification_0_split -> class_classification_0_split_1
I1230 17:20:17.047286  8308 net.cpp:122] Setting up class_classification_0_split
I1230 17:20:17.047297  8308 net.cpp:129] Top shape: 100 10 (1000)
I1230 17:20:17.047303  8308 net.cpp:129] Top shape: 100 10 (1000)
I1230 17:20:17.047309  8308 net.cpp:137] Memory required for data: 8621200
I1230 17:20:17.047315  8308 layer_factory.hpp:77] Creating layer accuracy
I1230 17:20:17.047338  8308 net.cpp:84] Creating Layer accuracy
I1230 17:20:17.047344  8308 net.cpp:406] accuracy <- class_classification_0_split_0
I1230 17:20:17.047358  8308 net.cpp:406] accuracy <- label_mnist_1_split_0
I1230 17:20:17.047374  8308 net.cpp:380] accuracy -> accuracy
…
