…
I0103 12:14:48.424720 31481 net.cpp:294] The NetState phase (0) differed from the phase (1) specified by a rule in layer mnist
I0103 12:14:48.424741 31481 net.cpp:294] The NetState phase (0) differed from the phase (1) specified by a rule in layer accuracy
I0103 12:14:48.424798 31481 net.cpp:51] Initializing net from parameters: 
name: "CNN"
state {
  phase: TRAIN
  level: 0
  stage: ""
}
layer {
  name: "mnist"
  type: "Data"
  top: "data"
  top: "label"
  include {
    phase: TRAIN
  }
  transform_param {
    scale: 0.00390625
  }
  data_param {
    source: "/data2/xyyu/datasets/Mnist/train_RTS_"
    batch_size: 256
    backend: LMDB
  }
}
layer {
  name: "conv1"
  type: "Convolution"
  bottom: "data"
  top: "conv1"
  convolution_param {
    num_output: 32
    kernel_size: 9
    stride: 1
    weight_filler {
      type: "xavier"
    }
    bias_filler {
      type: "constant"
    }
  }
}
layer {
  name: "pool1"
  type: "Pooling"
  bottom: "conv1"
  top: "pool1"
  pooling_param {
    pool: MAX
    kernel_size: 2
    stride: 2
  }
}
layer {
  name: "relu1"
  type: "ReLU"
  bottom: "pool1"
  top: "pool1"
}
layer {
  name: "conv2"
  type: "Convolution"
  bottom: "pool1"
  top: "conv2"
  convolution_param {
    num_output: 32
    kernel_size: 7
    stride: 1
    weight_filler {
      type: "xavier"
    }
    bias_filler {
      type: "constant"
    }
  }
}
layer {
  name: "pool2"
  type: "Pooling"
  bottom: "conv2"
  top: "pool2"
  pooling_param {
    pool: MAX
    kernel_size: 2
    stride: 2
  }
}
layer {
  name: "relu2"
  type: "ReLU"
  bottom: "pool2"
  top: "pool2"
}
layer {
  name: "classification"
  type: "InnerProduct"
  bottom: "pool2"
  top: "class"
  inner_product_param {
    num_output: 10
    weight_filler {
      type: "xavier"
    }
    bias_filler {
      type: "constant"
    }
  }
}
layer {
  name: "loss"
  type: "SoftmaxWithLoss"
  bottom: "class"
  bottom: "label"
  top: "loss"
}
I0103 12:14:48.425101 31481 layer_factory.hpp:77] Creating layer mnist
I0103 12:14:48.425205 31481 db_lmdb.cpp:35] Opened lmdb /data2/xyyu/datasets/Mnist/train_RTS_
I0103 12:14:48.425240 31481 net.cpp:84] Creating Layer mnist
I0103 12:14:48.425254 31481 net.cpp:380] mnist -> data
I0103 12:14:48.425281 31481 net.cpp:380] mnist -> label
I0103 12:14:48.432412 31481 data_layer.cpp:45] output data size: 256,1,42,42
I0103 12:14:48.491588 31481 net.cpp:122] Setting up mnist
I0103 12:14:48.491641 31481 net.cpp:129] Top shape: 256 1 42 42 (451584)
I0103 12:14:48.491655 31481 net.cpp:129] Top shape: 256 (256)
I0103 12:14:48.491665 31481 net.cpp:137] Memory required for data: 1807360
I0103 12:14:48.491683 31481 layer_factory.hpp:77] Creating layer conv1
I0103 12:14:48.491717 31481 net.cpp:84] Creating Layer conv1
I0103 12:14:48.491736 31481 net.cpp:406] conv1 <- data
I0103 12:14:48.491760 31481 net.cpp:380] conv1 -> conv1
I0103 12:14:49.780601 31481 net.cpp:122] Setting up conv1
I0103 12:14:49.780640 31481 net.cpp:129] Top shape: 256 32 34 34 (9469952)
I0103 12:14:49.780648 31481 net.cpp:137] Memory required for data: 39687168
I0103 12:14:49.780674 31481 layer_factory.hpp:77] Creating layer pool1
I0103 12:14:49.780694 31481 net.cpp:84] Creating Layer pool1
I0103 12:14:49.780707 31481 net.cpp:406] pool1 <- conv1
I0103 12:14:49.780717 31481 net.cpp:380] pool1 -> pool1
I0103 12:14:49.781013 31481 net.cpp:122] Setting up pool1
I0103 12:14:49.781029 31481 net.cpp:129] Top shape: 256 32 17 17 (2367488)
I0103 12:14:49.781035 31481 net.cpp:137] Memory required for data: 49157120
I0103 12:14:49.781062 31481 layer_factory.hpp:77] Creating layer relu1
I0103 12:14:49.781074 31481 net.cpp:84] Creating Layer relu1
I0103 12:14:49.781080 31481 net.cpp:406] relu1 <- pool1
I0103 12:14:49.781088 31481 net.cpp:367] relu1 -> pool1 (in-place)
I0103 12:14:49.781280 31481 net.cpp:122] Setting up relu1
I0103 12:14:49.781296 31481 net.cpp:129] Top shape: 256 32 17 17 (2367488)
I0103 12:14:49.781301 31481 net.cpp:137] Memory required for data: 58627072
I0103 12:14:49.781306 31481 layer_factory.hpp:77] Creating layer conv2
I0103 12:14:49.781327 31481 net.cpp:84] Creating Layer conv2
I0103 12:14:49.781334 31481 net.cpp:406] conv2 <- pool1
I0103 12:14:49.781345 31481 net.cpp:380] conv2 -> conv2
I0103 12:14:49.794193 31481 net.cpp:122] Setting up conv2
I0103 12:14:49.794217 31481 net.cpp:129] Top shape: 256 32 11 11 (991232)
I0103 12:14:49.794224 31481 net.cpp:137] Memory required for data: 62592000
I0103 12:14:49.794236 31481 layer_factory.hpp:77] Creating layer pool2
I0103 12:14:49.794248 31481 net.cpp:84] Creating Layer pool2
I0103 12:14:49.794255 31481 net.cpp:406] pool2 <- conv2
I0103 12:14:49.794263 31481 net.cpp:380] pool2 -> pool2
I0103 12:14:49.794304 31481 net.cpp:122] Setting up pool2
I0103 12:14:49.794317 31481 net.cpp:129] Top shape: 256 32 6 6 (294912)
I0103 12:14:49.794322 31481 net.cpp:137] Memory required for data: 63771648
I0103 12:14:49.794327 31481 layer_factory.hpp:77] Creating layer relu2
I0103 12:14:49.794337 31481 net.cpp:84] Creating Layer relu2
I0103 12:14:49.794342 31481 net.cpp:406] relu2 <- pool2
I0103 12:14:49.794351 31481 net.cpp:367] relu2 -> pool2 (in-place)
I0103 12:14:49.797855 31481 net.cpp:122] Setting up relu2
I0103 12:14:49.797874 31481 net.cpp:129] Top shape: 256 32 6 6 (294912)
I0103 12:14:49.797880 31481 net.cpp:137] Memory required for data: 64951296
I0103 12:14:49.797888 31481 layer_factory.hpp:77] Creating layer classification
I0103 12:14:49.797902 31481 net.cpp:84] Creating Layer classification
I0103 12:14:49.797909 31481 net.cpp:406] classification <- pool2
I0103 12:14:49.797919 31481 net.cpp:380] classification -> class
I0103 12:14:49.800001 31481 net.cpp:122] Setting up classification
I0103 12:14:49.800024 31481 net.cpp:129] Top shape: 256 10 (2560)
I0103 12:14:49.800029 31481 net.cpp:137] Memory required for data: 64961536
I0103 12:14:49.800040 31481 layer_factory.hpp:77] Creating layer loss
I0103 12:14:49.800056 31481 net.cpp:84] Creating Layer loss
I0103 12:14:49.800063 31481 net.cpp:406] loss <- class
I0103 12:14:49.800071 31481 net.cpp:406] loss <- label
I0103 12:14:49.800079 31481 net.cpp:380] loss -> loss
I0103 12:14:49.800096 31481 layer_factory.hpp:77] Creating layer loss
…
I0103 12:14:49.821684 31481 solver.cpp:172] Creating test net (#0) specified by net file: examples/mnist_tests/CNN_RST/CNN.prototxt
I0103 12:14:49.821728 31481 net.cpp:294] The NetState phase (1) differed from the phase (0) specified by a rule in layer mnist
I0103 12:14:49.821811 31481 net.cpp:51] Initializing net from parameters: 
name: "CNN"
state {
  phase: TEST
}
layer {
  name: "mnist"
  type: "Data"
  top: "data"
  top: "label"
  include {
    phase: TEST
  }
  transform_param {
    scale: 0.00390625
  }
  data_param {
    source: "/data2/xyyu/datasets/Mnist/test_RTS_"
    batch_size: 100
    backend: LMDB
  }
}
layer {
  name: "conv1"
  type: "Convolution"
  bottom: "data"
  top: "conv1"
  convolution_param {
    num_output: 32
    kernel_size: 9
    stride: 1
    weight_filler {
      type: "xavier"
    }
    bias_filler {
      type: "constant"
    }
  }
}
layer {
  name: "pool1"
  type: "Pooling"
  bottom: "conv1"
  top: "pool1"
  pooling_param {
    pool: MAX
    kernel_size: 2
    stride: 2
  }
}
layer {
  name: "relu1"
  type: "ReLU"
  bottom: "pool1"
  top: "pool1"
}
layer {
  name: "conv2"
  type: "Convolution"
  bottom: "pool1"
  top: "conv2"
  convolution_param {
    num_output: 32
    kernel_size: 7
    stride: 1
    weight_filler {
      type: "xavier"
    }
    bias_filler {
      type: "constant"
    }
  }
}
layer {
  name: "pool2"
  type: "Pooling"
  bottom: "conv2"
  top: "pool2"
  pooling_param {
    pool: MAX
    kernel_size: 2
    stride: 2
  }
}
layer {
  name: "relu2"
  type: "ReLU"
  bottom: "pool2"
  top: "pool2"
}
layer {
  name: "classification"
  type: "InnerProduct"
  bottom: "pool2"
  top: "class"
  inner_product_param {
    num_output: 10
    weight_filler {
      type: "xavier"
    }
    bias_filler {
      type: "constant"
    }
  }
}
layer {
  name: "accuracy"
  type: "Accuracy"
  bottom: "class"
  bottom: "label"
  top: "accuracy"
  include {
    phase: TEST
  }
}
layer {
  name: "loss"
  type: "SoftmaxWithLoss"
  bottom: "class"
  bottom: "label"
  top: "loss"
}
I0103 12:14:49.822358 31481 layer_factory.hpp:77] Creating layer mnist
I0103 12:14:49.822448 31481 db_lmdb.cpp:35] Opened lmdb /data2/xyyu/datasets/Mnist/test_RTS_
I0103 12:14:49.822477 31481 net.cpp:84] Creating Layer mnist
I0103 12:14:49.822494 31481 net.cpp:380] mnist -> data
I0103 12:14:49.822520 31481 net.cpp:380] mnist -> label
I0103 12:14:49.822692 31481 data_layer.cpp:45] output data size: 100,1,42,42
I0103 12:14:49.841341 31481 net.cpp:122] Setting up mnist
I0103 12:14:49.841392 31481 net.cpp:129] Top shape: 100 1 42 42 (176400)
I0103 12:14:49.841410 31481 net.cpp:129] Top shape: 100 (100)
I0103 12:14:49.841428 31481 net.cpp:137] Memory required for data: 706000
I0103 12:14:49.841444 31481 layer_factory.hpp:77] Creating layer label_mnist_1_split
I0103 12:14:49.841480 31481 net.cpp:84] Creating Layer label_mnist_1_split
I0103 12:14:49.841498 31481 net.cpp:406] label_mnist_1_split <- label
I0103 12:14:49.841528 31481 net.cpp:380] label_mnist_1_split -> label_mnist_1_split_0
I0103 12:14:49.841552 31481 net.cpp:380] label_mnist_1_split -> label_mnist_1_split_1
I0103 12:14:49.841624 31481 net.cpp:122] Setting up label_mnist_1_split
I0103 12:14:49.841635 31481 net.cpp:129] Top shape: 100 (100)
I0103 12:14:49.841641 31481 net.cpp:129] Top shape: 100 (100)
I0103 12:14:49.841646 31481 net.cpp:137] Memory required for data: 706800
I0103 12:14:49.841652 31481 layer_factory.hpp:77] Creating layer conv1
I0103 12:14:49.841668 31481 net.cpp:84] Creating Layer conv1
I0103 12:14:49.841675 31481 net.cpp:406] conv1 <- data
I0103 12:14:49.841686 31481 net.cpp:380] conv1 -> conv1
I0103 12:14:49.853898 31481 net.cpp:122] Setting up conv1
I0103 12:14:49.853945 31481 net.cpp:129] Top shape: 100 32 34 34 (3699200)
I0103 12:14:49.853958 31481 net.cpp:137] Memory required for data: 15503600
I0103 12:14:49.853981 31481 layer_factory.hpp:77] Creating layer pool1
I0103 12:14:49.854005 31481 net.cpp:84] Creating Layer pool1
I0103 12:14:49.854027 31481 net.cpp:406] pool1 <- conv1
I0103 12:14:49.854040 31481 net.cpp:380] pool1 -> pool1
I0103 12:14:49.854089 31481 net.cpp:122] Setting up pool1
I0103 12:14:49.854104 31481 net.cpp:129] Top shape: 100 32 17 17 (924800)
I0103 12:14:49.854110 31481 net.cpp:137] Memory required for data: 19202800
I0103 12:14:49.854115 31481 layer_factory.hpp:77] Creating layer relu1
I0103 12:14:49.854125 31481 net.cpp:84] Creating Layer relu1
I0103 12:14:49.854159 31481 net.cpp:406] relu1 <- pool1
I0103 12:14:49.854172 31481 net.cpp:367] relu1 -> pool1 (in-place)
I0103 12:14:49.854357 31481 net.cpp:122] Setting up relu1
I0103 12:14:49.854372 31481 net.cpp:129] Top shape: 100 32 17 17 (924800)
I0103 12:14:49.854377 31481 net.cpp:137] Memory required for data: 22902000
I0103 12:14:49.854387 31481 layer_factory.hpp:77] Creating layer conv2
I0103 12:14:49.854421 31481 net.cpp:84] Creating Layer conv2
I0103 12:14:49.854429 31481 net.cpp:406] conv2 <- pool1
I0103 12:14:49.854439 31481 net.cpp:380] conv2 -> conv2
I0103 12:14:49.865742 31481 net.cpp:122] Setting up conv2
I0103 12:14:49.865792 31481 net.cpp:129] Top shape: 100 32 11 11 (387200)
I0103 12:14:49.865804 31481 net.cpp:137] Memory required for data: 24450800
I0103 12:14:49.865828 31481 layer_factory.hpp:77] Creating layer pool2
I0103 12:14:49.865849 31481 net.cpp:84] Creating Layer pool2
I0103 12:14:49.865861 31481 net.cpp:406] pool2 <- conv2
I0103 12:14:49.865876 31481 net.cpp:380] pool2 -> pool2
I0103 12:14:49.865965 31481 net.cpp:122] Setting up pool2
I0103 12:14:49.865983 31481 net.cpp:129] Top shape: 100 32 6 6 (115200)
I0103 12:14:49.865993 31481 net.cpp:137] Memory required for data: 24911600
I0103 12:14:49.866003 31481 layer_factory.hpp:77] Creating layer relu2
I0103 12:14:49.866017 31481 net.cpp:84] Creating Layer relu2
I0103 12:14:49.866027 31481 net.cpp:406] relu2 <- pool2
I0103 12:14:49.866041 31481 net.cpp:367] relu2 -> pool2 (in-place)
I0103 12:14:49.866322 31481 net.cpp:122] Setting up relu2
I0103 12:14:49.866343 31481 net.cpp:129] Top shape: 100 32 6 6 (115200)
I0103 12:14:49.866354 31481 net.cpp:137] Memory required for data: 25372400
I0103 12:14:49.866364 31481 layer_factory.hpp:77] Creating layer classification
I0103 12:14:49.866385 31481 net.cpp:84] Creating Layer classification
I0103 12:14:49.866397 31481 net.cpp:406] classification <- pool2
I0103 12:14:49.866412 31481 net.cpp:380] classification -> class
I0103 12:14:49.866713 31481 net.cpp:122] Setting up classification
I0103 12:14:49.866734 31481 net.cpp:129] Top shape: 100 10 (1000)
I0103 12:14:49.866744 31481 net.cpp:137] Memory required for data: 25376400
I0103 12:14:49.866768 31481 layer_factory.hpp:77] Creating layer class_classification_0_split
I0103 12:14:49.866792 31481 net.cpp:84] Creating Layer class_classification_0_split
I0103 12:14:49.866803 31481 net.cpp:406] class_classification_0_split <- class
I0103 12:14:49.866816 31481 net.cpp:380] class_classification_0_split -> class_classification_0_split_0
I0103 12:14:49.866832 31481 net.cpp:380] class_classification_0_split -> class_classification_0_split_1
I0103 12:14:49.866895 31481 net.cpp:122] Setting up class_classification_0_split
I0103 12:14:49.866911 31481 net.cpp:129] Top shape: 100 10 (1000)
I0103 12:14:49.866922 31481 net.cpp:129] Top shape: 100 10 (1000)
I0103 12:14:49.866932 31481 net.cpp:137] Memory required for data: 25384400
I0103 12:14:49.866942 31481 layer_factory.hpp:77] Creating layer accuracy
I0103 12:14:49.866956 31481 net.cpp:84] Creating Layer accuracy
I0103 12:14:49.866967 31481 net.cpp:406] accuracy <- class_classification_0_split_0
I0103 12:14:49.866979 31481 net.cpp:406] accuracy <- label_mnist_1_split_0
I0103 12:14:49.866993 31481 net.cpp:380] accuracy -> accuracy
…
