…
I1231 00:37:08.965114  5082 net.cpp:294] The NetState phase (0) differed from the phase (1) specified by a rule in layer mnist
I1231 00:37:08.965169  5082 net.cpp:294] The NetState phase (0) differed from the phase (1) specified by a rule in layer accuracy
I1231 00:37:08.965301  5082 net.cpp:51] Initializing net from parameters: 
name: "FCN"
state {
  phase: TRAIN
  level: 0
  stage: ""
}
layer {
  name: "mnist"
  type: "Data"
  top: "data"
  top: "label"
  include {
    phase: TRAIN
  }
  transform_param {
    scale: 0.00390625
  }
  data_param {
    source: "/data2/xyyu/datasets/Mnist/train_R_ran"
    batch_size: 256
    backend: LMDB
  }
}
layer {
  name: "ip1"
  type: "InnerProduct"
  bottom: "data"
  top: "ip1"
  inner_product_param {
    num_output: 256
    weight_filler {
      type: "xavier"
    }
    bias_filler {
      type: "constant"
    }
  }
}
layer {
  name: "relu1"
  type: "ReLU"
  bottom: "ip1"
  top: "ip1"
}
layer {
  name: "ip2"
  type: "InnerProduct"
  bottom: "ip1"
  top: "ip2"
  inner_product_param {
    num_output: 256
    weight_filler {
      type: "xavier"
    }
    bias_filler {
      type: "constant"
    }
  }
}
layer {
  name: "relu2"
  type: "ReLU"
  bottom: "ip2"
  top: "ip2"
}
layer {
  name: "classification"
  type: "InnerProduct"
  bottom: "ip2"
  top: "class"
  inner_product_param {
    num_output: 10
    weight_filler {
      type: "xavier"
    }
    bias_filler {
      type: "constant"
    }
  }
}
layer {
  name: "loss"
  type: "SoftmaxWithLoss"
  bottom: "class"
  bottom: "label"
  top: "loss"
}
I1231 00:37:08.966238  5082 layer_factory.hpp:77] Creating layer mnist
I1231 00:37:09.004961  5082 db_lmdb.cpp:35] Opened lmdb /data2/xyyu/datasets/Mnist/train_R_ran
I1231 00:37:09.005650  5082 net.cpp:84] Creating Layer mnist
I1231 00:37:09.005673  5082 net.cpp:380] mnist -> data
I1231 00:37:09.005705  5082 net.cpp:380] mnist -> label
I1231 00:37:09.008049  5082 data_layer.cpp:45] output data size: 256,1,28,28
I1231 00:37:09.027392  5082 net.cpp:122] Setting up mnist
I1231 00:37:09.027467  5082 net.cpp:129] Top shape: 256 1 28 28 (200704)
I1231 00:37:09.027501  5082 net.cpp:129] Top shape: 256 (256)
I1231 00:37:09.027523  5082 net.cpp:137] Memory required for data: 803840
I1231 00:37:09.027549  5082 layer_factory.hpp:77] Creating layer ip1
I1231 00:37:09.027590  5082 net.cpp:84] Creating Layer ip1
I1231 00:37:09.027621  5082 net.cpp:406] ip1 <- data
I1231 00:37:09.027662  5082 net.cpp:380] ip1 -> ip1
I1231 00:37:09.034965  5082 net.cpp:122] Setting up ip1
I1231 00:37:09.035020  5082 net.cpp:129] Top shape: 256 256 (65536)
I1231 00:37:09.035034  5082 net.cpp:137] Memory required for data: 1065984
I1231 00:37:09.035069  5082 layer_factory.hpp:77] Creating layer relu1
I1231 00:37:09.035097  5082 net.cpp:84] Creating Layer relu1
I1231 00:37:09.035109  5082 net.cpp:406] relu1 <- ip1
I1231 00:37:09.035125  5082 net.cpp:367] relu1 -> ip1 (in-place)
I1231 00:37:09.864122  5082 net.cpp:122] Setting up relu1
I1231 00:37:09.864166  5082 net.cpp:129] Top shape: 256 256 (65536)
I1231 00:37:09.864177  5082 net.cpp:137] Memory required for data: 1328128
I1231 00:37:09.864189  5082 layer_factory.hpp:77] Creating layer ip2
I1231 00:37:09.864208  5082 net.cpp:84] Creating Layer ip2
I1231 00:37:09.864220  5082 net.cpp:406] ip2 <- ip1
I1231 00:37:09.864235  5082 net.cpp:380] ip2 -> ip2
I1231 00:37:09.866199  5082 net.cpp:122] Setting up ip2
I1231 00:37:09.866219  5082 net.cpp:129] Top shape: 256 256 (65536)
I1231 00:37:09.866225  5082 net.cpp:137] Memory required for data: 1590272
I1231 00:37:09.866258  5082 layer_factory.hpp:77] Creating layer relu2
I1231 00:37:09.866269  5082 net.cpp:84] Creating Layer relu2
I1231 00:37:09.866276  5082 net.cpp:406] relu2 <- ip2
I1231 00:37:09.866282  5082 net.cpp:367] relu2 -> ip2 (in-place)
I1231 00:37:09.867727  5082 net.cpp:122] Setting up relu2
I1231 00:37:09.867744  5082 net.cpp:129] Top shape: 256 256 (65536)
I1231 00:37:09.867751  5082 net.cpp:137] Memory required for data: 1852416
I1231 00:37:09.867758  5082 layer_factory.hpp:77] Creating layer classification
I1231 00:37:09.867766  5082 net.cpp:84] Creating Layer classification
I1231 00:37:09.867772  5082 net.cpp:406] classification <- ip2
I1231 00:37:09.867780  5082 net.cpp:380] classification -> class
I1231 00:37:09.869218  5082 net.cpp:122] Setting up classification
I1231 00:37:09.869238  5082 net.cpp:129] Top shape: 256 10 (2560)
I1231 00:37:09.869244  5082 net.cpp:137] Memory required for data: 1862656
I1231 00:37:09.869254  5082 layer_factory.hpp:77] Creating layer loss
I1231 00:37:09.869267  5082 net.cpp:84] Creating Layer loss
I1231 00:37:09.869273  5082 net.cpp:406] loss <- class
I1231 00:37:09.869280  5082 net.cpp:406] loss <- label
I1231 00:37:09.869287  5082 net.cpp:380] loss -> loss
I1231 00:37:09.869303  5082 layer_factory.hpp:77] Creating layer loss
…
I1231 00:37:09.869755  5082 solver.cpp:172] Creating test net (#0) specified by net file: examples/mnist_tests/FCN/FCN.prototxt
I1231 00:37:09.869778  5082 net.cpp:294] The NetState phase (1) differed from the phase (0) specified by a rule in layer mnist
I1231 00:37:09.869829  5082 net.cpp:51] Initializing net from parameters: 
name: "FCN"
state {
  phase: TEST
}
layer {
  name: "mnist"
  type: "Data"
  top: "data"
  top: "label"
  include {
    phase: TEST
  }
  transform_param {
    scale: 0.00390625
  }
  data_param {
    source: "/data2/xyyu/datasets/Mnist/test_R_ran"
    batch_size: 100
    backend: LMDB
  }
}
layer {
  name: "ip1"
  type: "InnerProduct"
  bottom: "data"
  top: "ip1"
  inner_product_param {
    num_output: 256
    weight_filler {
      type: "xavier"
    }
    bias_filler {
      type: "constant"
    }
  }
}
layer {
  name: "relu1"
  type: "ReLU"
  bottom: "ip1"
  top: "ip1"
}
layer {
  name: "ip2"
  type: "InnerProduct"
  bottom: "ip1"
  top: "ip2"
  inner_product_param {
    num_output: 256
    weight_filler {
      type: "xavier"
    }
    bias_filler {
      type: "constant"
    }
  }
}
layer {
  name: "relu2"
  type: "ReLU"
  bottom: "ip2"
  top: "ip2"
}
layer {
  name: "classification"
  type: "InnerProduct"
  bottom: "ip2"
  top: "class"
  inner_product_param {
    num_output: 10
    weight_filler {
      type: "xavier"
    }
    bias_filler {
      type: "constant"
    }
  }
}
layer {
  name: "accuracy"
  type: "Accuracy"
  bottom: "class"
  bottom: "label"
  top: "accuracy"
  include {
    phase: TEST
  }
}
layer {
  name: "loss"
  type: "SoftmaxWithLoss"
  bottom: "class"
  bottom: "label"
  top: "loss"
}
I1231 00:37:09.870074  5082 layer_factory.hpp:77] Creating layer mnist
I1231 00:37:09.918529  5082 db_lmdb.cpp:35] Opened lmdb /data2/xyyu/datasets/Mnist/test_R_ran
I1231 00:37:09.923583  5082 net.cpp:84] Creating Layer mnist
I1231 00:37:09.923633  5082 net.cpp:380] mnist -> data
I1231 00:37:09.923665  5082 net.cpp:380] mnist -> label
I1231 00:37:09.923874  5082 data_layer.cpp:45] output data size: 100,1,28,28
I1231 00:37:09.935961  5082 net.cpp:122] Setting up mnist
I1231 00:37:09.935978  5082 net.cpp:129] Top shape: 100 1 28 28 (78400)
I1231 00:37:09.935986  5082 net.cpp:129] Top shape: 100 (100)
I1231 00:37:09.935992  5082 net.cpp:137] Memory required for data: 314000
I1231 00:37:09.935998  5082 layer_factory.hpp:77] Creating layer label_mnist_1_split
I1231 00:37:09.936034  5082 net.cpp:84] Creating Layer label_mnist_1_split
I1231 00:37:09.936044  5082 net.cpp:406] label_mnist_1_split <- label
I1231 00:37:09.936053  5082 net.cpp:380] label_mnist_1_split -> label_mnist_1_split_0
I1231 00:37:09.936062  5082 net.cpp:380] label_mnist_1_split -> label_mnist_1_split_1
I1231 00:37:09.936167  5082 net.cpp:122] Setting up label_mnist_1_split
I1231 00:37:09.936179  5082 net.cpp:129] Top shape: 100 (100)
I1231 00:37:09.936185  5082 net.cpp:129] Top shape: 100 (100)
I1231 00:37:09.936190  5082 net.cpp:137] Memory required for data: 314800
I1231 00:37:09.936197  5082 layer_factory.hpp:77] Creating layer ip1
I1231 00:37:09.936206  5082 net.cpp:84] Creating Layer ip1
I1231 00:37:09.936213  5082 net.cpp:406] ip1 <- data
I1231 00:37:09.936219  5082 net.cpp:380] ip1 -> ip1
I1231 00:37:09.938112  5082 net.cpp:122] Setting up ip1
I1231 00:37:09.938132  5082 net.cpp:129] Top shape: 100 256 (25600)
I1231 00:37:09.938138  5082 net.cpp:137] Memory required for data: 417200
I1231 00:37:09.938148  5082 layer_factory.hpp:77] Creating layer relu1
I1231 00:37:09.938158  5082 net.cpp:84] Creating Layer relu1
I1231 00:37:09.938163  5082 net.cpp:406] relu1 <- ip1
I1231 00:37:09.938170  5082 net.cpp:367] relu1 -> ip1 (in-place)
I1231 00:37:09.940528  5082 net.cpp:122] Setting up relu1
I1231 00:37:09.940542  5082 net.cpp:129] Top shape: 100 256 (25600)
I1231 00:37:09.940552  5082 net.cpp:137] Memory required for data: 519600
I1231 00:37:09.940558  5082 layer_factory.hpp:77] Creating layer ip2
I1231 00:37:09.940568  5082 net.cpp:84] Creating Layer ip2
I1231 00:37:09.940573  5082 net.cpp:406] ip2 <- ip1
I1231 00:37:09.940582  5082 net.cpp:380] ip2 -> ip2
I1231 00:37:09.946832  5082 net.cpp:122] Setting up ip2
I1231 00:37:09.946856  5082 net.cpp:129] Top shape: 100 256 (25600)
I1231 00:37:09.946863  5082 net.cpp:137] Memory required for data: 622000
I1231 00:37:09.946887  5082 layer_factory.hpp:77] Creating layer relu2
I1231 00:37:09.946895  5082 net.cpp:84] Creating Layer relu2
I1231 00:37:09.946903  5082 net.cpp:406] relu2 <- ip2
I1231 00:37:09.946912  5082 net.cpp:367] relu2 -> ip2 (in-place)
I1231 00:37:09.948195  5082 net.cpp:122] Setting up relu2
I1231 00:37:09.948213  5082 net.cpp:129] Top shape: 100 256 (25600)
I1231 00:37:09.948220  5082 net.cpp:137] Memory required for data: 724400
I1231 00:37:09.948226  5082 layer_factory.hpp:77] Creating layer classification
I1231 00:37:09.948236  5082 net.cpp:84] Creating Layer classification
I1231 00:37:09.948242  5082 net.cpp:406] classification <- ip2
I1231 00:37:09.948249  5082 net.cpp:380] classification -> class
I1231 00:37:09.948345  5082 net.cpp:122] Setting up classification
I1231 00:37:09.948356  5082 net.cpp:129] Top shape: 100 10 (1000)
I1231 00:37:09.948362  5082 net.cpp:137] Memory required for data: 728400
I1231 00:37:09.948372  5082 layer_factory.hpp:77] Creating layer class_classification_0_split
I1231 00:37:09.948379  5082 net.cpp:84] Creating Layer class_classification_0_split
I1231 00:37:09.948385  5082 net.cpp:406] class_classification_0_split <- class
I1231 00:37:09.948393  5082 net.cpp:380] class_classification_0_split -> class_classification_0_split_0
I1231 00:37:09.948401  5082 net.cpp:380] class_classification_0_split -> class_classification_0_split_1
I1231 00:37:09.948431  5082 net.cpp:122] Setting up class_classification_0_split
I1231 00:37:09.948439  5082 net.cpp:129] Top shape: 100 10 (1000)
I1231 00:37:09.948446  5082 net.cpp:129] Top shape: 100 10 (1000)
I1231 00:37:09.948463  5082 net.cpp:137] Memory required for data: 736400
I1231 00:37:09.948470  5082 layer_factory.hpp:77] Creating layer accuracy
I1231 00:37:09.948478  5082 net.cpp:84] Creating Layer accuracy
I1231 00:37:09.948484  5082 net.cpp:406] accuracy <- class_classification_0_split_0
I1231 00:37:09.948490  5082 net.cpp:406] accuracy <- label_mnist_1_split_0
I1231 00:37:09.948498  5082 net.cpp:380] accuracy -> accuracy
…
