…
I0103 14:02:38.702471 31545 net.cpp:294] The NetState phase (0) differed from the phase (1) specified by a rule in layer mnist
I0103 14:02:38.702497 31545 net.cpp:294] The NetState phase (0) differed from the phase (1) specified by a rule in layer accuracy
I0103 14:02:38.702570 31545 net.cpp:51] Initializing net from parameters: 
name: "FCN"
state {
  phase: TRAIN
  level: 0
  stage: ""
}
layer {
  name: "mnist"
  type: "Data"
  top: "data"
  top: "label"
  include {
    phase: TRAIN
  }
  transform_param {
    scale: 0.00390625
  }
  data_param {
    source: "/data2/xyyu/datasets/Mnist/train_RTS_"
    batch_size: 256
    backend: LMDB
  }
}
layer {
  name: "ip1"
  type: "InnerProduct"
  bottom: "data"
  top: "ip1"
  inner_product_param {
    num_output: 256
    weight_filler {
      type: "xavier"
    }
    bias_filler {
      type: "constant"
    }
  }
}
layer {
  name: "relu1"
  type: "ReLU"
  bottom: "ip1"
  top: "ip1"
}
layer {
  name: "ip2"
  type: "InnerProduct"
  bottom: "ip1"
  top: "ip2"
  inner_product_param {
    num_output: 256
    weight_filler {
      type: "xavier"
    }
    bias_filler {
      type: "constant"
    }
  }
}
layer {
  name: "relu2"
  type: "ReLU"
  bottom: "ip2"
  top: "ip2"
}
layer {
  name: "classification"
  type: "InnerProduct"
  bottom: "ip2"
  top: "class"
  inner_product_param {
    num_output: 10
    weight_filler {
      type: "xavier"
    }
    bias_filler {
      type: "constant"
    }
  }
}
layer {
  name: "loss"
  type: "SoftmaxWithLoss"
  bottom: "class"
  bottom: "label"
  top: "loss"
}
I0103 14:02:38.702982 31545 layer_factory.hpp:77] Creating layer mnist
I0103 14:02:38.703106 31545 db_lmdb.cpp:35] Opened lmdb /data2/xyyu/datasets/Mnist/train_RTS_
I0103 14:02:38.703153 31545 net.cpp:84] Creating Layer mnist
I0103 14:02:38.703173 31545 net.cpp:380] mnist -> data
I0103 14:02:38.703210 31545 net.cpp:380] mnist -> label
I0103 14:02:38.705539 31545 data_layer.cpp:45] output data size: 256,1,42,42
I0103 14:02:38.781203 31545 net.cpp:122] Setting up mnist
I0103 14:02:38.781245 31545 net.cpp:129] Top shape: 256 1 42 42 (451584)
I0103 14:02:38.781260 31545 net.cpp:129] Top shape: 256 (256)
I0103 14:02:38.781270 31545 net.cpp:137] Memory required for data: 1807360
I0103 14:02:38.781289 31545 layer_factory.hpp:77] Creating layer ip1
I0103 14:02:38.781314 31545 net.cpp:84] Creating Layer ip1
I0103 14:02:38.781330 31545 net.cpp:406] ip1 <- data
I0103 14:02:38.781352 31545 net.cpp:380] ip1 -> ip1
I0103 14:02:38.788669 31545 net.cpp:122] Setting up ip1
I0103 14:02:38.788703 31545 net.cpp:129] Top shape: 256 256 (65536)
I0103 14:02:38.788715 31545 net.cpp:137] Memory required for data: 2069504
I0103 14:02:38.788745 31545 layer_factory.hpp:77] Creating layer relu1
I0103 14:02:38.788790 31545 net.cpp:84] Creating Layer relu1
I0103 14:02:38.788802 31545 net.cpp:406] relu1 <- ip1
I0103 14:02:38.788830 31545 net.cpp:367] relu1 -> ip1 (in-place)
I0103 14:02:39.601858 31545 net.cpp:122] Setting up relu1
I0103 14:02:39.601912 31545 net.cpp:129] Top shape: 256 256 (65536)
I0103 14:02:39.601923 31545 net.cpp:137] Memory required for data: 2331648
I0103 14:02:39.601938 31545 layer_factory.hpp:77] Creating layer ip2
I0103 14:02:39.601960 31545 net.cpp:84] Creating Layer ip2
I0103 14:02:39.601972 31545 net.cpp:406] ip2 <- ip1
I0103 14:02:39.601990 31545 net.cpp:380] ip2 -> ip2
I0103 14:02:39.604439 31545 net.cpp:122] Setting up ip2
I0103 14:02:39.604472 31545 net.cpp:129] Top shape: 256 256 (65536)
I0103 14:02:39.604483 31545 net.cpp:137] Memory required for data: 2593792
I0103 14:02:39.604532 31545 layer_factory.hpp:77] Creating layer relu2
I0103 14:02:39.604555 31545 net.cpp:84] Creating Layer relu2
I0103 14:02:39.604568 31545 net.cpp:406] relu2 <- ip2
I0103 14:02:39.604580 31545 net.cpp:367] relu2 -> ip2 (in-place)
I0103 14:02:39.605893 31545 net.cpp:122] Setting up relu2
I0103 14:02:39.605921 31545 net.cpp:129] Top shape: 256 256 (65536)
I0103 14:02:39.605933 31545 net.cpp:137] Memory required for data: 2855936
I0103 14:02:39.605943 31545 layer_factory.hpp:77] Creating layer classification
I0103 14:02:39.605958 31545 net.cpp:84] Creating Layer classification
I0103 14:02:39.605968 31545 net.cpp:406] classification <- ip2
I0103 14:02:39.605980 31545 net.cpp:380] classification -> class
I0103 14:02:39.607811 31545 net.cpp:122] Setting up classification
I0103 14:02:39.607839 31545 net.cpp:129] Top shape: 256 10 (2560)
I0103 14:02:39.607851 31545 net.cpp:137] Memory required for data: 2866176
I0103 14:02:39.607868 31545 layer_factory.hpp:77] Creating layer loss
I0103 14:02:39.607888 31545 net.cpp:84] Creating Layer loss
I0103 14:02:39.607899 31545 net.cpp:406] loss <- class
I0103 14:02:39.607911 31545 net.cpp:406] loss <- label
I0103 14:02:39.607924 31545 net.cpp:380] loss -> loss
I0103 14:02:39.607949 31545 layer_factory.hpp:77] Creating layer loss
…
I0103 14:02:39.608676 31545 solver.cpp:172] Creating test net (#0) specified by net file: examples/mnist_tests/FCN_RST/FCN.prototxt
I0103 14:02:39.608714 31545 net.cpp:294] The NetState phase (1) differed from the phase (0) specified by a rule in layer mnist
I0103 14:02:39.608798 31545 net.cpp:51] Initializing net from parameters: 
name: "FCN"
state {
  phase: TEST
}
layer {
  name: "mnist"
  type: "Data"
  top: "data"
  top: "label"
  include {
    phase: TEST
  }
  transform_param {
    scale: 0.00390625
  }
  data_param {
    source: "/data2/xyyu/datasets/Mnist/test_RTS_"
    batch_size: 100
    backend: LMDB
  }
}
layer {
  name: "ip1"
  type: "InnerProduct"
  bottom: "data"
  top: "ip1"
  inner_product_param {
    num_output: 256
    weight_filler {
      type: "xavier"
    }
    bias_filler {
      type: "constant"
    }
  }
}
layer {
  name: "relu1"
  type: "ReLU"
  bottom: "ip1"
  top: "ip1"
}
layer {
  name: "ip2"
  type: "InnerProduct"
  bottom: "ip1"
  top: "ip2"
  inner_product_param {
    num_output: 256
    weight_filler {
      type: "xavier"
    }
    bias_filler {
      type: "constant"
    }
  }
}
layer {
  name: "relu2"
  type: "ReLU"
  bottom: "ip2"
  top: "ip2"
}
layer {
  name: "classification"
  type: "InnerProduct"
  bottom: "ip2"
  top: "class"
  inner_product_param {
    num_output: 10
    weight_filler {
      type: "xavier"
    }
    bias_filler {
      type: "constant"
    }
  }
}
layer {
  name: "accuracy"
  type: "Accuracy"
  bottom: "class"
  bottom: "label"
  top: "accuracy"
  include {
    phase: TEST
  }
}
layer {
  name: "loss"
  type: "SoftmaxWithLoss"
  bottom: "class"
  bottom: "label"
  top: "loss"
}
I0103 14:02:39.609225 31545 layer_factory.hpp:77] Creating layer mnist
I0103 14:02:39.609295 31545 db_lmdb.cpp:35] Opened lmdb /data2/xyyu/datasets/Mnist/test_RTS_
I0103 14:02:39.609338 31545 net.cpp:84] Creating Layer mnist
I0103 14:02:39.609352 31545 net.cpp:380] mnist -> data
I0103 14:02:39.609369 31545 net.cpp:380] mnist -> label
I0103 14:02:39.609484 31545 data_layer.cpp:45] output data size: 100,1,42,42
I0103 14:02:39.625696 31545 net.cpp:122] Setting up mnist
I0103 14:02:39.625746 31545 net.cpp:129] Top shape: 100 1 42 42 (176400)
I0103 14:02:39.625761 31545 net.cpp:129] Top shape: 100 (100)
I0103 14:02:39.625771 31545 net.cpp:137] Memory required for data: 706000
I0103 14:02:39.625783 31545 layer_factory.hpp:77] Creating layer label_mnist_1_split
I0103 14:02:39.625809 31545 net.cpp:84] Creating Layer label_mnist_1_split
I0103 14:02:39.625821 31545 net.cpp:406] label_mnist_1_split <- label
I0103 14:02:39.625838 31545 net.cpp:380] label_mnist_1_split -> label_mnist_1_split_0
I0103 14:02:39.625856 31545 net.cpp:380] label_mnist_1_split -> label_mnist_1_split_1
I0103 14:02:39.625936 31545 net.cpp:122] Setting up label_mnist_1_split
I0103 14:02:39.625954 31545 net.cpp:129] Top shape: 100 (100)
I0103 14:02:39.625967 31545 net.cpp:129] Top shape: 100 (100)
I0103 14:02:39.625977 31545 net.cpp:137] Memory required for data: 706800
I0103 14:02:39.625988 31545 layer_factory.hpp:77] Creating layer ip1
I0103 14:02:39.626005 31545 net.cpp:84] Creating Layer ip1
I0103 14:02:39.626016 31545 net.cpp:406] ip1 <- data
I0103 14:02:39.626029 31545 net.cpp:380] ip1 -> ip1
I0103 14:02:39.631908 31545 net.cpp:122] Setting up ip1
I0103 14:02:39.631947 31545 net.cpp:129] Top shape: 100 256 (25600)
I0103 14:02:39.631958 31545 net.cpp:137] Memory required for data: 809200
I0103 14:02:39.631980 31545 layer_factory.hpp:77] Creating layer relu1
I0103 14:02:39.631999 31545 net.cpp:84] Creating Layer relu1
I0103 14:02:39.632014 31545 net.cpp:406] relu1 <- ip1
I0103 14:02:39.632026 31545 net.cpp:367] relu1 -> ip1 (in-place)
I0103 14:02:39.632262 31545 net.cpp:122] Setting up relu1
I0103 14:02:39.632290 31545 net.cpp:129] Top shape: 100 256 (25600)
I0103 14:02:39.632302 31545 net.cpp:137] Memory required for data: 911600
I0103 14:02:39.632310 31545 layer_factory.hpp:77] Creating layer ip2
I0103 14:02:39.632326 31545 net.cpp:84] Creating Layer ip2
I0103 14:02:39.632338 31545 net.cpp:406] ip2 <- ip1
I0103 14:02:39.632351 31545 net.cpp:380] ip2 -> ip2
I0103 14:02:39.633003 31545 net.cpp:122] Setting up ip2
I0103 14:02:39.633031 31545 net.cpp:129] Top shape: 100 256 (25600)
I0103 14:02:39.633044 31545 net.cpp:137] Memory required for data: 1014000
I0103 14:02:39.633061 31545 layer_factory.hpp:77] Creating layer relu2
I0103 14:02:39.633077 31545 net.cpp:84] Creating Layer relu2
I0103 14:02:39.633088 31545 net.cpp:406] relu2 <- ip2
I0103 14:02:39.633101 31545 net.cpp:367] relu2 -> ip2 (in-place)
I0103 14:02:39.636929 31545 net.cpp:122] Setting up relu2
I0103 14:02:39.636963 31545 net.cpp:129] Top shape: 100 256 (25600)
I0103 14:02:39.636976 31545 net.cpp:137] Memory required for data: 1116400
I0103 14:02:39.636987 31545 layer_factory.hpp:77] Creating layer classification
I0103 14:02:39.637002 31545 net.cpp:84] Creating Layer classification
I0103 14:02:39.637012 31545 net.cpp:406] classification <- ip2
I0103 14:02:39.637028 31545 net.cpp:380] classification -> class
I0103 14:02:39.637200 31545 net.cpp:122] Setting up classification
I0103 14:02:39.637223 31545 net.cpp:129] Top shape: 100 10 (1000)
I0103 14:02:39.637233 31545 net.cpp:137] Memory required for data: 1120400
I0103 14:02:39.637255 31545 layer_factory.hpp:77] Creating layer class_classification_0_split
I0103 14:02:39.637274 31545 net.cpp:84] Creating Layer class_classification_0_split
I0103 14:02:39.637290 31545 net.cpp:406] class_classification_0_split <- class
I0103 14:02:39.637305 31545 net.cpp:380] class_classification_0_split -> class_classification_0_split_0
I0103 14:02:39.637320 31545 net.cpp:380] class_classification_0_split -> class_classification_0_split_1
I0103 14:02:39.637372 31545 net.cpp:122] Setting up class_classification_0_split
I0103 14:02:39.637392 31545 net.cpp:129] Top shape: 100 10 (1000)
I0103 14:02:39.637405 31545 net.cpp:129] Top shape: 100 10 (1000)
I0103 14:02:39.637441 31545 net.cpp:137] Memory required for data: 1128400
I0103 14:02:39.637452 31545 layer_factory.hpp:77] Creating layer accuracy
I0103 14:02:39.637471 31545 net.cpp:84] Creating Layer accuracy
I0103 14:02:39.637503 31545 net.cpp:406] accuracy <- class_classification_0_split_0
I0103 14:02:39.637516 31545 net.cpp:406] accuracy <- label_mnist_1_split_0
I0103 14:02:39.637528 31545 net.cpp:380] accuracy -> accuracy
…
