…
I0103 15:36:25.872098 28512 net.cpp:294] The NetState phase (0) differed from the phase (1) specified by a rule in layer mnist
I0103 15:36:25.872171 28512 net.cpp:294] The NetState phase (0) differed from the phase (1) specified by a rule in layer accuracy
I0103 15:36:25.872385 28512 net.cpp:51] Initializing net from parameters: 
name: "ST_CNN"
state {
  phase: TRAIN
  level: 0
  stage: ""
}
layer {
  name: "mnist"
  type: "Data"
  top: "data"
  top: "label"
  include {
    phase: TRAIN
  }
  transform_param {
    scale: 0.00390625
  }
  data_param {
    source: "/data2/xyyu/datasets/Mnist/train_RTS_"
    batch_size: 256
    backend: LMDB
  }
}
layer {
  name: "loc_conv1"
  type: "Convolution"
  bottom: "data"
  top: "loc_conv1"
  convolution_param {
    num_output: 20
    kernel_size: 5
    stride: 1
    weight_filler {
      type: "xavier"
    }
    bias_filler {
      type: "constant"
    }
  }
}
layer {
  name: "loc_pool1"
  type: "Pooling"
  bottom: "loc_conv1"
  top: "loc_pool1"
  pooling_param {
    pool: MAX
    kernel_size: 2
    stride: 2
  }
}
layer {
  name: "loc_relu1"
  type: "ReLU"
  bottom: "loc_pool1"
  top: "loc_pool1"
}
layer {
  name: "loc_conv2"
  type: "Convolution"
  bottom: "loc_pool1"
  top: "loc_conv2"
  convolution_param {
    num_output: 20
    kernel_size: 5
    stride: 1
    weight_filler {
      type: "xavier"
    }
    bias_filler {
      type: "constant"
    }
  }
}
layer {
  name: "loc_pool2"
  type: "Pooling"
  bottom: "loc_conv2"
  top: "loc_pool2"
  pooling_param {
    pool: MAX
    kernel_size: 2
    stride: 2
  }
}
layer {
  name: "loc_relu2"
  type: "ReLU"
  bottom: "loc_pool2"
  top: "loc_pool2"
}
layer {
  name: "loc_ip1"
  type: "InnerProduct"
  bottom: "loc_pool2"
  top: "loc_ip1"
  inner_product_param {
    num_output: 20
    weight_filler {
      type: "xavier"
    }
    bias_filler {
      type: "constant"
    }
  }
}
layer {
  name: "loc_relu3"
  type: "ReLU"
  bottom: "loc_ip1"
  top: "loc_ip1"
}
layer {
  name: "loc_reg"
  type: "InnerProduct"
  bottom: "loc_ip1"
  top: "theta"
  inner_product_param {
    num_output: 6
    weight_filler {
      type: "constant"
      value: 0
    }
    bias_filler {
      type: "file"
      file: "examples/mnist_tests/bias_init.txt"
    }
  }
}
layer {
  name: "st_layer"
  type: "SpatialTransformer"
  bottom: "data"
  bottom: "theta"
  top: "st_output"
  st_param {
    to_compute_dU: false
  }
}
layer {
  name: "conv1"
  type: "Convolution"
  bottom: "st_output"
  top: "conv1"
  convolution_param {
    num_output: 32
    kernel_size: 9
    stride: 1
    weight_filler {
      type: "xavier"
    }
    bias_filler {
      type: "constant"
    }
  }
}
layer {
  name: "pool1"
  type: "Pooling"
  bottom: "conv1"
  top: "pool1"
  pooling_param {
    pool: MAX
    kernel_size: 2
    stride: 2
  }
}
layer {
  name: "relu1"
  type: "ReLU"
  bottom: "pool1"
  top: "pool1"
}
layer {
  name: "conv2"
  type: "Convolution"
  bottom: "pool1"
  top: "conv2"
  convolution_param {
    num_output: 32
    kernel_size: 7
    stride: 1
    weight_filler {
      type: "xavier"
    }
    bias_filler {
      type: "constant"
    }
  }
}
layer {
  name: "pool2"
  type: "Pooling"
  bottom: "conv2"
  top: "pool2"
  pooling_param {
    pool: MAX
    kernel_size: 2
    stride: 2
  }
}
layer {
  name: "relu2"
  type: "ReLU"
  bottom: "pool2"
  top: "pool2"
}
layer {
  name: "classification"
  type: "InnerProduct"
  bottom: "pool2"
  top: "class"
  inner_product_param {
    num_output: 10
    weight_filler {
      type: "xavier"
    }
    bias_filler {
      type: "constant"
    }
  }
}
layer {
  name: "loss"
  type: "SoftmaxWithLoss"
  bottom: "class"
  bottom: "label"
  top: "loss"
}
I0103 15:36:25.873636 28512 layer_factory.hpp:77] Creating layer mnist
I0103 15:36:25.873818 28512 db_lmdb.cpp:35] Opened lmdb /data2/xyyu/datasets/Mnist/train_RTS_
I0103 15:36:25.873893 28512 net.cpp:84] Creating Layer mnist
I0103 15:36:25.873915 28512 net.cpp:380] mnist -> data
I0103 15:36:25.873961 28512 net.cpp:380] mnist -> label
I0103 15:36:25.876317 28512 data_layer.cpp:45] output data size: 256,1,42,42
I0103 15:36:25.924978 28512 net.cpp:122] Setting up mnist
I0103 15:36:25.925019 28512 net.cpp:129] Top shape: 256 1 42 42 (451584)
I0103 15:36:25.925029 28512 net.cpp:129] Top shape: 256 (256)
I0103 15:36:25.925034 28512 net.cpp:137] Memory required for data: 1807360
I0103 15:36:25.925043 28512 layer_factory.hpp:77] Creating layer data_mnist_0_split
I0103 15:36:25.925060 28512 net.cpp:84] Creating Layer data_mnist_0_split
I0103 15:36:25.925070 28512 net.cpp:406] data_mnist_0_split <- data
I0103 15:36:25.925086 28512 net.cpp:380] data_mnist_0_split -> data_mnist_0_split_0
I0103 15:36:25.925097 28512 net.cpp:380] data_mnist_0_split -> data_mnist_0_split_1
I0103 15:36:25.925143 28512 net.cpp:122] Setting up data_mnist_0_split
I0103 15:36:25.925153 28512 net.cpp:129] Top shape: 256 1 42 42 (451584)
I0103 15:36:25.925159 28512 net.cpp:129] Top shape: 256 1 42 42 (451584)
I0103 15:36:25.925164 28512 net.cpp:137] Memory required for data: 5420032
I0103 15:36:25.925169 28512 layer_factory.hpp:77] Creating layer loc_conv1
I0103 15:36:25.925935 28512 net.cpp:84] Creating Layer loc_conv1
I0103 15:36:25.925961 28512 net.cpp:406] loc_conv1 <- data_mnist_0_split_0
I0103 15:36:25.925981 28512 net.cpp:380] loc_conv1 -> loc_conv1
I0103 15:36:27.023056 28512 net.cpp:122] Setting up loc_conv1
I0103 15:36:27.023092 28512 net.cpp:129] Top shape: 256 20 38 38 (7393280)
I0103 15:36:27.023105 28512 net.cpp:137] Memory required for data: 34993152
I0103 15:36:27.023138 28512 layer_factory.hpp:77] Creating layer loc_pool1
I0103 15:36:27.023161 28512 net.cpp:84] Creating Layer loc_pool1
I0103 15:36:27.023177 28512 net.cpp:406] loc_pool1 <- loc_conv1
I0103 15:36:27.023191 28512 net.cpp:380] loc_pool1 -> loc_pool1
I0103 15:36:27.023255 28512 net.cpp:122] Setting up loc_pool1
I0103 15:36:27.023272 28512 net.cpp:129] Top shape: 256 20 19 19 (1848320)
I0103 15:36:27.023281 28512 net.cpp:137] Memory required for data: 42386432
I0103 15:36:27.023291 28512 layer_factory.hpp:77] Creating layer loc_relu1
I0103 15:36:27.023306 28512 net.cpp:84] Creating Layer loc_relu1
I0103 15:36:27.023319 28512 net.cpp:406] loc_relu1 <- loc_pool1
I0103 15:36:27.023330 28512 net.cpp:367] loc_relu1 -> loc_pool1 (in-place)
I0103 15:36:27.023485 28512 net.cpp:122] Setting up loc_relu1
I0103 15:36:27.023502 28512 net.cpp:129] Top shape: 256 20 19 19 (1848320)
I0103 15:36:27.023512 28512 net.cpp:137] Memory required for data: 49779712
I0103 15:36:27.023521 28512 layer_factory.hpp:77] Creating layer loc_conv2
I0103 15:36:27.023540 28512 net.cpp:84] Creating Layer loc_conv2
I0103 15:36:27.023552 28512 net.cpp:406] loc_conv2 <- loc_pool1
I0103 15:36:27.023566 28512 net.cpp:380] loc_conv2 -> loc_conv2
I0103 15:36:27.052134 28512 net.cpp:122] Setting up loc_conv2
I0103 15:36:27.052165 28512 net.cpp:129] Top shape: 256 20 15 15 (1152000)
I0103 15:36:27.052172 28512 net.cpp:137] Memory required for data: 54387712
I0103 15:36:27.052188 28512 layer_factory.hpp:77] Creating layer loc_pool2
I0103 15:36:27.052202 28512 net.cpp:84] Creating Layer loc_pool2
I0103 15:36:27.052209 28512 net.cpp:406] loc_pool2 <- loc_conv2
I0103 15:36:27.052217 28512 net.cpp:380] loc_pool2 -> loc_pool2
I0103 15:36:27.052273 28512 net.cpp:122] Setting up loc_pool2
I0103 15:36:27.052283 28512 net.cpp:129] Top shape: 256 20 8 8 (327680)
I0103 15:36:27.052287 28512 net.cpp:137] Memory required for data: 55698432
I0103 15:36:27.052292 28512 layer_factory.hpp:77] Creating layer loc_relu2
I0103 15:36:27.052320 28512 net.cpp:84] Creating Layer loc_relu2
I0103 15:36:27.052332 28512 net.cpp:406] loc_relu2 <- loc_pool2
I0103 15:36:27.052345 28512 net.cpp:367] loc_relu2 -> loc_pool2 (in-place)
I0103 15:36:27.053202 28512 net.cpp:122] Setting up loc_relu2
I0103 15:36:27.053221 28512 net.cpp:129] Top shape: 256 20 8 8 (327680)
I0103 15:36:27.053227 28512 net.cpp:137] Memory required for data: 57009152
I0103 15:36:27.053234 28512 layer_factory.hpp:77] Creating layer loc_ip1
I0103 15:36:27.053251 28512 net.cpp:84] Creating Layer loc_ip1
I0103 15:36:27.053261 28512 net.cpp:406] loc_ip1 <- loc_pool2
I0103 15:36:27.053269 28512 net.cpp:380] loc_ip1 -> loc_ip1
I0103 15:36:27.054796 28512 net.cpp:122] Setting up loc_ip1
I0103 15:36:27.054816 28512 net.cpp:129] Top shape: 256 20 (5120)
I0103 15:36:27.054823 28512 net.cpp:137] Memory required for data: 57029632
I0103 15:36:27.054834 28512 layer_factory.hpp:77] Creating layer loc_relu3
I0103 15:36:27.054844 28512 net.cpp:84] Creating Layer loc_relu3
I0103 15:36:27.054849 28512 net.cpp:406] loc_relu3 <- loc_ip1
I0103 15:36:27.054857 28512 net.cpp:367] loc_relu3 -> loc_ip1 (in-place)
I0103 15:36:27.054992 28512 net.cpp:122] Setting up loc_relu3
I0103 15:36:27.055007 28512 net.cpp:129] Top shape: 256 20 (5120)
I0103 15:36:27.055013 28512 net.cpp:137] Memory required for data: 57050112
I0103 15:36:27.055018 28512 layer_factory.hpp:77] Creating layer loc_reg
I0103 15:36:27.055027 28512 net.cpp:84] Creating Layer loc_reg
I0103 15:36:27.055032 28512 net.cpp:406] loc_reg <- loc_ip1
I0103 15:36:27.055040 28512 net.cpp:380] loc_reg -> theta
I0103 15:36:27.097375 28512 net.cpp:122] Setting up loc_reg
I0103 15:36:27.097409 28512 net.cpp:129] Top shape: 256 6 (1536)
I0103 15:36:27.097420 28512 net.cpp:137] Memory required for data: 57056256
I0103 15:36:27.097435 28512 layer_factory.hpp:77] Creating layer st_layer
I0103 15:36:27.098667 28512 net.cpp:84] Creating Layer st_layer
I0103 15:36:27.098688 28512 net.cpp:406] st_layer <- data_mnist_0_split_1
I0103 15:36:27.098701 28512 net.cpp:406] st_layer <- theta
I0103 15:36:27.098711 28512 net.cpp:380] st_layer -> st_output
I0103 15:36:27.098912 28512 net.cpp:122] Setting up st_layer
I0103 15:36:27.098923 28512 net.cpp:129] Top shape: 256 1 42 42 (451584)
I0103 15:36:27.098929 28512 net.cpp:137] Memory required for data: 58862592
I0103 15:36:27.098935 28512 layer_factory.hpp:77] Creating layer conv1
I0103 15:36:27.098948 28512 net.cpp:84] Creating Layer conv1
I0103 15:36:27.098958 28512 net.cpp:406] conv1 <- st_output
I0103 15:36:27.098965 28512 net.cpp:380] conv1 -> conv1
I0103 15:36:27.101745 28512 net.cpp:122] Setting up conv1
I0103 15:36:27.101771 28512 net.cpp:129] Top shape: 256 32 34 34 (9469952)
I0103 15:36:27.101778 28512 net.cpp:137] Memory required for data: 96742400
I0103 15:36:27.101792 28512 layer_factory.hpp:77] Creating layer pool1
I0103 15:36:27.101804 28512 net.cpp:84] Creating Layer pool1
I0103 15:36:27.101811 28512 net.cpp:406] pool1 <- conv1
I0103 15:36:27.101819 28512 net.cpp:380] pool1 -> pool1
I0103 15:36:27.101855 28512 net.cpp:122] Setting up pool1
I0103 15:36:27.101864 28512 net.cpp:129] Top shape: 256 32 17 17 (2367488)
I0103 15:36:27.101871 28512 net.cpp:137] Memory required for data: 106212352
I0103 15:36:27.101876 28512 layer_factory.hpp:77] Creating layer relu1
I0103 15:36:27.101882 28512 net.cpp:84] Creating Layer relu1
I0103 15:36:27.101888 28512 net.cpp:406] relu1 <- pool1
I0103 15:36:27.101894 28512 net.cpp:367] relu1 -> pool1 (in-place)
I0103 15:36:27.103898 28512 net.cpp:122] Setting up relu1
I0103 15:36:27.103915 28512 net.cpp:129] Top shape: 256 32 17 17 (2367488)
I0103 15:36:27.103921 28512 net.cpp:137] Memory required for data: 115682304
I0103 15:36:27.103927 28512 layer_factory.hpp:77] Creating layer conv2
I0103 15:36:27.103940 28512 net.cpp:84] Creating Layer conv2
I0103 15:36:27.103947 28512 net.cpp:406] conv2 <- pool1
I0103 15:36:27.103955 28512 net.cpp:380] conv2 -> conv2
I0103 15:36:27.110762 28512 net.cpp:122] Setting up conv2
I0103 15:36:27.110800 28512 net.cpp:129] Top shape: 256 32 11 11 (991232)
I0103 15:36:27.110832 28512 net.cpp:137] Memory required for data: 119647232
I0103 15:36:27.110846 28512 layer_factory.hpp:77] Creating layer pool2
I0103 15:36:27.110860 28512 net.cpp:84] Creating Layer pool2
I0103 15:36:27.110867 28512 net.cpp:406] pool2 <- conv2
I0103 15:36:27.110877 28512 net.cpp:380] pool2 -> pool2
I0103 15:36:27.110918 28512 net.cpp:122] Setting up pool2
I0103 15:36:27.110929 28512 net.cpp:129] Top shape: 256 32 6 6 (294912)
I0103 15:36:27.110934 28512 net.cpp:137] Memory required for data: 120826880
I0103 15:36:27.110939 28512 layer_factory.hpp:77] Creating layer relu2
I0103 15:36:27.110947 28512 net.cpp:84] Creating Layer relu2
I0103 15:36:27.110952 28512 net.cpp:406] relu2 <- pool2
I0103 15:36:27.110960 28512 net.cpp:367] relu2 -> pool2 (in-place)
I0103 15:36:27.112860 28512 net.cpp:122] Setting up relu2
I0103 15:36:27.112877 28512 net.cpp:129] Top shape: 256 32 6 6 (294912)
I0103 15:36:27.112884 28512 net.cpp:137] Memory required for data: 122006528
I0103 15:36:27.112890 28512 layer_factory.hpp:77] Creating layer classification
I0103 15:36:27.112900 28512 net.cpp:84] Creating Layer classification
I0103 15:36:27.112905 28512 net.cpp:406] classification <- pool2
I0103 15:36:27.112912 28512 net.cpp:380] classification -> class
I0103 15:36:27.113075 28512 net.cpp:122] Setting up classification
I0103 15:36:27.113085 28512 net.cpp:129] Top shape: 256 10 (2560)
I0103 15:36:27.113091 28512 net.cpp:137] Memory required for data: 122016768
I0103 15:36:27.113098 28512 layer_factory.hpp:77] Creating layer loss
I0103 15:36:27.113111 28512 net.cpp:84] Creating Layer loss
I0103 15:36:27.113117 28512 net.cpp:406] loss <- class
I0103 15:36:27.113123 28512 net.cpp:406] loss <- label
I0103 15:36:27.113131 28512 net.cpp:380] loss -> loss
I0103 15:36:27.113148 28512 layer_factory.hpp:77] Creating layer loss
…
I0103 15:36:27.115728 28512 solver.cpp:172] Creating test net (#0) specified by net file: examples/mnist_tests/ST_CNN_RST/ST_CNN.prototxt
I0103 15:36:27.115762 28512 net.cpp:294] The NetState phase (1) differed from the phase (0) specified by a rule in layer mnist
I0103 15:36:27.115851 28512 net.cpp:51] Initializing net from parameters: 
name: "ST_CNN"
state {
  phase: TEST
}
layer {
  name: "mnist"
  type: "Data"
  top: "data"
  top: "label"
  include {
    phase: TEST
  }
  transform_param {
    scale: 0.00390625
  }
  data_param {
    source: "/data2/xyyu/datasets/Mnist/test_RTS_"
    batch_size: 100
    backend: LMDB
  }
}
layer {
  name: "loc_conv1"
  type: "Convolution"
  bottom: "data"
  top: "loc_conv1"
  convolution_param {
    num_output: 20
    kernel_size: 5
    stride: 1
    weight_filler {
      type: "xavier"
    }
    bias_filler {
      type: "constant"
    }
  }
}
layer {
  name: "loc_pool1"
  type: "Pooling"
  bottom: "loc_conv1"
  top: "loc_pool1"
  pooling_param {
    pool: MAX
    kernel_size: 2
    stride: 2
  }
}
layer {
  name: "loc_relu1"
  type: "ReLU"
  bottom: "loc_pool1"
  top: "loc_pool1"
}
layer {
  name: "loc_conv2"
  type: "Convolution"
  bottom: "loc_pool1"
  top: "loc_conv2"
  convolution_param {
    num_output: 20
    kernel_size: 5
    stride: 1
    weight_filler {
      type: "xavier"
    }
    bias_filler {
      type: "constant"
    }
  }
}
layer {
  name: "loc_pool2"
  type: "Pooling"
  bottom: "loc_conv2"
  top: "loc_pool2"
  pooling_param {
    pool: MAX
    kernel_size: 2
    stride: 2
  }
}
layer {
  name: "loc_relu2"
  type: "ReLU"
  bottom: "loc_pool2"
  top: "loc_pool2"
}
layer {
  name: "loc_ip1"
  type: "InnerProduct"
  bottom: "loc_pool2"
  top: "loc_ip1"
  inner_product_param {
    num_output: 20
    weight_filler {
      type: "xavier"
    }
    bias_filler {
      type: "constant"
    }
  }
}
layer {
  name: "loc_relu3"
  type: "ReLU"
  bottom: "loc_ip1"
  top: "loc_ip1"
}
layer {
  name: "loc_reg"
  type: "InnerProduct"
  bottom: "loc_ip1"
  top: "theta"
  inner_product_param {
    num_output: 6
    weight_filler {
      type: "constant"
      value: 0
    }
    bias_filler {
      type: "file"
      file: "examples/mnist_tests/bias_init.txt"
    }
  }
}
layer {
  name: "st_layer"
  type: "SpatialTransformer"
  bottom: "data"
  bottom: "theta"
  top: "st_output"
  st_param {
    to_compute_dU: false
  }
}
layer {
  name: "conv1"
  type: "Convolution"
  bottom: "st_output"
  top: "conv1"
  convolution_param {
    num_output: 32
    kernel_size: 9
    stride: 1
    weight_filler {
      type: "xavier"
    }
    bias_filler {
      type: "constant"
    }
  }
}
layer {
  name: "pool1"
  type: "Pooling"
  bottom: "conv1"
  top: "pool1"
  pooling_param {
    pool: MAX
    kernel_size: 2
    stride: 2
  }
}
layer {
  name: "relu1"
  type: "ReLU"
  bottom: "pool1"
  top: "pool1"
}
layer {
  name: "conv2"
  type: "Convolution"
  bottom: "pool1"
  top: "conv2"
  convolution_param {
    num_output: 32
    kernel_size: 7
    stride: 1
    weight_filler {
      type: "xavier"
    }
    bias_filler {
      type: "constant"
    }
  }
}
layer {
  name: "pool2"
  type: "Pooling"
  bottom: "conv2"
  top: "pool2"
  pooling_param {
    pool: MAX
    kernel_size: 2
    stride: 2
  }
}
layer {
  name: "relu2"
  type: "ReLU"
  bottom: "pool2"
  top: "pool2"
}
layer {
  name: "classification"
  type: "InnerProduct"
  bottom: "pool2"
  top: "class"
  inner_product_param {
    num_output: 10
    weight_filler {
      type: "xavier"
    }
    bias_filler {
      type: "constant"
    }
  }
}
layer {
  name: "accuracy"
  type: "Accuracy"
  bottom: "class"
  bottom: "label"
  top: "accuracy"
  include {
    phase: TEST
  }
}
layer {
  name: "loss"
  type: "SoftmaxWithLoss"
  bottom: "class"
  bottom: "label"
  top: "loss"
}
I0103 15:36:27.116391 28512 layer_factory.hpp:77] Creating layer mnist
I0103 15:36:27.116448 28512 db_lmdb.cpp:35] Opened lmdb /data2/xyyu/datasets/Mnist/test_RTS_
I0103 15:36:27.116466 28512 net.cpp:84] Creating Layer mnist
I0103 15:36:27.116473 28512 net.cpp:380] mnist -> data
I0103 15:36:27.116483 28512 net.cpp:380] mnist -> label
I0103 15:36:27.116583 28512 data_layer.cpp:45] output data size: 100,1,42,42
I0103 15:36:27.132640 28512 net.cpp:122] Setting up mnist
I0103 15:36:27.132675 28512 net.cpp:129] Top shape: 100 1 42 42 (176400)
I0103 15:36:27.132683 28512 net.cpp:129] Top shape: 100 (100)
I0103 15:36:27.132710 28512 net.cpp:137] Memory required for data: 706000
I0103 15:36:27.132719 28512 layer_factory.hpp:77] Creating layer data_mnist_0_split
I0103 15:36:27.132733 28512 net.cpp:84] Creating Layer data_mnist_0_split
I0103 15:36:27.132740 28512 net.cpp:406] data_mnist_0_split <- data
I0103 15:36:27.132750 28512 net.cpp:380] data_mnist_0_split -> data_mnist_0_split_0
I0103 15:36:27.132761 28512 net.cpp:380] data_mnist_0_split -> data_mnist_0_split_1
I0103 15:36:27.132829 28512 net.cpp:122] Setting up data_mnist_0_split
I0103 15:36:27.132839 28512 net.cpp:129] Top shape: 100 1 42 42 (176400)
I0103 15:36:27.132845 28512 net.cpp:129] Top shape: 100 1 42 42 (176400)
I0103 15:36:27.132850 28512 net.cpp:137] Memory required for data: 2117200
I0103 15:36:27.132855 28512 layer_factory.hpp:77] Creating layer label_mnist_1_split
I0103 15:36:27.132863 28512 net.cpp:84] Creating Layer label_mnist_1_split
I0103 15:36:27.132869 28512 net.cpp:406] label_mnist_1_split <- label
I0103 15:36:27.132874 28512 net.cpp:380] label_mnist_1_split -> label_mnist_1_split_0
I0103 15:36:27.132882 28512 net.cpp:380] label_mnist_1_split -> label_mnist_1_split_1
I0103 15:36:27.132918 28512 net.cpp:122] Setting up label_mnist_1_split
I0103 15:36:27.132927 28512 net.cpp:129] Top shape: 100 (100)
I0103 15:36:27.132933 28512 net.cpp:129] Top shape: 100 (100)
I0103 15:36:27.132938 28512 net.cpp:137] Memory required for data: 2118000
I0103 15:36:27.132943 28512 layer_factory.hpp:77] Creating layer loc_conv1
I0103 15:36:27.132957 28512 net.cpp:84] Creating Layer loc_conv1
I0103 15:36:27.132962 28512 net.cpp:406] loc_conv1 <- data_mnist_0_split_0
I0103 15:36:27.132969 28512 net.cpp:380] loc_conv1 -> loc_conv1
I0103 15:36:27.140666 28512 net.cpp:122] Setting up loc_conv1
I0103 15:36:27.140702 28512 net.cpp:129] Top shape: 100 20 38 38 (2888000)
I0103 15:36:27.140720 28512 net.cpp:137] Memory required for data: 13670000
I0103 15:36:27.140738 28512 layer_factory.hpp:77] Creating layer loc_pool1
I0103 15:36:27.140754 28512 net.cpp:84] Creating Layer loc_pool1
I0103 15:36:27.140764 28512 net.cpp:406] loc_pool1 <- loc_conv1
I0103 15:36:27.140774 28512 net.cpp:380] loc_pool1 -> loc_pool1
I0103 15:36:27.140820 28512 net.cpp:122] Setting up loc_pool1
I0103 15:36:27.140830 28512 net.cpp:129] Top shape: 100 20 19 19 (722000)
I0103 15:36:27.140836 28512 net.cpp:137] Memory required for data: 16558000
I0103 15:36:27.140843 28512 layer_factory.hpp:77] Creating layer loc_relu1
I0103 15:36:27.140851 28512 net.cpp:84] Creating Layer loc_relu1
I0103 15:36:27.140859 28512 net.cpp:406] loc_relu1 <- loc_pool1
I0103 15:36:27.140866 28512 net.cpp:367] loc_relu1 -> loc_pool1 (in-place)
I0103 15:36:27.142313 28512 net.cpp:122] Setting up loc_relu1
I0103 15:36:27.142344 28512 net.cpp:129] Top shape: 100 20 19 19 (722000)
I0103 15:36:27.142355 28512 net.cpp:137] Memory required for data: 19446000
I0103 15:36:27.142365 28512 layer_factory.hpp:77] Creating layer loc_conv2
I0103 15:36:27.142385 28512 net.cpp:84] Creating Layer loc_conv2
I0103 15:36:27.142396 28512 net.cpp:406] loc_conv2 <- loc_pool1
I0103 15:36:27.142410 28512 net.cpp:380] loc_conv2 -> loc_conv2
I0103 15:36:27.148594 28512 net.cpp:122] Setting up loc_conv2
I0103 15:36:27.148627 28512 net.cpp:129] Top shape: 100 20 15 15 (450000)
I0103 15:36:27.148634 28512 net.cpp:137] Memory required for data: 21246000
I0103 15:36:27.148648 28512 layer_factory.hpp:77] Creating layer loc_pool2
I0103 15:36:27.148663 28512 net.cpp:84] Creating Layer loc_pool2
I0103 15:36:27.148672 28512 net.cpp:406] loc_pool2 <- loc_conv2
I0103 15:36:27.148680 28512 net.cpp:380] loc_pool2 -> loc_pool2
I0103 15:36:27.148725 28512 net.cpp:122] Setting up loc_pool2
I0103 15:36:27.148736 28512 net.cpp:129] Top shape: 100 20 8 8 (128000)
I0103 15:36:27.148741 28512 net.cpp:137] Memory required for data: 21758000
I0103 15:36:27.148747 28512 layer_factory.hpp:77] Creating layer loc_relu2
I0103 15:36:27.148756 28512 net.cpp:84] Creating Layer loc_relu2
I0103 15:36:27.148761 28512 net.cpp:406] loc_relu2 <- loc_pool2
I0103 15:36:27.148792 28512 net.cpp:367] loc_relu2 -> loc_pool2 (in-place)
I0103 15:36:27.150599 28512 net.cpp:122] Setting up loc_relu2
I0103 15:36:27.150619 28512 net.cpp:129] Top shape: 100 20 8 8 (128000)
I0103 15:36:27.150626 28512 net.cpp:137] Memory required for data: 22270000
I0103 15:36:27.150634 28512 layer_factory.hpp:77] Creating layer loc_ip1
I0103 15:36:27.150645 28512 net.cpp:84] Creating Layer loc_ip1
I0103 15:36:27.150650 28512 net.cpp:406] loc_ip1 <- loc_pool2
I0103 15:36:27.150657 28512 net.cpp:380] loc_ip1 -> loc_ip1
I0103 15:36:27.154505 28512 net.cpp:122] Setting up loc_ip1
I0103 15:36:27.154573 28512 net.cpp:129] Top shape: 100 20 (2000)
I0103 15:36:27.154603 28512 net.cpp:137] Memory required for data: 22278000
I0103 15:36:27.154642 28512 layer_factory.hpp:77] Creating layer loc_relu3
I0103 15:36:27.154676 28512 net.cpp:84] Creating Layer loc_relu3
I0103 15:36:27.154701 28512 net.cpp:406] loc_relu3 <- loc_ip1
I0103 15:36:27.154731 28512 net.cpp:367] loc_relu3 -> loc_ip1 (in-place)
I0103 15:36:27.155227 28512 net.cpp:122] Setting up loc_relu3
I0103 15:36:27.155275 28512 net.cpp:129] Top shape: 100 20 (2000)
I0103 15:36:27.155297 28512 net.cpp:137] Memory required for data: 22286000
I0103 15:36:27.155316 28512 layer_factory.hpp:77] Creating layer loc_reg
I0103 15:36:27.155345 28512 net.cpp:84] Creating Layer loc_reg
I0103 15:36:27.155367 28512 net.cpp:406] loc_reg <- loc_ip1
I0103 15:36:27.155395 28512 net.cpp:380] loc_reg -> theta
I0103 15:36:27.155835 28512 net.cpp:122] Setting up loc_reg
I0103 15:36:27.155874 28512 net.cpp:129] Top shape: 100 6 (600)
I0103 15:36:27.155894 28512 net.cpp:137] Memory required for data: 22288400
I0103 15:36:27.155922 28512 layer_factory.hpp:77] Creating layer st_layer
I0103 15:36:27.155951 28512 net.cpp:84] Creating Layer st_layer
I0103 15:36:27.155973 28512 net.cpp:406] st_layer <- data_mnist_0_split_1
I0103 15:36:27.155998 28512 net.cpp:406] st_layer <- theta
I0103 15:36:27.156024 28512 net.cpp:380] st_layer -> st_output
I0103 15:36:27.156571 28512 net.cpp:122] Setting up st_layer
I0103 15:36:27.156610 28512 net.cpp:129] Top shape: 100 1 42 42 (176400)
I0103 15:36:27.156631 28512 net.cpp:137] Memory required for data: 22994000
I0103 15:36:27.156651 28512 layer_factory.hpp:77] Creating layer conv1
I0103 15:36:27.156685 28512 net.cpp:84] Creating Layer conv1
I0103 15:36:27.156709 28512 net.cpp:406] conv1 <- st_output
I0103 15:36:27.156746 28512 net.cpp:380] conv1 -> conv1
I0103 15:36:27.161918 28512 net.cpp:122] Setting up conv1
I0103 15:36:27.161957 28512 net.cpp:129] Top shape: 100 32 34 34 (3699200)
I0103 15:36:27.161965 28512 net.cpp:137] Memory required for data: 37790800
I0103 15:36:27.161981 28512 layer_factory.hpp:77] Creating layer pool1
I0103 15:36:27.161998 28512 net.cpp:84] Creating Layer pool1
I0103 15:36:27.162016 28512 net.cpp:406] pool1 <- conv1
I0103 15:36:27.162044 28512 net.cpp:380] pool1 -> pool1
I0103 15:36:27.162118 28512 net.cpp:122] Setting up pool1
I0103 15:36:27.162140 28512 net.cpp:129] Top shape: 100 32 17 17 (924800)
I0103 15:36:27.162153 28512 net.cpp:137] Memory required for data: 41490000
I0103 15:36:27.162163 28512 layer_factory.hpp:77] Creating layer relu1
I0103 15:36:27.162171 28512 net.cpp:84] Creating Layer relu1
I0103 15:36:27.162178 28512 net.cpp:406] relu1 <- pool1
I0103 15:36:27.162189 28512 net.cpp:367] relu1 -> pool1 (in-place)
I0103 15:36:27.164029 28512 net.cpp:122] Setting up relu1
I0103 15:36:27.164057 28512 net.cpp:129] Top shape: 100 32 17 17 (924800)
I0103 15:36:27.164064 28512 net.cpp:137] Memory required for data: 45189200
I0103 15:36:27.164072 28512 layer_factory.hpp:77] Creating layer conv2
I0103 15:36:27.164090 28512 net.cpp:84] Creating Layer conv2
I0103 15:36:27.164098 28512 net.cpp:406] conv2 <- pool1
I0103 15:36:27.164108 28512 net.cpp:380] conv2 -> conv2
I0103 15:36:27.170845 28512 net.cpp:122] Setting up conv2
I0103 15:36:27.170872 28512 net.cpp:129] Top shape: 100 32 11 11 (387200)
I0103 15:36:27.170878 28512 net.cpp:137] Memory required for data: 46738000
I0103 15:36:27.170888 28512 layer_factory.hpp:77] Creating layer pool2
I0103 15:36:27.170923 28512 net.cpp:84] Creating Layer pool2
I0103 15:36:27.170931 28512 net.cpp:406] pool2 <- conv2
I0103 15:36:27.170939 28512 net.cpp:380] pool2 -> pool2
I0103 15:36:27.170984 28512 net.cpp:122] Setting up pool2
I0103 15:36:27.170995 28512 net.cpp:129] Top shape: 100 32 6 6 (115200)
I0103 15:36:27.171000 28512 net.cpp:137] Memory required for data: 47198800
I0103 15:36:27.171005 28512 layer_factory.hpp:77] Creating layer relu2
I0103 15:36:27.171013 28512 net.cpp:84] Creating Layer relu2
I0103 15:36:27.171020 28512 net.cpp:406] relu2 <- pool2
I0103 15:36:27.171025 28512 net.cpp:367] relu2 -> pool2 (in-place)
I0103 15:36:27.172989 28512 net.cpp:122] Setting up relu2
I0103 15:36:27.173008 28512 net.cpp:129] Top shape: 100 32 6 6 (115200)
I0103 15:36:27.173014 28512 net.cpp:137] Memory required for data: 47659600
I0103 15:36:27.173020 28512 layer_factory.hpp:77] Creating layer classification
I0103 15:36:27.173032 28512 net.cpp:84] Creating Layer classification
I0103 15:36:27.173038 28512 net.cpp:406] classification <- pool2
I0103 15:36:27.173046 28512 net.cpp:380] classification -> class
I0103 15:36:27.173226 28512 net.cpp:122] Setting up classification
I0103 15:36:27.173238 28512 net.cpp:129] Top shape: 100 10 (1000)
I0103 15:36:27.173243 28512 net.cpp:137] Memory required for data: 47663600
I0103 15:36:27.173250 28512 layer_factory.hpp:77] Creating layer class_classification_0_split
I0103 15:36:27.173260 28512 net.cpp:84] Creating Layer class_classification_0_split
I0103 15:36:27.173266 28512 net.cpp:406] class_classification_0_split <- class
I0103 15:36:27.173272 28512 net.cpp:380] class_classification_0_split -> class_classification_0_split_0
I0103 15:36:27.173280 28512 net.cpp:380] class_classification_0_split -> class_classification_0_split_1
I0103 15:36:27.173317 28512 net.cpp:122] Setting up class_classification_0_split
I0103 15:36:27.173326 28512 net.cpp:129] Top shape: 100 10 (1000)
I0103 15:36:27.173332 28512 net.cpp:129] Top shape: 100 10 (1000)
I0103 15:36:27.173337 28512 net.cpp:137] Memory required for data: 47671600
I0103 15:36:27.173342 28512 layer_factory.hpp:77] Creating layer accuracy
I0103 15:36:27.173349 28512 net.cpp:84] Creating Layer accuracy
I0103 15:36:27.173355 28512 net.cpp:406] accuracy <- class_classification_0_split_0
I0103 15:36:27.173362 28512 net.cpp:406] accuracy <- label_mnist_1_split_0
I0103 15:36:27.173369 28512 net.cpp:380] accuracy -> accuracy
…
