…
I0104 16:05:19.124217 17516 net.cpp:294] The NetState phase (0) differed from the phase (1) specified by a rule in layer mnist
I0104 16:05:19.124249 17516 net.cpp:294] The NetState phase (0) differed from the phase (1) specified by a rule in layer accuracy
I0104 16:05:19.124349 17516 net.cpp:51] Initializing net from parameters: 
name: "ST_CNN"
state {
  phase: TRAIN
  level: 0
  stage: ""
}
layer {
  name: "mnist"
  type: "Data"
  top: "data"
  top: "label"
  include {
    phase: TRAIN
  }
  transform_param {
    scale: 0.00390625
  }
  data_param {
    source: "/data2/xyyu/datasets/Mnist/train_R_ran"
    batch_size: 256
    backend: LMDB
  }
}
layer {
  name: "loc_conv1"
  type: "Convolution"
  bottom: "data"
  top: "loc_conv1"
  convolution_param {
    num_output: 20
    kernel_size: 5
    stride: 1
    weight_filler {
      type: "xavier"
    }
    bias_filler {
      type: "constant"
    }
  }
}
layer {
  name: "loc_pool1"
  type: "Pooling"
  bottom: "loc_conv1"
  top: "loc_pool1"
  pooling_param {
    pool: MAX
    kernel_size: 2
    stride: 2
  }
}
layer {
  name: "loc_relu1"
  type: "ReLU"
  bottom: "loc_pool1"
  top: "loc_pool1"
}
layer {
  name: "loc_conv2"
  type: "Convolution"
  bottom: "loc_pool1"
  top: "loc_conv2"
  convolution_param {
    num_output: 20
    kernel_size: 5
    stride: 1
    weight_filler {
      type: "xavier"
    }
    bias_filler {
      type: "constant"
    }
  }
}
layer {
  name: "loc_pool2"
  type: "Pooling"
  bottom: "loc_conv2"
  top: "loc_pool2"
  pooling_param {
    pool: MAX
    kernel_size: 2
    stride: 2
  }
}
layer {
  name: "loc_relu2"
  type: "ReLU"
  bottom: "loc_pool2"
  top: "loc_pool2"
}
layer {
  name: "loc_ip1"
  type: "InnerProduct"
  bottom: "loc_pool2"
  top: "loc_ip1"
  inner_product_param {
    num_output: 20
    weight_filler {
      type: "xavier"
    }
    bias_filler {
      type: "constant"
    }
  }
}
layer {
  name: "loc_relu3"
  type: "ReLU"
  bottom: "loc_ip1"
  top: "loc_ip1"
}
layer {
  name: "loc_reg"
  type: "InnerProduct"
  bottom: "loc_ip1"
  top: "theta"
  inner_product_param {
    num_output: 4
    weight_filler {
      type: "constant"
      value: 0
    }
    bias_filler {
      type: "file"
      file: "examples/mnist_tests/bias_init.txt"
    }
  }
}
layer {
  name: "st_layer"
  type: "SpatialTransformer"
  bottom: "data"
  bottom: "theta"
  top: "st_output"
  st_param {
    to_compute_dU: false
    theta_1_3: 0
    theta_2_3: 0
  }
}
layer {
  name: "conv1"
  type: "Convolution"
  bottom: "st_output"
  top: "conv1"
  convolution_param {
    num_output: 32
    kernel_size: 9
    stride: 1
    weight_filler {
      type: "xavier"
    }
    bias_filler {
      type: "constant"
    }
  }
}
layer {
  name: "pool1"
  type: "Pooling"
  bottom: "conv1"
  top: "pool1"
  pooling_param {
    pool: MAX
    kernel_size: 2
    stride: 2
  }
}
layer {
  name: "relu1"
  type: "ReLU"
  bottom: "pool1"
  top: "pool1"
}
layer {
  name: "conv2"
  type: "Convolution"
  bottom: "pool1"
  top: "conv2"
  convolution_param {
    num_output: 32
    kernel_size: 7
    stride: 1
    weight_filler {
      type: "xavier"
    }
    bias_filler {
      type: "constant"
    }
  }
}
layer {
  name: "pool2"
  type: "Pooling"
  bottom: "conv2"
  top: "pool2"
  pooling_param {
    pool: MAX
    kernel_size: 2
    stride: 2
  }
}
layer {
  name: "relu2"
  type: "ReLU"
  bottom: "pool2"
  top: "pool2"
}
layer {
  name: "classification"
  type: "InnerProduct"
  bottom: "pool2"
  top: "class"
  inner_product_param {
    num_output: 10
    weight_filler {
      type: "xavier"
    }
    bias_filler {
      type: "constant"
    }
  }
}
layer {
  name: "loss"
  type: "SoftmaxWithLoss"
  bottom: "class"
  bottom: "label"
  top: "loss"
}
I0104 16:05:19.125172 17516 layer_factory.hpp:77] Creating layer mnist
I0104 16:05:19.125267 17516 db_lmdb.cpp:35] Opened lmdb /data2/xyyu/datasets/Mnist/train_R_ran
I0104 16:05:19.125296 17516 net.cpp:84] Creating Layer mnist
I0104 16:05:19.125313 17516 net.cpp:380] mnist -> data
I0104 16:05:19.125336 17516 net.cpp:380] mnist -> label
I0104 16:05:19.126193 17516 data_layer.cpp:45] output data size: 256,1,28,28
I0104 16:05:19.133834 17516 net.cpp:122] Setting up mnist
I0104 16:05:19.133860 17516 net.cpp:129] Top shape: 256 1 28 28 (200704)
I0104 16:05:19.133869 17516 net.cpp:129] Top shape: 256 (256)
I0104 16:05:19.133874 17516 net.cpp:137] Memory required for data: 803840
I0104 16:05:19.133884 17516 layer_factory.hpp:77] Creating layer data_mnist_0_split
I0104 16:05:19.133899 17516 net.cpp:84] Creating Layer data_mnist_0_split
I0104 16:05:19.133908 17516 net.cpp:406] data_mnist_0_split <- data
I0104 16:05:19.133924 17516 net.cpp:380] data_mnist_0_split -> data_mnist_0_split_0
I0104 16:05:19.133935 17516 net.cpp:380] data_mnist_0_split -> data_mnist_0_split_1
I0104 16:05:19.133970 17516 net.cpp:122] Setting up data_mnist_0_split
I0104 16:05:19.133980 17516 net.cpp:129] Top shape: 256 1 28 28 (200704)
I0104 16:05:19.133986 17516 net.cpp:129] Top shape: 256 1 28 28 (200704)
I0104 16:05:19.133991 17516 net.cpp:137] Memory required for data: 2409472
I0104 16:05:19.133997 17516 layer_factory.hpp:77] Creating layer loc_conv1
I0104 16:05:19.134014 17516 net.cpp:84] Creating Layer loc_conv1
I0104 16:05:19.134021 17516 net.cpp:406] loc_conv1 <- data_mnist_0_split_0
I0104 16:05:19.134032 17516 net.cpp:380] loc_conv1 -> loc_conv1
I0104 16:05:19.408241 17516 net.cpp:122] Setting up loc_conv1
I0104 16:05:19.408280 17516 net.cpp:129] Top shape: 256 20 24 24 (2949120)
I0104 16:05:19.408291 17516 net.cpp:137] Memory required for data: 14205952
I0104 16:05:19.408325 17516 layer_factory.hpp:77] Creating layer loc_pool1
I0104 16:05:19.408350 17516 net.cpp:84] Creating Layer loc_pool1
I0104 16:05:19.408366 17516 net.cpp:406] loc_pool1 <- loc_conv1
I0104 16:05:19.408381 17516 net.cpp:380] loc_pool1 -> loc_pool1
I0104 16:05:19.408442 17516 net.cpp:122] Setting up loc_pool1
I0104 16:05:19.408457 17516 net.cpp:129] Top shape: 256 20 12 12 (737280)
I0104 16:05:19.408468 17516 net.cpp:137] Memory required for data: 17155072
I0104 16:05:19.408478 17516 layer_factory.hpp:77] Creating layer loc_relu1
I0104 16:05:19.408493 17516 net.cpp:84] Creating Layer loc_relu1
I0104 16:05:19.408505 17516 net.cpp:406] loc_relu1 <- loc_pool1
I0104 16:05:19.408519 17516 net.cpp:367] loc_relu1 -> loc_pool1 (in-place)
I0104 16:05:19.408668 17516 net.cpp:122] Setting up loc_relu1
I0104 16:05:19.408685 17516 net.cpp:129] Top shape: 256 20 12 12 (737280)
I0104 16:05:19.408696 17516 net.cpp:137] Memory required for data: 20104192
I0104 16:05:19.408706 17516 layer_factory.hpp:77] Creating layer loc_conv2
I0104 16:05:19.408726 17516 net.cpp:84] Creating Layer loc_conv2
I0104 16:05:19.408738 17516 net.cpp:406] loc_conv2 <- loc_pool1
I0104 16:05:19.408751 17516 net.cpp:380] loc_conv2 -> loc_conv2
I0104 16:05:19.411119 17516 net.cpp:122] Setting up loc_conv2
I0104 16:05:19.411146 17516 net.cpp:129] Top shape: 256 20 8 8 (327680)
I0104 16:05:19.411157 17516 net.cpp:137] Memory required for data: 21414912
I0104 16:05:19.411175 17516 layer_factory.hpp:77] Creating layer loc_pool2
I0104 16:05:19.411195 17516 net.cpp:84] Creating Layer loc_pool2
I0104 16:05:19.411207 17516 net.cpp:406] loc_pool2 <- loc_conv2
I0104 16:05:19.411221 17516 net.cpp:380] loc_pool2 -> loc_pool2
I0104 16:05:19.411268 17516 net.cpp:122] Setting up loc_pool2
I0104 16:05:19.411283 17516 net.cpp:129] Top shape: 256 20 4 4 (81920)
I0104 16:05:19.411293 17516 net.cpp:137] Memory required for data: 21742592
I0104 16:05:19.411303 17516 layer_factory.hpp:77] Creating layer loc_relu2
I0104 16:05:19.411339 17516 net.cpp:84] Creating Layer loc_relu2
I0104 16:05:19.411351 17516 net.cpp:406] loc_relu2 <- loc_pool2
I0104 16:05:19.411363 17516 net.cpp:367] loc_relu2 -> loc_pool2 (in-place)
I0104 16:05:19.411976 17516 net.cpp:122] Setting up loc_relu2
I0104 16:05:19.411998 17516 net.cpp:129] Top shape: 256 20 4 4 (81920)
I0104 16:05:19.412009 17516 net.cpp:137] Memory required for data: 22070272
I0104 16:05:19.412019 17516 layer_factory.hpp:77] Creating layer loc_ip1
I0104 16:05:19.412039 17516 net.cpp:84] Creating Layer loc_ip1
I0104 16:05:19.412052 17516 net.cpp:406] loc_ip1 <- loc_pool2
I0104 16:05:19.412065 17516 net.cpp:380] loc_ip1 -> loc_ip1
I0104 16:05:19.412204 17516 net.cpp:122] Setting up loc_ip1
I0104 16:05:19.412220 17516 net.cpp:129] Top shape: 256 20 (5120)
I0104 16:05:19.412230 17516 net.cpp:137] Memory required for data: 22090752
I0104 16:05:19.412246 17516 layer_factory.hpp:77] Creating layer loc_relu3
I0104 16:05:19.412259 17516 net.cpp:84] Creating Layer loc_relu3
I0104 16:05:19.412271 17516 net.cpp:406] loc_relu3 <- loc_ip1
I0104 16:05:19.412282 17516 net.cpp:367] loc_relu3 -> loc_ip1 (in-place)
I0104 16:05:19.412420 17516 net.cpp:122] Setting up loc_relu3
I0104 16:05:19.412437 17516 net.cpp:129] Top shape: 256 20 (5120)
I0104 16:05:19.412448 17516 net.cpp:137] Memory required for data: 22111232
I0104 16:05:19.412458 17516 layer_factory.hpp:77] Creating layer loc_reg
I0104 16:05:19.412472 17516 net.cpp:84] Creating Layer loc_reg
I0104 16:05:19.412485 17516 net.cpp:406] loc_reg <- loc_ip1
I0104 16:05:19.412498 17516 net.cpp:380] loc_reg -> theta
I0104 16:05:19.412688 17516 net.cpp:122] Setting up loc_reg
I0104 16:05:19.412704 17516 net.cpp:129] Top shape: 256 4 (1024)
I0104 16:05:19.412714 17516 net.cpp:137] Memory required for data: 22115328
I0104 16:05:19.412729 17516 layer_factory.hpp:77] Creating layer st_layer
I0104 16:05:19.412741 17516 net.cpp:84] Creating Layer st_layer
I0104 16:05:19.412748 17516 net.cpp:406] st_layer <- data_mnist_0_split_1
I0104 16:05:19.412755 17516 net.cpp:406] st_layer <- theta
I0104 16:05:19.412762 17516 net.cpp:380] st_layer -> st_output
I0104 16:05:19.413645 17516 net.cpp:122] Setting up st_layer
I0104 16:05:19.413658 17516 net.cpp:129] Top shape: 256 1 28 28 (200704)
I0104 16:05:19.413664 17516 net.cpp:137] Memory required for data: 22918144
I0104 16:05:19.413671 17516 layer_factory.hpp:77] Creating layer conv1
I0104 16:05:19.413681 17516 net.cpp:84] Creating Layer conv1
I0104 16:05:19.413688 17516 net.cpp:406] conv1 <- st_output
I0104 16:05:19.413696 17516 net.cpp:380] conv1 -> conv1
I0104 16:05:19.414758 17516 net.cpp:122] Setting up conv1
I0104 16:05:19.414775 17516 net.cpp:129] Top shape: 256 32 20 20 (3276800)
I0104 16:05:19.414783 17516 net.cpp:137] Memory required for data: 36025344
I0104 16:05:19.414793 17516 layer_factory.hpp:77] Creating layer pool1
I0104 16:05:19.414803 17516 net.cpp:84] Creating Layer pool1
I0104 16:05:19.414809 17516 net.cpp:406] pool1 <- conv1
I0104 16:05:19.414816 17516 net.cpp:380] pool1 -> pool1
I0104 16:05:19.414849 17516 net.cpp:122] Setting up pool1
I0104 16:05:19.414858 17516 net.cpp:129] Top shape: 256 32 10 10 (819200)
I0104 16:05:19.414865 17516 net.cpp:137] Memory required for data: 39302144
I0104 16:05:19.414870 17516 layer_factory.hpp:77] Creating layer relu1
I0104 16:05:19.414876 17516 net.cpp:84] Creating Layer relu1
I0104 16:05:19.414881 17516 net.cpp:406] relu1 <- pool1
I0104 16:05:19.414888 17516 net.cpp:367] relu1 -> pool1 (in-place)
I0104 16:05:19.415024 17516 net.cpp:122] Setting up relu1
I0104 16:05:19.415036 17516 net.cpp:129] Top shape: 256 32 10 10 (819200)
I0104 16:05:19.415042 17516 net.cpp:137] Memory required for data: 42578944
I0104 16:05:19.415048 17516 layer_factory.hpp:77] Creating layer conv2
I0104 16:05:19.415058 17516 net.cpp:84] Creating Layer conv2
I0104 16:05:19.415065 17516 net.cpp:406] conv2 <- pool1
I0104 16:05:19.415071 17516 net.cpp:380] conv2 -> conv2
I0104 16:05:19.417104 17516 net.cpp:122] Setting up conv2
I0104 16:05:19.417124 17516 net.cpp:129] Top shape: 256 32 4 4 (131072)
I0104 16:05:19.417147 17516 net.cpp:137] Memory required for data: 43103232
I0104 16:05:19.417156 17516 layer_factory.hpp:77] Creating layer pool2
I0104 16:05:19.417167 17516 net.cpp:84] Creating Layer pool2
I0104 16:05:19.417173 17516 net.cpp:406] pool2 <- conv2
I0104 16:05:19.417181 17516 net.cpp:380] pool2 -> pool2
I0104 16:05:19.417217 17516 net.cpp:122] Setting up pool2
I0104 16:05:19.417227 17516 net.cpp:129] Top shape: 256 32 2 2 (32768)
I0104 16:05:19.417232 17516 net.cpp:137] Memory required for data: 43234304
I0104 16:05:19.417237 17516 layer_factory.hpp:77] Creating layer relu2
I0104 16:05:19.417243 17516 net.cpp:84] Creating Layer relu2
I0104 16:05:19.417249 17516 net.cpp:406] relu2 <- pool2
I0104 16:05:19.417255 17516 net.cpp:367] relu2 -> pool2 (in-place)
I0104 16:05:19.417379 17516 net.cpp:122] Setting up relu2
I0104 16:05:19.417392 17516 net.cpp:129] Top shape: 256 32 2 2 (32768)
I0104 16:05:19.417397 17516 net.cpp:137] Memory required for data: 43365376
I0104 16:05:19.417402 17516 layer_factory.hpp:77] Creating layer classification
I0104 16:05:19.417412 17516 net.cpp:84] Creating Layer classification
I0104 16:05:19.417418 17516 net.cpp:406] classification <- pool2
I0104 16:05:19.417424 17516 net.cpp:380] classification -> class
I0104 16:05:19.417515 17516 net.cpp:122] Setting up classification
I0104 16:05:19.417526 17516 net.cpp:129] Top shape: 256 10 (2560)
I0104 16:05:19.417531 17516 net.cpp:137] Memory required for data: 43375616
I0104 16:05:19.417537 17516 layer_factory.hpp:77] Creating layer loss
I0104 16:05:19.417548 17516 net.cpp:84] Creating Layer loss
I0104 16:05:19.417554 17516 net.cpp:406] loss <- class
I0104 16:05:19.417560 17516 net.cpp:406] loss <- label
I0104 16:05:19.417567 17516 net.cpp:380] loss -> loss
I0104 16:05:19.417582 17516 layer_factory.hpp:77] Creating layer loss
…
I0104 16:05:19.418236 17516 solver.cpp:172] Creating test net (#0) specified by net file: examples/mnist_tests/ST_CNN/ST_CNN.prototxt
I0104 16:05:19.418267 17516 net.cpp:294] The NetState phase (1) differed from the phase (0) specified by a rule in layer mnist
I0104 16:05:19.418359 17516 net.cpp:51] Initializing net from parameters: 
name: "ST_CNN"
state {
  phase: TEST
}
layer {
  name: "mnist"
  type: "Data"
  top: "data"
  top: "label"
  include {
    phase: TEST
  }
  transform_param {
    scale: 0.00390625
  }
  data_param {
    source: "/data2/xyyu/datasets/Mnist/test_R_ran"
    batch_size: 100
    backend: LMDB
  }
}
layer {
  name: "loc_conv1"
  type: "Convolution"
  bottom: "data"
  top: "loc_conv1"
  convolution_param {
    num_output: 20
    kernel_size: 5
    stride: 1
    weight_filler {
      type: "xavier"
    }
    bias_filler {
      type: "constant"
    }
  }
}
layer {
  name: "loc_pool1"
  type: "Pooling"
  bottom: "loc_conv1"
  top: "loc_pool1"
  pooling_param {
    pool: MAX
    kernel_size: 2
    stride: 2
  }
}
layer {
  name: "loc_relu1"
  type: "ReLU"
  bottom: "loc_pool1"
  top: "loc_pool1"
}
layer {
  name: "loc_conv2"
  type: "Convolution"
  bottom: "loc_pool1"
  top: "loc_conv2"
  convolution_param {
    num_output: 20
    kernel_size: 5
    stride: 1
    weight_filler {
      type: "xavier"
    }
    bias_filler {
      type: "constant"
    }
  }
}
layer {
  name: "loc_pool2"
  type: "Pooling"
  bottom: "loc_conv2"
  top: "loc_pool2"
  pooling_param {
    pool: MAX
    kernel_size: 2
    stride: 2
  }
}
layer {
  name: "loc_relu2"
  type: "ReLU"
  bottom: "loc_pool2"
  top: "loc_pool2"
}
layer {
  name: "loc_ip1"
  type: "InnerProduct"
  bottom: "loc_pool2"
  top: "loc_ip1"
  inner_product_param {
    num_output: 20
    weight_filler {
      type: "xavier"
    }
    bias_filler {
      type: "constant"
    }
  }
}
layer {
  name: "loc_relu3"
  type: "ReLU"
  bottom: "loc_ip1"
  top: "loc_ip1"
}
layer {
  name: "loc_reg"
  type: "InnerProduct"
  bottom: "loc_ip1"
  top: "theta"
  inner_product_param {
    num_output: 4
    weight_filler {
      type: "constant"
      value: 0
    }
    bias_filler {
      type: "file"
      file: "examples/mnist_tests/bias_init.txt"
    }
  }
}
layer {
  name: "st_layer"
  type: "SpatialTransformer"
  bottom: "data"
  bottom: "theta"
  top: "st_output"
  st_param {
    to_compute_dU: false
    theta_1_3: 0
    theta_2_3: 0
  }
}
layer {
  name: "conv1"
  type: "Convolution"
  bottom: "st_output"
  top: "conv1"
  convolution_param {
    num_output: 32
    kernel_size: 9
    stride: 1
    weight_filler {
      type: "xavier"
    }
    bias_filler {
      type: "constant"
    }
  }
}
layer {
  name: "pool1"
  type: "Pooling"
  bottom: "conv1"
  top: "pool1"
  pooling_param {
    pool: MAX
    kernel_size: 2
    stride: 2
  }
}
layer {
  name: "relu1"
  type: "ReLU"
  bottom: "pool1"
  top: "pool1"
}
layer {
  name: "conv2"
  type: "Convolution"
  bottom: "pool1"
  top: "conv2"
  convolution_param {
    num_output: 32
    kernel_size: 7
    stride: 1
    weight_filler {
      type: "xavier"
    }
    bias_filler {
      type: "constant"
    }
  }
}
layer {
  name: "pool2"
  type: "Pooling"
  bottom: "conv2"
  top: "pool2"
  pooling_param {
    pool: MAX
    kernel_size: 2
    stride: 2
  }
}
layer {
  name: "relu2"
  type: "ReLU"
  bottom: "pool2"
  top: "pool2"
}
layer {
  name: "classification"
  type: "InnerProduct"
  bottom: "pool2"
  top: "class"
  inner_product_param {
    num_output: 10
    weight_filler {
      type: "xavier"
    }
    bias_filler {
      type: "constant"
    }
  }
}
layer {
  name: "accuracy"
  type: "Accuracy"
  bottom: "class"
  bottom: "label"
  top: "accuracy"
  include {
    phase: TEST
  }
}
layer {
  name: "loss"
  type: "SoftmaxWithLoss"
  bottom: "class"
  bottom: "label"
  top: "loss"
}
I0104 16:05:19.418936 17516 layer_factory.hpp:77] Creating layer mnist
I0104 16:05:19.419005 17516 db_lmdb.cpp:35] Opened lmdb /data2/xyyu/datasets/Mnist/test_R_ran
I0104 16:05:19.419030 17516 net.cpp:84] Creating Layer mnist
I0104 16:05:19.419042 17516 net.cpp:380] mnist -> data
I0104 16:05:19.419057 17516 net.cpp:380] mnist -> label
I0104 16:05:19.419162 17516 data_layer.cpp:45] output data size: 100,1,28,28
I0104 16:05:19.422933 17516 net.cpp:122] Setting up mnist
I0104 16:05:19.422960 17516 net.cpp:129] Top shape: 100 1 28 28 (78400)
I0104 16:05:19.422981 17516 net.cpp:129] Top shape: 100 (100)
I0104 16:05:19.422986 17516 net.cpp:137] Memory required for data: 314000
I0104 16:05:19.422992 17516 layer_factory.hpp:77] Creating layer data_mnist_0_split
I0104 16:05:19.423004 17516 net.cpp:84] Creating Layer data_mnist_0_split
I0104 16:05:19.423012 17516 net.cpp:406] data_mnist_0_split <- data
I0104 16:05:19.423018 17516 net.cpp:380] data_mnist_0_split -> data_mnist_0_split_0
I0104 16:05:19.423027 17516 net.cpp:380] data_mnist_0_split -> data_mnist_0_split_1
I0104 16:05:19.423110 17516 net.cpp:122] Setting up data_mnist_0_split
I0104 16:05:19.423121 17516 net.cpp:129] Top shape: 100 1 28 28 (78400)
I0104 16:05:19.423127 17516 net.cpp:129] Top shape: 100 1 28 28 (78400)
I0104 16:05:19.423132 17516 net.cpp:137] Memory required for data: 941200
I0104 16:05:19.423138 17516 layer_factory.hpp:77] Creating layer label_mnist_1_split
I0104 16:05:19.423146 17516 net.cpp:84] Creating Layer label_mnist_1_split
I0104 16:05:19.423151 17516 net.cpp:406] label_mnist_1_split <- label
I0104 16:05:19.423159 17516 net.cpp:380] label_mnist_1_split -> label_mnist_1_split_0
I0104 16:05:19.423167 17516 net.cpp:380] label_mnist_1_split -> label_mnist_1_split_1
I0104 16:05:19.423198 17516 net.cpp:122] Setting up label_mnist_1_split
I0104 16:05:19.423207 17516 net.cpp:129] Top shape: 100 (100)
I0104 16:05:19.423213 17516 net.cpp:129] Top shape: 100 (100)
I0104 16:05:19.423218 17516 net.cpp:137] Memory required for data: 942000
I0104 16:05:19.423223 17516 layer_factory.hpp:77] Creating layer loc_conv1
I0104 16:05:19.423234 17516 net.cpp:84] Creating Layer loc_conv1
I0104 16:05:19.423240 17516 net.cpp:406] loc_conv1 <- data_mnist_0_split_0
I0104 16:05:19.423249 17516 net.cpp:380] loc_conv1 -> loc_conv1
I0104 16:05:19.424841 17516 net.cpp:122] Setting up loc_conv1
I0104 16:05:19.424862 17516 net.cpp:129] Top shape: 100 20 24 24 (1152000)
I0104 16:05:19.424870 17516 net.cpp:137] Memory required for data: 5550000
I0104 16:05:19.424888 17516 layer_factory.hpp:77] Creating layer loc_pool1
I0104 16:05:19.424901 17516 net.cpp:84] Creating Layer loc_pool1
I0104 16:05:19.424909 17516 net.cpp:406] loc_pool1 <- loc_conv1
I0104 16:05:19.424918 17516 net.cpp:380] loc_pool1 -> loc_pool1
I0104 16:05:19.424957 17516 net.cpp:122] Setting up loc_pool1
I0104 16:05:19.424967 17516 net.cpp:129] Top shape: 100 20 12 12 (288000)
I0104 16:05:19.424971 17516 net.cpp:137] Memory required for data: 6702000
I0104 16:05:19.424978 17516 layer_factory.hpp:77] Creating layer loc_relu1
I0104 16:05:19.424988 17516 net.cpp:84] Creating Layer loc_relu1
I0104 16:05:19.424994 17516 net.cpp:406] loc_relu1 <- loc_pool1
I0104 16:05:19.425001 17516 net.cpp:367] loc_relu1 -> loc_pool1 (in-place)
I0104 16:05:19.426084 17516 net.cpp:122] Setting up loc_relu1
I0104 16:05:19.426100 17516 net.cpp:129] Top shape: 100 20 12 12 (288000)
I0104 16:05:19.426113 17516 net.cpp:137] Memory required for data: 7854000
I0104 16:05:19.426120 17516 layer_factory.hpp:77] Creating layer loc_conv2
I0104 16:05:19.426132 17516 net.cpp:84] Creating Layer loc_conv2
I0104 16:05:19.426139 17516 net.cpp:406] loc_conv2 <- loc_pool1
I0104 16:05:19.426153 17516 net.cpp:380] loc_conv2 -> loc_conv2
I0104 16:05:19.428318 17516 net.cpp:122] Setting up loc_conv2
I0104 16:05:19.428339 17516 net.cpp:129] Top shape: 100 20 8 8 (128000)
I0104 16:05:19.428345 17516 net.cpp:137] Memory required for data: 8366000
I0104 16:05:19.428357 17516 layer_factory.hpp:77] Creating layer loc_pool2
I0104 16:05:19.428369 17516 net.cpp:84] Creating Layer loc_pool2
I0104 16:05:19.428377 17516 net.cpp:406] loc_pool2 <- loc_conv2
I0104 16:05:19.428385 17516 net.cpp:380] loc_pool2 -> loc_pool2
I0104 16:05:19.428429 17516 net.cpp:122] Setting up loc_pool2
I0104 16:05:19.428441 17516 net.cpp:129] Top shape: 100 20 4 4 (32000)
I0104 16:05:19.428447 17516 net.cpp:137] Memory required for data: 8494000
I0104 16:05:19.428452 17516 layer_factory.hpp:77] Creating layer loc_relu2
I0104 16:05:19.428460 17516 net.cpp:84] Creating Layer loc_relu2
I0104 16:05:19.428467 17516 net.cpp:406] loc_relu2 <- loc_pool2
I0104 16:05:19.428491 17516 net.cpp:367] loc_relu2 -> loc_pool2 (in-place)
I0104 16:05:19.428650 17516 net.cpp:122] Setting up loc_relu2
I0104 16:05:19.428664 17516 net.cpp:129] Top shape: 100 20 4 4 (32000)
I0104 16:05:19.428670 17516 net.cpp:137] Memory required for data: 8622000
I0104 16:05:19.428676 17516 layer_factory.hpp:77] Creating layer loc_ip1
I0104 16:05:19.428688 17516 net.cpp:84] Creating Layer loc_ip1
I0104 16:05:19.428694 17516 net.cpp:406] loc_ip1 <- loc_pool2
I0104 16:05:19.428702 17516 net.cpp:380] loc_ip1 -> loc_ip1
I0104 16:05:19.429246 17516 net.cpp:122] Setting up loc_ip1
I0104 16:05:19.429260 17516 net.cpp:129] Top shape: 100 20 (2000)
I0104 16:05:19.429265 17516 net.cpp:137] Memory required for data: 8630000
I0104 16:05:19.429278 17516 layer_factory.hpp:77] Creating layer loc_relu3
I0104 16:05:19.429288 17516 net.cpp:84] Creating Layer loc_relu3
I0104 16:05:19.429302 17516 net.cpp:406] loc_relu3 <- loc_ip1
I0104 16:05:19.429312 17516 net.cpp:367] loc_relu3 -> loc_ip1 (in-place)
I0104 16:05:19.429473 17516 net.cpp:122] Setting up loc_relu3
I0104 16:05:19.429488 17516 net.cpp:129] Top shape: 100 20 (2000)
I0104 16:05:19.429497 17516 net.cpp:137] Memory required for data: 8638000
I0104 16:05:19.429503 17516 layer_factory.hpp:77] Creating layer loc_reg
I0104 16:05:19.429525 17516 net.cpp:84] Creating Layer loc_reg
I0104 16:05:19.429534 17516 net.cpp:406] loc_reg <- loc_ip1
I0104 16:05:19.429545 17516 net.cpp:380] loc_reg -> theta
I0104 16:05:19.429697 17516 net.cpp:122] Setting up loc_reg
I0104 16:05:19.429718 17516 net.cpp:129] Top shape: 100 4 (400)
I0104 16:05:19.429724 17516 net.cpp:137] Memory required for data: 8639600
I0104 16:05:19.429735 17516 layer_factory.hpp:77] Creating layer st_layer
I0104 16:05:19.429746 17516 net.cpp:84] Creating Layer st_layer
I0104 16:05:19.429752 17516 net.cpp:406] st_layer <- data_mnist_0_split_1
I0104 16:05:19.429764 17516 net.cpp:406] st_layer <- theta
I0104 16:05:19.429774 17516 net.cpp:380] st_layer -> st_output
I0104 16:05:19.429951 17516 net.cpp:122] Setting up st_layer
I0104 16:05:19.429962 17516 net.cpp:129] Top shape: 100 1 28 28 (78400)
I0104 16:05:19.429968 17516 net.cpp:137] Memory required for data: 8953200
I0104 16:05:19.429975 17516 layer_factory.hpp:77] Creating layer conv1
I0104 16:05:19.429986 17516 net.cpp:84] Creating Layer conv1
I0104 16:05:19.429993 17516 net.cpp:406] conv1 <- st_output
I0104 16:05:19.430001 17516 net.cpp:380] conv1 -> conv1
I0104 16:05:19.431251 17516 net.cpp:122] Setting up conv1
I0104 16:05:19.431270 17516 net.cpp:129] Top shape: 100 32 20 20 (1280000)
I0104 16:05:19.431277 17516 net.cpp:137] Memory required for data: 14073200
I0104 16:05:19.431291 17516 layer_factory.hpp:77] Creating layer pool1
I0104 16:05:19.431301 17516 net.cpp:84] Creating Layer pool1
I0104 16:05:19.431308 17516 net.cpp:406] pool1 <- conv1
I0104 16:05:19.431318 17516 net.cpp:380] pool1 -> pool1
I0104 16:05:19.431357 17516 net.cpp:122] Setting up pool1
I0104 16:05:19.431368 17516 net.cpp:129] Top shape: 100 32 10 10 (320000)
I0104 16:05:19.431375 17516 net.cpp:137] Memory required for data: 15353200
I0104 16:05:19.431380 17516 layer_factory.hpp:77] Creating layer relu1
I0104 16:05:19.431388 17516 net.cpp:84] Creating Layer relu1
I0104 16:05:19.431394 17516 net.cpp:406] relu1 <- pool1
I0104 16:05:19.431401 17516 net.cpp:367] relu1 -> pool1 (in-place)
I0104 16:05:19.431556 17516 net.cpp:122] Setting up relu1
I0104 16:05:19.431569 17516 net.cpp:129] Top shape: 100 32 10 10 (320000)
I0104 16:05:19.431576 17516 net.cpp:137] Memory required for data: 16633200
I0104 16:05:19.431582 17516 layer_factory.hpp:77] Creating layer conv2
I0104 16:05:19.431596 17516 net.cpp:84] Creating Layer conv2
I0104 16:05:19.431603 17516 net.cpp:406] conv2 <- pool1
I0104 16:05:19.431613 17516 net.cpp:380] conv2 -> conv2
I0104 16:05:19.433132 17516 net.cpp:122] Setting up conv2
I0104 16:05:19.433151 17516 net.cpp:129] Top shape: 100 32 4 4 (51200)
I0104 16:05:19.433158 17516 net.cpp:137] Memory required for data: 16838000
I0104 16:05:19.433168 17516 layer_factory.hpp:77] Creating layer pool2
I0104 16:05:19.433192 17516 net.cpp:84] Creating Layer pool2
I0104 16:05:19.433200 17516 net.cpp:406] pool2 <- conv2
I0104 16:05:19.433208 17516 net.cpp:380] pool2 -> pool2
I0104 16:05:19.433253 17516 net.cpp:122] Setting up pool2
I0104 16:05:19.433264 17516 net.cpp:129] Top shape: 100 32 2 2 (12800)
I0104 16:05:19.433269 17516 net.cpp:137] Memory required for data: 16889200
I0104 16:05:19.433275 17516 layer_factory.hpp:77] Creating layer relu2
I0104 16:05:19.433284 17516 net.cpp:84] Creating Layer relu2
I0104 16:05:19.433290 17516 net.cpp:406] relu2 <- pool2
I0104 16:05:19.433297 17516 net.cpp:367] relu2 -> pool2 (in-place)
I0104 16:05:19.433446 17516 net.cpp:122] Setting up relu2
I0104 16:05:19.433459 17516 net.cpp:129] Top shape: 100 32 2 2 (12800)
I0104 16:05:19.433467 17516 net.cpp:137] Memory required for data: 16940400
I0104 16:05:19.433473 17516 layer_factory.hpp:77] Creating layer classification
I0104 16:05:19.433482 17516 net.cpp:84] Creating Layer classification
I0104 16:05:19.433488 17516 net.cpp:406] classification <- pool2
I0104 16:05:19.433496 17516 net.cpp:380] classification -> class
I0104 16:05:19.433609 17516 net.cpp:122] Setting up classification
I0104 16:05:19.433621 17516 net.cpp:129] Top shape: 100 10 (1000)
I0104 16:05:19.433627 17516 net.cpp:137] Memory required for data: 16944400
I0104 16:05:19.433635 17516 layer_factory.hpp:77] Creating layer class_classification_0_split
I0104 16:05:19.433645 17516 net.cpp:84] Creating Layer class_classification_0_split
I0104 16:05:19.433652 17516 net.cpp:406] class_classification_0_split <- class
I0104 16:05:19.433660 17516 net.cpp:380] class_classification_0_split -> class_classification_0_split_0
I0104 16:05:19.433668 17516 net.cpp:380] class_classification_0_split -> class_classification_0_split_1
I0104 16:05:19.433704 17516 net.cpp:122] Setting up class_classification_0_split
I0104 16:05:19.433713 17516 net.cpp:129] Top shape: 100 10 (1000)
I0104 16:05:19.433720 17516 net.cpp:129] Top shape: 100 10 (1000)
I0104 16:05:19.433727 17516 net.cpp:137] Memory required for data: 16952400
I0104 16:05:19.433732 17516 layer_factory.hpp:77] Creating layer accuracy
I0104 16:05:19.433742 17516 net.cpp:84] Creating Layer accuracy
I0104 16:05:19.433748 17516 net.cpp:406] accuracy <- class_classification_0_split_0
I0104 16:05:19.433755 17516 net.cpp:406] accuracy <- label_mnist_1_split_0
I0104 16:05:19.433763 17516 net.cpp:380] accuracy -> accuracy
…
