…
I0103 19:29:42.230660 13574 net.cpp:294] The NetState phase (0) differed from the phase (1) specified by a rule in layer mnist
I0103 19:29:42.230684 13574 net.cpp:294] The NetState phase (0) differed from the phase (1) specified by a rule in layer accuracy
I0103 19:29:42.230756 13574 net.cpp:51] Initializing net from parameters: 
name: "ST_FCN"
state {
  phase: TRAIN
  level: 0
  stage: ""
}
layer {
  name: "mnist"
  type: "Data"
  top: "data"
  top: "label"
  include {
    phase: TRAIN
  }
  transform_param {
    scale: 0.00390625
  }
  data_param {
    source: "/data2/xyyu/datasets/Mnist/train_RTS_"
    batch_size: 256
    backend: LMDB
  }
}
layer {
  name: "loc_ip1"
  type: "InnerProduct"
  bottom: "data"
  top: "loc_ip1"
  inner_product_param {
    num_output: 32
    weight_filler {
      type: "xavier"
    }
    bias_filler {
      type: "constant"
    }
  }
}
layer {
  name: "loc_relu1"
  type: "ReLU"
  bottom: "loc_ip1"
  top: "loc_ip1"
}
layer {
  name: "loc_ip2"
  type: "InnerProduct"
  bottom: "loc_ip1"
  top: "loc_ip2"
  inner_product_param {
    num_output: 32
    weight_filler {
      type: "xavier"
    }
    bias_filler {
      type: "constant"
    }
  }
}
layer {
  name: "loc_relu2"
  type: "ReLU"
  bottom: "loc_ip2"
  top: "loc_ip2"
}
layer {
  name: "loc_ip3"
  type: "InnerProduct"
  bottom: "loc_ip2"
  top: "loc_ip3"
  inner_product_param {
    num_output: 32
    weight_filler {
      type: "xavier"
    }
    bias_filler {
      type: "constant"
    }
  }
}
layer {
  name: "loc_relu3"
  type: "ReLU"
  bottom: "loc_ip3"
  top: "loc_ip3"
}
layer {
  name: "loc_reg"
  type: "InnerProduct"
  bottom: "loc_ip3"
  top: "theta"
  inner_product_param {
    num_output: 6
    weight_filler {
      type: "constant"
      value: 0
    }
    bias_filler {
      type: "file"
      file: "examples/mnist_tests/bias_init.txt"
    }
  }
}
layer {
  name: "st_layer"
  type: "SpatialTransformer"
  bottom: "data"
  bottom: "theta"
  top: "st_output"
}
layer {
  name: "ip1"
  type: "InnerProduct"
  bottom: "st_output"
  top: "ip1"
  inner_product_param {
    num_output: 256
    weight_filler {
      type: "xavier"
    }
    bias_filler {
      type: "constant"
    }
  }
}
layer {
  name: "relu1"
  type: "ReLU"
  bottom: "ip1"
  top: "ip1"
}
layer {
  name: "ip2"
  type: "InnerProduct"
  bottom: "ip1"
  top: "ip2"
  inner_product_param {
    num_output: 256
    weight_filler {
      type: "xavier"
    }
    bias_filler {
      type: "constant"
    }
  }
}
layer {
  name: "relu2"
  type: "ReLU"
  bottom: "ip2"
  top: "ip2"
}
layer {
  name: "classification"
  type: "InnerProduct"
  bottom: "ip2"
  top: "class"
  inner_product_param {
    num_output: 10
    weight_filler {
      type: "xavier"
    }
    bias_filler {
      type: "constant"
    }
  }
}
layer {
  name: "loss"
  type: "SoftmaxWithLoss"
  bottom: "class"
  bottom: "label"
  top: "loss"
}
I0103 19:29:42.231216 13574 layer_factory.hpp:77] Creating layer mnist
I0103 19:29:42.261153 13574 db_lmdb.cpp:35] Opened lmdb /data2/xyyu/datasets/Mnist/train_RTS_
I0103 19:29:42.261229 13574 net.cpp:84] Creating Layer mnist
I0103 19:29:42.261250 13574 net.cpp:380] mnist -> data
I0103 19:29:42.261282 13574 net.cpp:380] mnist -> label
I0103 19:29:42.263332 13574 data_layer.cpp:45] output data size: 256,1,42,42
I0103 19:29:42.310618 13574 net.cpp:122] Setting up mnist
I0103 19:29:42.310657 13574 net.cpp:129] Top shape: 256 1 42 42 (451584)
I0103 19:29:42.310667 13574 net.cpp:129] Top shape: 256 (256)
I0103 19:29:42.310695 13574 net.cpp:137] Memory required for data: 1807360
I0103 19:29:42.310708 13574 layer_factory.hpp:77] Creating layer data_mnist_0_split
I0103 19:29:42.310724 13574 net.cpp:84] Creating Layer data_mnist_0_split
I0103 19:29:42.310732 13574 net.cpp:406] data_mnist_0_split <- data
I0103 19:29:42.310747 13574 net.cpp:380] data_mnist_0_split -> data_mnist_0_split_0
I0103 19:29:42.310760 13574 net.cpp:380] data_mnist_0_split -> data_mnist_0_split_1
I0103 19:29:42.310802 13574 net.cpp:122] Setting up data_mnist_0_split
I0103 19:29:42.310813 13574 net.cpp:129] Top shape: 256 1 42 42 (451584)
I0103 19:29:42.310823 13574 net.cpp:129] Top shape: 256 1 42 42 (451584)
I0103 19:29:42.310829 13574 net.cpp:137] Memory required for data: 5420032
I0103 19:29:42.310834 13574 layer_factory.hpp:77] Creating layer loc_ip1
I0103 19:29:42.310847 13574 net.cpp:84] Creating Layer loc_ip1
I0103 19:29:42.310853 13574 net.cpp:406] loc_ip1 <- data_mnist_0_split_0
I0103 19:29:42.310861 13574 net.cpp:380] loc_ip1 -> loc_ip1
I0103 19:29:42.313228 13574 net.cpp:122] Setting up loc_ip1
I0103 19:29:42.313248 13574 net.cpp:129] Top shape: 256 32 (8192)
I0103 19:29:42.313256 13574 net.cpp:137] Memory required for data: 5452800
I0103 19:29:42.313273 13574 layer_factory.hpp:77] Creating layer loc_relu1
I0103 19:29:42.313285 13574 net.cpp:84] Creating Layer loc_relu1
I0103 19:29:42.313292 13574 net.cpp:406] loc_relu1 <- loc_ip1
I0103 19:29:42.313299 13574 net.cpp:367] loc_relu1 -> loc_ip1 (in-place)
I0103 19:29:43.117380 13574 net.cpp:122] Setting up loc_relu1
I0103 19:29:43.117421 13574 net.cpp:129] Top shape: 256 32 (8192)
I0103 19:29:43.117430 13574 net.cpp:137] Memory required for data: 5485568
I0103 19:29:43.117439 13574 layer_factory.hpp:77] Creating layer loc_ip2
I0103 19:29:43.117457 13574 net.cpp:84] Creating Layer loc_ip2
I0103 19:29:43.117465 13574 net.cpp:406] loc_ip2 <- loc_ip1
I0103 19:29:43.117475 13574 net.cpp:380] loc_ip2 -> loc_ip2
I0103 19:29:43.118535 13574 net.cpp:122] Setting up loc_ip2
I0103 19:29:43.118561 13574 net.cpp:129] Top shape: 256 32 (8192)
I0103 19:29:43.118569 13574 net.cpp:137] Memory required for data: 5518336
I0103 19:29:43.118583 13574 layer_factory.hpp:77] Creating layer loc_relu2
I0103 19:29:43.118593 13574 net.cpp:84] Creating Layer loc_relu2
I0103 19:29:43.118599 13574 net.cpp:406] loc_relu2 <- loc_ip2
I0103 19:29:43.118607 13574 net.cpp:367] loc_relu2 -> loc_ip2 (in-place)
I0103 19:29:43.119225 13574 net.cpp:122] Setting up loc_relu2
I0103 19:29:43.119243 13574 net.cpp:129] Top shape: 256 32 (8192)
I0103 19:29:43.119251 13574 net.cpp:137] Memory required for data: 5551104
I0103 19:29:43.119256 13574 layer_factory.hpp:77] Creating layer loc_ip3
I0103 19:29:43.119266 13574 net.cpp:84] Creating Layer loc_ip3
I0103 19:29:43.119272 13574 net.cpp:406] loc_ip3 <- loc_ip2
I0103 19:29:43.119282 13574 net.cpp:380] loc_ip3 -> loc_ip3
I0103 19:29:43.119361 13574 net.cpp:122] Setting up loc_ip3
I0103 19:29:43.119374 13574 net.cpp:129] Top shape: 256 32 (8192)
I0103 19:29:43.119379 13574 net.cpp:137] Memory required for data: 5583872
I0103 19:29:43.119390 13574 layer_factory.hpp:77] Creating layer loc_relu3
I0103 19:29:43.119401 13574 net.cpp:84] Creating Layer loc_relu3
I0103 19:29:43.119407 13574 net.cpp:406] loc_relu3 <- loc_ip3
I0103 19:29:43.119415 13574 net.cpp:367] loc_relu3 -> loc_ip3 (in-place)
I0103 19:29:43.119536 13574 net.cpp:122] Setting up loc_relu3
I0103 19:29:43.119551 13574 net.cpp:129] Top shape: 256 32 (8192)
I0103 19:29:43.119557 13574 net.cpp:137] Memory required for data: 5616640
I0103 19:29:43.119563 13574 layer_factory.hpp:77] Creating layer loc_reg
I0103 19:29:43.119573 13574 net.cpp:84] Creating Layer loc_reg
I0103 19:29:43.119580 13574 net.cpp:406] loc_reg <- loc_ip3
I0103 19:29:43.119587 13574 net.cpp:380] loc_reg -> theta
I0103 19:29:43.119765 13574 net.cpp:122] Setting up loc_reg
I0103 19:29:43.119778 13574 net.cpp:129] Top shape: 256 6 (1536)
I0103 19:29:43.119784 13574 net.cpp:137] Memory required for data: 5622784
I0103 19:29:43.119792 13574 layer_factory.hpp:77] Creating layer st_layer
I0103 19:29:43.119830 13574 net.cpp:84] Creating Layer st_layer
I0103 19:29:43.119838 13574 net.cpp:406] st_layer <- data_mnist_0_split_1
I0103 19:29:43.119845 13574 net.cpp:406] st_layer <- theta
I0103 19:29:43.119853 13574 net.cpp:380] st_layer -> st_output
I0103 19:29:43.120887 13574 net.cpp:122] Setting up st_layer
I0103 19:29:43.120903 13574 net.cpp:129] Top shape: 256 1 42 42 (451584)
I0103 19:29:43.120910 13574 net.cpp:137] Memory required for data: 7429120
I0103 19:29:43.120916 13574 layer_factory.hpp:77] Creating layer ip1
I0103 19:29:43.120926 13574 net.cpp:84] Creating Layer ip1
I0103 19:29:43.120934 13574 net.cpp:406] ip1 <- st_output
I0103 19:29:43.120942 13574 net.cpp:380] ip1 -> ip1
I0103 19:29:43.124248 13574 net.cpp:122] Setting up ip1
I0103 19:29:43.124287 13574 net.cpp:129] Top shape: 256 256 (65536)
I0103 19:29:43.124300 13574 net.cpp:137] Memory required for data: 7691264
I0103 19:29:43.124321 13574 layer_factory.hpp:77] Creating layer relu1
I0103 19:29:43.124336 13574 net.cpp:84] Creating Layer relu1
I0103 19:29:43.124347 13574 net.cpp:406] relu1 <- ip1
I0103 19:29:43.124359 13574 net.cpp:367] relu1 -> ip1 (in-place)
I0103 19:29:43.124598 13574 net.cpp:122] Setting up relu1
I0103 19:29:43.124615 13574 net.cpp:129] Top shape: 256 256 (65536)
I0103 19:29:43.124625 13574 net.cpp:137] Memory required for data: 7953408
I0103 19:29:43.124635 13574 layer_factory.hpp:77] Creating layer ip2
I0103 19:29:43.124650 13574 net.cpp:84] Creating Layer ip2
I0103 19:29:43.124665 13574 net.cpp:406] ip2 <- ip1
I0103 19:29:43.124677 13574 net.cpp:380] ip2 -> ip2
I0103 19:29:43.126235 13574 net.cpp:122] Setting up ip2
I0103 19:29:43.126255 13574 net.cpp:129] Top shape: 256 256 (65536)
I0103 19:29:43.126261 13574 net.cpp:137] Memory required for data: 8215552
I0103 19:29:43.126271 13574 layer_factory.hpp:77] Creating layer relu2
I0103 19:29:43.126278 13574 net.cpp:84] Creating Layer relu2
I0103 19:29:43.126284 13574 net.cpp:406] relu2 <- ip2
I0103 19:29:43.126292 13574 net.cpp:367] relu2 -> ip2 (in-place)
I0103 19:29:43.126991 13574 net.cpp:122] Setting up relu2
I0103 19:29:43.127010 13574 net.cpp:129] Top shape: 256 256 (65536)
I0103 19:29:43.127017 13574 net.cpp:137] Memory required for data: 8477696
I0103 19:29:43.127023 13574 layer_factory.hpp:77] Creating layer classification
I0103 19:29:43.127033 13574 net.cpp:84] Creating Layer classification
I0103 19:29:43.127039 13574 net.cpp:406] classification <- ip2
I0103 19:29:43.127048 13574 net.cpp:380] classification -> class
I0103 19:29:43.127976 13574 net.cpp:122] Setting up classification
I0103 19:29:43.127998 13574 net.cpp:129] Top shape: 256 10 (2560)
I0103 19:29:43.128005 13574 net.cpp:137] Memory required for data: 8487936
I0103 19:29:43.128015 13574 layer_factory.hpp:77] Creating layer loss
I0103 19:29:43.128026 13574 net.cpp:84] Creating Layer loss
I0103 19:29:43.128033 13574 net.cpp:406] loss <- class
I0103 19:29:43.128041 13574 net.cpp:406] loss <- label
I0103 19:29:43.128049 13574 net.cpp:380] loss -> loss
I0103 19:29:43.128065 13574 layer_factory.hpp:77] Creating layer loss
…
I0103 19:29:43.128708 13574 solver.cpp:172] Creating test net (#0) specified by net file: examples/mnist_tests/ST_FCN_RST/ST_FCN.prototxt
I0103 19:29:43.128737 13574 net.cpp:294] The NetState phase (1) differed from the phase (0) specified by a rule in layer mnist
I0103 19:29:43.128810 13574 net.cpp:51] Initializing net from parameters: 
name: "ST_FCN"
state {
  phase: TEST
}
layer {
  name: "mnist"
  type: "Data"
  top: "data"
  top: "label"
  include {
    phase: TEST
  }
  transform_param {
    scale: 0.00390625
  }
  data_param {
    source: "/data2/xyyu/datasets/Mnist/test_RTS_"
    batch_size: 100
    backend: LMDB
  }
}
layer {
  name: "loc_ip1"
  type: "InnerProduct"
  bottom: "data"
  top: "loc_ip1"
  inner_product_param {
    num_output: 32
    weight_filler {
      type: "xavier"
    }
    bias_filler {
      type: "constant"
    }
  }
}
layer {
  name: "loc_relu1"
  type: "ReLU"
  bottom: "loc_ip1"
  top: "loc_ip1"
}
layer {
  name: "loc_ip2"
  type: "InnerProduct"
  bottom: "loc_ip1"
  top: "loc_ip2"
  inner_product_param {
    num_output: 32
    weight_filler {
      type: "xavier"
    }
    bias_filler {
      type: "constant"
    }
  }
}
layer {
  name: "loc_relu2"
  type: "ReLU"
  bottom: "loc_ip2"
  top: "loc_ip2"
}
layer {
  name: "loc_ip3"
  type: "InnerProduct"
  bottom: "loc_ip2"
  top: "loc_ip3"
  inner_product_param {
    num_output: 32
    weight_filler {
      type: "xavier"
    }
    bias_filler {
      type: "constant"
    }
  }
}
layer {
  name: "loc_relu3"
  type: "ReLU"
  bottom: "loc_ip3"
  top: "loc_ip3"
}
layer {
  name: "loc_reg"
  type: "InnerProduct"
  bottom: "loc_ip3"
  top: "theta"
  inner_product_param {
    num_output: 6
    weight_filler {
      type: "constant"
      value: 0
    }
    bias_filler {
      type: "file"
      file: "examples/mnist_tests/bias_init.txt"
    }
  }
}
layer {
  name: "st_layer"
  type: "SpatialTransformer"
  bottom: "data"
  bottom: "theta"
  top: "st_output"
}
layer {
  name: "ip1"
  type: "InnerProduct"
  bottom: "st_output"
  top: "ip1"
  inner_product_param {
    num_output: 256
    weight_filler {
      type: "xavier"
    }
    bias_filler {
      type: "constant"
    }
  }
}
layer {
  name: "relu1"
  type: "ReLU"
  bottom: "ip1"
  top: "ip1"
}
layer {
  name: "ip2"
  type: "InnerProduct"
  bottom: "ip1"
  top: "ip2"
  inner_product_param {
    num_output: 256
    weight_filler {
      type: "xavier"
    }
    bias_filler {
      type: "constant"
    }
  }
}
layer {
  name: "relu2"
  type: "ReLU"
  bottom: "ip2"
  top: "ip2"
}
layer {
  name: "classification"
  type: "InnerProduct"
  bottom: "ip2"
  top: "class"
  inner_product_param {
    num_output: 10
    weight_filler {
      type: "xavier"
    }
    bias_filler {
      type: "constant"
    }
  }
}
layer {
  name: "accuracy"
  type: "Accuracy"
  bottom: "class"
  bottom: "label"
  top: "accuracy"
  include {
    phase: TEST
  }
}
layer {
  name: "loss"
  type: "SoftmaxWithLoss"
  bottom: "class"
  bottom: "label"
  top: "loss"
}
I0103 19:29:43.129225 13574 layer_factory.hpp:77] Creating layer mnist
I0103 19:29:43.147318 13574 db_lmdb.cpp:35] Opened lmdb /data2/xyyu/datasets/Mnist/test_RTS_
I0103 19:29:43.147361 13574 net.cpp:84] Creating Layer mnist
I0103 19:29:43.147377 13574 net.cpp:380] mnist -> data
I0103 19:29:43.147392 13574 net.cpp:380] mnist -> label
I0103 19:29:43.147511 13574 data_layer.cpp:45] output data size: 100,1,42,42
I0103 19:29:43.154950 13574 net.cpp:122] Setting up mnist
I0103 19:29:43.154988 13574 net.cpp:129] Top shape: 100 1 42 42 (176400)
I0103 19:29:43.154996 13574 net.cpp:129] Top shape: 100 (100)
I0103 19:29:43.155004 13574 net.cpp:137] Memory required for data: 706000
I0103 19:29:43.155012 13574 layer_factory.hpp:77] Creating layer data_mnist_0_split
I0103 19:29:43.155026 13574 net.cpp:84] Creating Layer data_mnist_0_split
I0103 19:29:43.155033 13574 net.cpp:406] data_mnist_0_split <- data
I0103 19:29:43.155042 13574 net.cpp:380] data_mnist_0_split -> data_mnist_0_split_0
I0103 19:29:43.155055 13574 net.cpp:380] data_mnist_0_split -> data_mnist_0_split_1
I0103 19:29:43.155105 13574 net.cpp:122] Setting up data_mnist_0_split
I0103 19:29:43.155117 13574 net.cpp:129] Top shape: 100 1 42 42 (176400)
I0103 19:29:43.155124 13574 net.cpp:129] Top shape: 100 1 42 42 (176400)
I0103 19:29:43.155130 13574 net.cpp:137] Memory required for data: 2117200
I0103 19:29:43.155135 13574 layer_factory.hpp:77] Creating layer label_mnist_1_split
I0103 19:29:43.155143 13574 net.cpp:84] Creating Layer label_mnist_1_split
I0103 19:29:43.155149 13574 net.cpp:406] label_mnist_1_split <- label
I0103 19:29:43.155156 13574 net.cpp:380] label_mnist_1_split -> label_mnist_1_split_0
I0103 19:29:43.155164 13574 net.cpp:380] label_mnist_1_split -> label_mnist_1_split_1
I0103 19:29:43.155195 13574 net.cpp:122] Setting up label_mnist_1_split
I0103 19:29:43.155205 13574 net.cpp:129] Top shape: 100 (100)
I0103 19:29:43.155213 13574 net.cpp:129] Top shape: 100 (100)
I0103 19:29:43.155220 13574 net.cpp:137] Memory required for data: 2118000
I0103 19:29:43.155225 13574 layer_factory.hpp:77] Creating layer loc_ip1
I0103 19:29:43.155234 13574 net.cpp:84] Creating Layer loc_ip1
I0103 19:29:43.155239 13574 net.cpp:406] loc_ip1 <- data_mnist_0_split_0
I0103 19:29:43.155246 13574 net.cpp:380] loc_ip1 -> loc_ip1
I0103 19:29:43.155647 13574 net.cpp:122] Setting up loc_ip1
I0103 19:29:43.155659 13574 net.cpp:129] Top shape: 100 32 (3200)
I0103 19:29:43.155665 13574 net.cpp:137] Memory required for data: 2130800
I0103 19:29:43.155678 13574 layer_factory.hpp:77] Creating layer loc_relu1
I0103 19:29:43.155688 13574 net.cpp:84] Creating Layer loc_relu1
I0103 19:29:43.155694 13574 net.cpp:406] loc_relu1 <- loc_ip1
I0103 19:29:43.155700 13574 net.cpp:367] loc_relu1 -> loc_ip1 (in-place)
I0103 19:29:43.155855 13574 net.cpp:122] Setting up loc_relu1
I0103 19:29:43.155869 13574 net.cpp:129] Top shape: 100 32 (3200)
I0103 19:29:43.155875 13574 net.cpp:137] Memory required for data: 2143600
I0103 19:29:43.155881 13574 layer_factory.hpp:77] Creating layer loc_ip2
I0103 19:29:43.155889 13574 net.cpp:84] Creating Layer loc_ip2
I0103 19:29:43.155895 13574 net.cpp:406] loc_ip2 <- loc_ip1
I0103 19:29:43.155903 13574 net.cpp:380] loc_ip2 -> loc_ip2
I0103 19:29:43.155990 13574 net.cpp:122] Setting up loc_ip2
I0103 19:29:43.156002 13574 net.cpp:129] Top shape: 100 32 (3200)
I0103 19:29:43.156008 13574 net.cpp:137] Memory required for data: 2156400
I0103 19:29:43.156018 13574 layer_factory.hpp:77] Creating layer loc_relu2
I0103 19:29:43.156025 13574 net.cpp:84] Creating Layer loc_relu2
I0103 19:29:43.156031 13574 net.cpp:406] loc_relu2 <- loc_ip2
I0103 19:29:43.156038 13574 net.cpp:367] loc_relu2 -> loc_ip2 (in-place)
I0103 19:29:43.156235 13574 net.cpp:122] Setting up loc_relu2
I0103 19:29:43.156251 13574 net.cpp:129] Top shape: 100 32 (3200)
I0103 19:29:43.156258 13574 net.cpp:137] Memory required for data: 2169200
I0103 19:29:43.156265 13574 layer_factory.hpp:77] Creating layer loc_ip3
I0103 19:29:43.156272 13574 net.cpp:84] Creating Layer loc_ip3
I0103 19:29:43.156278 13574 net.cpp:406] loc_ip3 <- loc_ip2
I0103 19:29:43.156286 13574 net.cpp:380] loc_ip3 -> loc_ip3
I0103 19:29:43.157207 13574 net.cpp:122] Setting up loc_ip3
I0103 19:29:43.157222 13574 net.cpp:129] Top shape: 100 32 (3200)
I0103 19:29:43.157229 13574 net.cpp:137] Memory required for data: 2182000
I0103 19:29:43.157243 13574 layer_factory.hpp:77] Creating layer loc_relu3
I0103 19:29:43.157253 13574 net.cpp:84] Creating Layer loc_relu3
I0103 19:29:43.157285 13574 net.cpp:406] loc_relu3 <- loc_ip3
I0103 19:29:43.157294 13574 net.cpp:367] loc_relu3 -> loc_ip3 (in-place)
I0103 19:29:43.157975 13574 net.cpp:122] Setting up loc_relu3
I0103 19:29:43.158004 13574 net.cpp:129] Top shape: 100 32 (3200)
I0103 19:29:43.158015 13574 net.cpp:137] Memory required for data: 2194800
I0103 19:29:43.158021 13574 layer_factory.hpp:77] Creating layer loc_reg
I0103 19:29:43.158030 13574 net.cpp:84] Creating Layer loc_reg
I0103 19:29:43.158043 13574 net.cpp:406] loc_reg <- loc_ip3
I0103 19:29:43.158051 13574 net.cpp:380] loc_reg -> theta
I0103 19:29:43.158215 13574 net.cpp:122] Setting up loc_reg
I0103 19:29:43.158226 13574 net.cpp:129] Top shape: 100 6 (600)
I0103 19:29:43.158232 13574 net.cpp:137] Memory required for data: 2197200
I0103 19:29:43.158241 13574 layer_factory.hpp:77] Creating layer st_layer
I0103 19:29:43.158249 13574 net.cpp:84] Creating Layer st_layer
I0103 19:29:43.158255 13574 net.cpp:406] st_layer <- data_mnist_0_split_1
I0103 19:29:43.158262 13574 net.cpp:406] st_layer <- theta
I0103 19:29:43.158269 13574 net.cpp:380] st_layer -> st_output
I0103 19:29:43.158433 13574 net.cpp:122] Setting up st_layer
I0103 19:29:43.158442 13574 net.cpp:129] Top shape: 100 1 42 42 (176400)
I0103 19:29:43.158448 13574 net.cpp:137] Memory required for data: 2902800
I0103 19:29:43.158453 13574 layer_factory.hpp:77] Creating layer ip1
I0103 19:29:43.158462 13574 net.cpp:84] Creating Layer ip1
I0103 19:29:43.158468 13574 net.cpp:406] ip1 <- st_output
I0103 19:29:43.158474 13574 net.cpp:380] ip1 -> ip1
I0103 19:29:43.161943 13574 net.cpp:122] Setting up ip1
I0103 19:29:43.161972 13574 net.cpp:129] Top shape: 100 256 (25600)
I0103 19:29:43.161979 13574 net.cpp:137] Memory required for data: 3005200
I0103 19:29:43.161994 13574 layer_factory.hpp:77] Creating layer relu1
I0103 19:29:43.162005 13574 net.cpp:84] Creating Layer relu1
I0103 19:29:43.162012 13574 net.cpp:406] relu1 <- ip1
I0103 19:29:43.162020 13574 net.cpp:367] relu1 -> ip1 (in-place)
I0103 19:29:43.162189 13574 net.cpp:122] Setting up relu1
I0103 19:29:43.162201 13574 net.cpp:129] Top shape: 100 256 (25600)
I0103 19:29:43.162209 13574 net.cpp:137] Memory required for data: 3107600
I0103 19:29:43.162214 13574 layer_factory.hpp:77] Creating layer ip2
I0103 19:29:43.162225 13574 net.cpp:84] Creating Layer ip2
I0103 19:29:43.162230 13574 net.cpp:406] ip2 <- ip1
I0103 19:29:43.162238 13574 net.cpp:380] ip2 -> ip2
I0103 19:29:43.162807 13574 net.cpp:122] Setting up ip2
I0103 19:29:43.162823 13574 net.cpp:129] Top shape: 100 256 (25600)
I0103 19:29:43.162830 13574 net.cpp:137] Memory required for data: 3210000
I0103 19:29:43.162842 13574 layer_factory.hpp:77] Creating layer relu2
I0103 19:29:43.162850 13574 net.cpp:84] Creating Layer relu2
I0103 19:29:43.162871 13574 net.cpp:406] relu2 <- ip2
I0103 19:29:43.162879 13574 net.cpp:367] relu2 -> ip2 (in-place)
I0103 19:29:43.163024 13574 net.cpp:122] Setting up relu2
I0103 19:29:43.163038 13574 net.cpp:129] Top shape: 100 256 (25600)
I0103 19:29:43.163051 13574 net.cpp:137] Memory required for data: 3312400
I0103 19:29:43.163058 13574 layer_factory.hpp:77] Creating layer classification
I0103 19:29:43.163066 13574 net.cpp:84] Creating Layer classification
I0103 19:29:43.163072 13574 net.cpp:406] classification <- ip2
I0103 19:29:43.163080 13574 net.cpp:380] classification -> class
I0103 19:29:43.163192 13574 net.cpp:122] Setting up classification
I0103 19:29:43.163203 13574 net.cpp:129] Top shape: 100 10 (1000)
I0103 19:29:43.163208 13574 net.cpp:137] Memory required for data: 3316400
I0103 19:29:43.163216 13574 layer_factory.hpp:77] Creating layer class_classification_0_split
I0103 19:29:43.163234 13574 net.cpp:84] Creating Layer class_classification_0_split
I0103 19:29:43.163245 13574 net.cpp:406] class_classification_0_split <- class
I0103 19:29:43.163252 13574 net.cpp:380] class_classification_0_split -> class_classification_0_split_0
I0103 19:29:43.163261 13574 net.cpp:380] class_classification_0_split -> class_classification_0_split_1
I0103 19:29:43.163337 13574 net.cpp:122] Setting up class_classification_0_split
I0103 19:29:43.163357 13574 net.cpp:129] Top shape: 100 10 (1000)
I0103 19:29:43.163364 13574 net.cpp:129] Top shape: 100 10 (1000)
I0103 19:29:43.163370 13574 net.cpp:137] Memory required for data: 3324400
I0103 19:29:43.163377 13574 layer_factory.hpp:77] Creating layer accuracy
I0103 19:29:43.163393 13574 net.cpp:84] Creating Layer accuracy
I0103 19:29:43.163400 13574 net.cpp:406] accuracy <- class_classification_0_split_0
I0103 19:29:43.163408 13574 net.cpp:406] accuracy <- label_mnist_1_split_0
I0103 19:29:43.163415 13574 net.cpp:380] accuracy -> accuracy
…
