…
I1230 16:43:24.244501 29022 net.cpp:294] The NetState phase (0) differed from the phase (1) specified by a rule in layer mnist
I1230 16:43:24.244525 29022 net.cpp:294] The NetState phase (0) differed from the phase (1) specified by a rule in layer accuracy
I1230 16:43:24.244611 29022 net.cpp:51] Initializing net from parameters: 
name: "ST_FCN"
state {
  phase: TRAIN
  level: 0
  stage: ""
}
layer {
  name: "mnist"
  type: "Data"
  top: "data"
  top: "label"
  include {
    phase: TRAIN
  }
  transform_param {
    scale: 0.00390625
  }
  data_param {
    source: "/data2/xyyu/datasets/Mnist/train_R_ran"
    batch_size: 256
    backend: LMDB
  }
}
layer {
  name: "loc_ip1"
  type: "InnerProduct"
  bottom: "data"
  top: "loc_ip1"
  inner_product_param {
    num_output: 32
    weight_filler {
      type: "xavier"
    }
    bias_filler {
      type: "constant"
    }
  }
}
layer {
  name: "loc_relu1"
  type: "ReLU"
  bottom: "loc_ip1"
  top: "loc_ip1"
}
layer {
  name: "loc_ip2"
  type: "InnerProduct"
  bottom: "loc_ip1"
  top: "loc_ip2"
  inner_product_param {
    num_output: 32
    weight_filler {
      type: "xavier"
    }
    bias_filler {
      type: "constant"
    }
  }
}
layer {
  name: "loc_relu2"
  type: "ReLU"
  bottom: "loc_ip2"
  top: "loc_ip2"
}
layer {
  name: "loc_ip3"
  type: "InnerProduct"
  bottom: "loc_ip2"
  top: "loc_ip3"
  inner_product_param {
    num_output: 32
    weight_filler {
      type: "xavier"
    }
    bias_filler {
      type: "constant"
    }
  }
}
layer {
  name: "loc_relu3"
  type: "ReLU"
  bottom: "loc_ip3"
  top: "loc_ip3"
}
layer {
  name: "loc_reg"
  type: "InnerProduct"
  bottom: "loc_ip3"
  top: "theta"
  inner_product_param {
    num_output: 6
    weight_filler {
      type: "constant"
      value: 0
    }
    bias_filler {
      type: "file"
      file: "examples/mnist_tests/bias_init.txt"
    }
  }
}
layer {
  name: "st_layer"
  type: "SpatialTransformer"
  bottom: "data"
  bottom: "theta"
  top: "st_output"
}
layer {
  name: "ip1"
  type: "InnerProduct"
  bottom: "st_output"
  top: "ip1"
  inner_product_param {
    num_output: 256
    weight_filler {
      type: "xavier"
    }
    bias_filler {
      type: "constant"
    }
  }
}
layer {
  name: "relu1"
  type: "ReLU"
  bottom: "ip1"
  top: "ip1"
}
layer {
  name: "ip2"
  type: "InnerProduct"
  bottom: "ip1"
  top: "ip2"
  inner_product_param {
    num_output: 256
    weight_filler {
      type: "xavier"
    }
    bias_filler {
      type: "constant"
    }
  }
}
layer {
  name: "relu2"
  type: "ReLU"
  bottom: "ip2"
  top: "ip2"
}
layer {
  name: "classification"
  type: "InnerProduct"
  bottom: "ip2"
  top: "class"
  inner_product_param {
    num_output: 10
    weight_filler {
      type: "xavier"
    }
    bias_filler {
      type: "constant"
    }
  }
}
layer {
  name: "loss"
  type: "SoftmaxWithLoss"
  bottom: "class"
  bottom: "label"
  top: "loss"
}
I1230 16:43:24.251575 29022 layer_factory.hpp:77] Creating layer mnist
I1230 16:43:24.253713 29022 db_lmdb.cpp:35] Opened lmdb /data2/xyyu/datasets/Mnist/train_R_ran
I1230 16:43:24.253751 29022 net.cpp:84] Creating Layer mnist
I1230 16:43:24.254788 29022 net.cpp:380] mnist -> data
I1230 16:43:24.255254 29022 net.cpp:380] mnist -> label
I1230 16:43:24.258172 29022 data_layer.cpp:45] output data size: 256,1,28,28
I1230 16:43:24.299737 29022 net.cpp:122] Setting up mnist
I1230 16:43:24.299762 29022 net.cpp:129] Top shape: 256 1 28 28 (200704)
I1230 16:43:24.299770 29022 net.cpp:129] Top shape: 256 (256)
I1230 16:43:24.299791 29022 net.cpp:137] Memory required for data: 803840
I1230 16:43:24.299801 29022 layer_factory.hpp:77] Creating layer data_mnist_0_split
I1230 16:43:24.300173 29022 net.cpp:84] Creating Layer data_mnist_0_split
I1230 16:43:24.300194 29022 net.cpp:406] data_mnist_0_split <- data
I1230 16:43:24.300215 29022 net.cpp:380] data_mnist_0_split -> data_mnist_0_split_0
I1230 16:43:24.300226 29022 net.cpp:380] data_mnist_0_split -> data_mnist_0_split_1
I1230 16:43:24.300263 29022 net.cpp:122] Setting up data_mnist_0_split
I1230 16:43:24.300283 29022 net.cpp:129] Top shape: 256 1 28 28 (200704)
I1230 16:43:24.300289 29022 net.cpp:129] Top shape: 256 1 28 28 (200704)
I1230 16:43:24.300294 29022 net.cpp:137] Memory required for data: 2409472
I1230 16:43:24.300299 29022 layer_factory.hpp:77] Creating layer loc_ip1
I1230 16:43:24.300312 29022 net.cpp:84] Creating Layer loc_ip1
I1230 16:43:24.300318 29022 net.cpp:406] loc_ip1 <- data_mnist_0_split_0
I1230 16:43:24.300324 29022 net.cpp:380] loc_ip1 -> loc_ip1
I1230 16:43:24.301643 29022 net.cpp:122] Setting up loc_ip1
I1230 16:43:24.301661 29022 net.cpp:129] Top shape: 256 32 (8192)
I1230 16:43:24.301667 29022 net.cpp:137] Memory required for data: 2442240
I1230 16:43:24.301687 29022 layer_factory.hpp:77] Creating layer loc_relu1
I1230 16:43:24.301898 29022 net.cpp:84] Creating Layer loc_relu1
I1230 16:43:24.301910 29022 net.cpp:406] loc_relu1 <- loc_ip1
I1230 16:43:24.301918 29022 net.cpp:367] loc_relu1 -> loc_ip1 (in-place)
I1230 16:43:27.053308 29022 net.cpp:122] Setting up loc_relu1
I1230 16:43:27.053344 29022 net.cpp:129] Top shape: 256 32 (8192)
I1230 16:43:27.053351 29022 net.cpp:137] Memory required for data: 2475008
I1230 16:43:27.053359 29022 layer_factory.hpp:77] Creating layer loc_ip2
I1230 16:43:27.053375 29022 net.cpp:84] Creating Layer loc_ip2
I1230 16:43:27.053381 29022 net.cpp:406] loc_ip2 <- loc_ip1
I1230 16:43:27.053390 29022 net.cpp:380] loc_ip2 -> loc_ip2
I1230 16:43:27.054352 29022 net.cpp:122] Setting up loc_ip2
I1230 16:43:27.054371 29022 net.cpp:129] Top shape: 256 32 (8192)
I1230 16:43:27.054378 29022 net.cpp:137] Memory required for data: 2507776
I1230 16:43:27.054391 29022 layer_factory.hpp:77] Creating layer loc_relu2
I1230 16:43:27.054401 29022 net.cpp:84] Creating Layer loc_relu2
I1230 16:43:27.054409 29022 net.cpp:406] loc_relu2 <- loc_ip2
I1230 16:43:27.054415 29022 net.cpp:367] loc_relu2 -> loc_ip2 (in-place)
I1230 16:43:27.055094 29022 net.cpp:122] Setting up loc_relu2
I1230 16:43:27.055114 29022 net.cpp:129] Top shape: 256 32 (8192)
I1230 16:43:27.055120 29022 net.cpp:137] Memory required for data: 2540544
I1230 16:43:27.055126 29022 layer_factory.hpp:77] Creating layer loc_ip3
I1230 16:43:27.055135 29022 net.cpp:84] Creating Layer loc_ip3
I1230 16:43:27.055141 29022 net.cpp:406] loc_ip3 <- loc_ip2
I1230 16:43:27.055148 29022 net.cpp:380] loc_ip3 -> loc_ip3
I1230 16:43:27.055227 29022 net.cpp:122] Setting up loc_ip3
I1230 16:43:27.055238 29022 net.cpp:129] Top shape: 256 32 (8192)
I1230 16:43:27.055244 29022 net.cpp:137] Memory required for data: 2573312
I1230 16:43:27.055253 29022 layer_factory.hpp:77] Creating layer loc_relu3
I1230 16:43:27.055263 29022 net.cpp:84] Creating Layer loc_relu3
I1230 16:43:27.055269 29022 net.cpp:406] loc_relu3 <- loc_ip3
I1230 16:43:27.055275 29022 net.cpp:367] loc_relu3 -> loc_ip3 (in-place)
I1230 16:43:27.055402 29022 net.cpp:122] Setting up loc_relu3
I1230 16:43:27.055418 29022 net.cpp:129] Top shape: 256 32 (8192)
I1230 16:43:27.055423 29022 net.cpp:137] Memory required for data: 2606080
I1230 16:43:27.055429 29022 layer_factory.hpp:77] Creating layer loc_reg
I1230 16:43:27.055438 29022 net.cpp:84] Creating Layer loc_reg
I1230 16:43:27.055445 29022 net.cpp:406] loc_reg <- loc_ip3
I1230 16:43:27.055454 29022 net.cpp:380] loc_reg -> theta
I1230 16:43:27.055614 29022 net.cpp:122] Setting up loc_reg
I1230 16:43:27.055627 29022 net.cpp:129] Top shape: 256 6 (1536)
I1230 16:43:27.055634 29022 net.cpp:137] Memory required for data: 2612224
I1230 16:43:27.055641 29022 layer_factory.hpp:77] Creating layer st_layer
I1230 16:43:27.056449 29022 net.cpp:84] Creating Layer st_layer
I1230 16:43:27.056463 29022 net.cpp:406] st_layer <- data_mnist_0_split_1
I1230 16:43:27.056469 29022 net.cpp:406] st_layer <- theta
I1230 16:43:27.056476 29022 net.cpp:380] st_layer -> st_output
I1230 16:43:27.057471 29022 net.cpp:122] Setting up st_layer
I1230 16:43:27.057487 29022 net.cpp:129] Top shape: 256 1 28 28 (200704)
I1230 16:43:27.057493 29022 net.cpp:137] Memory required for data: 3415040
I1230 16:43:27.057499 29022 layer_factory.hpp:77] Creating layer ip1
I1230 16:43:27.057512 29022 net.cpp:84] Creating Layer ip1
I1230 16:43:27.057520 29022 net.cpp:406] ip1 <- st_output
I1230 16:43:27.057529 29022 net.cpp:380] ip1 -> ip1
I1230 16:43:27.059571 29022 net.cpp:122] Setting up ip1
I1230 16:43:27.059610 29022 net.cpp:129] Top shape: 256 256 (65536)
I1230 16:43:27.059617 29022 net.cpp:137] Memory required for data: 3677184
I1230 16:43:27.059633 29022 layer_factory.hpp:77] Creating layer relu1
I1230 16:43:27.059645 29022 net.cpp:84] Creating Layer relu1
I1230 16:43:27.059651 29022 net.cpp:406] relu1 <- ip1
I1230 16:43:27.059659 29022 net.cpp:367] relu1 -> ip1 (in-place)
I1230 16:43:27.059833 29022 net.cpp:122] Setting up relu1
I1230 16:43:27.059844 29022 net.cpp:129] Top shape: 256 256 (65536)
I1230 16:43:27.059849 29022 net.cpp:137] Memory required for data: 3939328
I1230 16:43:27.059855 29022 layer_factory.hpp:77] Creating layer ip2
I1230 16:43:27.059865 29022 net.cpp:84] Creating Layer ip2
I1230 16:43:27.059870 29022 net.cpp:406] ip2 <- ip1
I1230 16:43:27.059877 29022 net.cpp:380] ip2 -> ip2
I1230 16:43:27.060323 29022 net.cpp:122] Setting up ip2
I1230 16:43:27.060334 29022 net.cpp:129] Top shape: 256 256 (65536)
I1230 16:43:27.060339 29022 net.cpp:137] Memory required for data: 4201472
I1230 16:43:27.060346 29022 layer_factory.hpp:77] Creating layer relu2
I1230 16:43:27.060354 29022 net.cpp:84] Creating Layer relu2
I1230 16:43:27.060359 29022 net.cpp:406] relu2 <- ip2
I1230 16:43:27.060365 29022 net.cpp:367] relu2 -> ip2 (in-place)
I1230 16:43:27.061122 29022 net.cpp:122] Setting up relu2
I1230 16:43:27.061141 29022 net.cpp:129] Top shape: 256 256 (65536)
I1230 16:43:27.061146 29022 net.cpp:137] Memory required for data: 4463616
I1230 16:43:27.061152 29022 layer_factory.hpp:77] Creating layer classification
I1230 16:43:27.061161 29022 net.cpp:84] Creating Layer classification
I1230 16:43:27.061167 29022 net.cpp:406] classification <- ip2
I1230 16:43:27.061175 29022 net.cpp:380] classification -> class
I1230 16:43:27.061275 29022 net.cpp:122] Setting up classification
I1230 16:43:27.061285 29022 net.cpp:129] Top shape: 256 10 (2560)
I1230 16:43:27.061290 29022 net.cpp:137] Memory required for data: 4473856
I1230 16:43:27.061297 29022 layer_factory.hpp:77] Creating layer loss
I1230 16:43:27.061308 29022 net.cpp:84] Creating Layer loss
I1230 16:43:27.061314 29022 net.cpp:406] loss <- class
I1230 16:43:27.061321 29022 net.cpp:406] loss <- label
I1230 16:43:27.061328 29022 net.cpp:380] loss -> loss
I1230 16:43:27.061712 29022 layer_factory.hpp:77] Creating layer loss
…
I1230 16:43:27.062836 29022 solver.cpp:172] Creating test net (#0) specified by net file: examples/mnist_tests/ST_FCN/ST_FCN.prototxt
I1230 16:43:27.062865 29022 net.cpp:294] The NetState phase (1) differed from the phase (0) specified by a rule in layer mnist
I1230 16:43:27.062937 29022 net.cpp:51] Initializing net from parameters: 
name: "ST_FCN"
state {
  phase: TEST
}
layer {
  name: "mnist"
  type: "Data"
  top: "data"
  top: "label"
  include {
    phase: TEST
  }
  transform_param {
    scale: 0.00390625
  }
  data_param {
    source: "/data2/xyyu/datasets/Mnist/test_R_ran"
    batch_size: 100
    backend: LMDB
  }
}
layer {
  name: "loc_ip1"
  type: "InnerProduct"
  bottom: "data"
  top: "loc_ip1"
  inner_product_param {
    num_output: 32
    weight_filler {
      type: "xavier"
    }
    bias_filler {
      type: "constant"
    }
  }
}
layer {
  name: "loc_relu1"
  type: "ReLU"
  bottom: "loc_ip1"
  top: "loc_ip1"
}
layer {
  name: "loc_ip2"
  type: "InnerProduct"
  bottom: "loc_ip1"
  top: "loc_ip2"
  inner_product_param {
    num_output: 32
    weight_filler {
      type: "xavier"
    }
    bias_filler {
      type: "constant"
    }
  }
}
layer {
  name: "loc_relu2"
  type: "ReLU"
  bottom: "loc_ip2"
  top: "loc_ip2"
}
layer {
  name: "loc_ip3"
  type: "InnerProduct"
  bottom: "loc_ip2"
  top: "loc_ip3"
  inner_product_param {
    num_output: 32
    weight_filler {
      type: "xavier"
    }
    bias_filler {
      type: "constant"
    }
  }
}
layer {
  name: "loc_relu3"
  type: "ReLU"
  bottom: "loc_ip3"
  top: "loc_ip3"
}
layer {
  name: "loc_reg"
  type: "InnerProduct"
  bottom: "loc_ip3"
  top: "theta"
  inner_product_param {
    num_output: 6
    weight_filler {
      type: "constant"
      value: 0
    }
    bias_filler {
      type: "file"
      file: "examples/mnist_tests/bias_init.txt"
    }
  }
}
layer {
  name: "st_layer"
  type: "SpatialTransformer"
  bottom: "data"
  bottom: "theta"
  top: "st_output"
}
layer {
  name: "ip1"
  type: "InnerProduct"
  bottom: "st_output"
  top: "ip1"
  inner_product_param {
    num_output: 256
    weight_filler {
      type: "xavier"
    }
    bias_filler {
      type: "constant"
    }
  }
}
layer {
  name: "relu1"
  type: "ReLU"
  bottom: "ip1"
  top: "ip1"
}
layer {
  name: "ip2"
  type: "InnerProduct"
  bottom: "ip1"
  top: "ip2"
  inner_product_param {
    num_output: 256
    weight_filler {
      type: "xavier"
    }
    bias_filler {
      type: "constant"
    }
  }
}
layer {
  name: "relu2"
  type: "ReLU"
  bottom: "ip2"
  top: "ip2"
}
layer {
  name: "classification"
  type: "InnerProduct"
  bottom: "ip2"
  top: "class"
  inner_product_param {
    num_output: 10
    weight_filler {
      type: "xavier"
    }
    bias_filler {
      type: "constant"
    }
  }
}
layer {
  name: "accuracy"
  type: "Accuracy"
  bottom: "class"
  bottom: "label"
  top: "accuracy"
  include {
    phase: TEST
  }
}
layer {
  name: "loss"
  type: "SoftmaxWithLoss"
  bottom: "class"
  bottom: "label"
  top: "loss"
}
I1230 16:43:27.063333 29022 layer_factory.hpp:77] Creating layer mnist
I1230 16:43:27.063385 29022 db_lmdb.cpp:35] Opened lmdb /data2/xyyu/datasets/Mnist/test_R_ran
I1230 16:43:27.063401 29022 net.cpp:84] Creating Layer mnist
I1230 16:43:27.063408 29022 net.cpp:380] mnist -> data
I1230 16:43:27.063418 29022 net.cpp:380] mnist -> label
I1230 16:43:27.063494 29022 data_layer.cpp:45] output data size: 100,1,28,28
I1230 16:43:27.066295 29022 net.cpp:122] Setting up mnist
I1230 16:43:27.066329 29022 net.cpp:129] Top shape: 100 1 28 28 (78400)
I1230 16:43:27.066337 29022 net.cpp:129] Top shape: 100 (100)
I1230 16:43:27.066344 29022 net.cpp:137] Memory required for data: 314000
I1230 16:43:27.066349 29022 layer_factory.hpp:77] Creating layer data_mnist_0_split
I1230 16:43:27.066361 29022 net.cpp:84] Creating Layer data_mnist_0_split
I1230 16:43:27.066367 29022 net.cpp:406] data_mnist_0_split <- data
I1230 16:43:27.066375 29022 net.cpp:380] data_mnist_0_split -> data_mnist_0_split_0
I1230 16:43:27.066385 29022 net.cpp:380] data_mnist_0_split -> data_mnist_0_split_1
I1230 16:43:27.066457 29022 net.cpp:122] Setting up data_mnist_0_split
I1230 16:43:27.066468 29022 net.cpp:129] Top shape: 100 1 28 28 (78400)
I1230 16:43:27.066473 29022 net.cpp:129] Top shape: 100 1 28 28 (78400)
I1230 16:43:27.066478 29022 net.cpp:137] Memory required for data: 941200
I1230 16:43:27.066483 29022 layer_factory.hpp:77] Creating layer label_mnist_1_split
I1230 16:43:27.066490 29022 net.cpp:84] Creating Layer label_mnist_1_split
I1230 16:43:27.066495 29022 net.cpp:406] label_mnist_1_split <- label
I1230 16:43:27.066503 29022 net.cpp:380] label_mnist_1_split -> label_mnist_1_split_0
I1230 16:43:27.066509 29022 net.cpp:380] label_mnist_1_split -> label_mnist_1_split_1
I1230 16:43:27.066539 29022 net.cpp:122] Setting up label_mnist_1_split
I1230 16:43:27.066546 29022 net.cpp:129] Top shape: 100 (100)
I1230 16:43:27.066551 29022 net.cpp:129] Top shape: 100 (100)
I1230 16:43:27.066556 29022 net.cpp:137] Memory required for data: 942000
I1230 16:43:27.066561 29022 layer_factory.hpp:77] Creating layer loc_ip1
I1230 16:43:27.066570 29022 net.cpp:84] Creating Layer loc_ip1
I1230 16:43:27.066575 29022 net.cpp:406] loc_ip1 <- data_mnist_0_split_0
I1230 16:43:27.066581 29022 net.cpp:380] loc_ip1 -> loc_ip1
I1230 16:43:27.066802 29022 net.cpp:122] Setting up loc_ip1
I1230 16:43:27.066812 29022 net.cpp:129] Top shape: 100 32 (3200)
I1230 16:43:27.066817 29022 net.cpp:137] Memory required for data: 954800
I1230 16:43:27.066828 29022 layer_factory.hpp:77] Creating layer loc_relu1
I1230 16:43:27.066836 29022 net.cpp:84] Creating Layer loc_relu1
I1230 16:43:27.066841 29022 net.cpp:406] loc_relu1 <- loc_ip1
I1230 16:43:27.066848 29022 net.cpp:367] loc_relu1 -> loc_ip1 (in-place)
I1230 16:43:27.066989 29022 net.cpp:122] Setting up loc_relu1
I1230 16:43:27.067001 29022 net.cpp:129] Top shape: 100 32 (3200)
I1230 16:43:27.067006 29022 net.cpp:137] Memory required for data: 967600
I1230 16:43:27.067013 29022 layer_factory.hpp:77] Creating layer loc_ip2
I1230 16:43:27.067020 29022 net.cpp:84] Creating Layer loc_ip2
I1230 16:43:27.067025 29022 net.cpp:406] loc_ip2 <- loc_ip1
I1230 16:43:27.067032 29022 net.cpp:380] loc_ip2 -> loc_ip2
I1230 16:43:27.067117 29022 net.cpp:122] Setting up loc_ip2
I1230 16:43:27.067126 29022 net.cpp:129] Top shape: 100 32 (3200)
I1230 16:43:27.067131 29022 net.cpp:137] Memory required for data: 980400
I1230 16:43:27.067139 29022 layer_factory.hpp:77] Creating layer loc_relu2
I1230 16:43:27.067147 29022 net.cpp:84] Creating Layer loc_relu2
I1230 16:43:27.067152 29022 net.cpp:406] loc_relu2 <- loc_ip2
I1230 16:43:27.067157 29022 net.cpp:367] loc_relu2 -> loc_ip2 (in-place)
I1230 16:43:27.067281 29022 net.cpp:122] Setting up loc_relu2
I1230 16:43:27.067292 29022 net.cpp:129] Top shape: 100 32 (3200)
I1230 16:43:27.067297 29022 net.cpp:137] Memory required for data: 993200
I1230 16:43:27.067302 29022 layer_factory.hpp:77] Creating layer loc_ip3
I1230 16:43:27.067311 29022 net.cpp:84] Creating Layer loc_ip3
I1230 16:43:27.067315 29022 net.cpp:406] loc_ip3 <- loc_ip2
I1230 16:43:27.067322 29022 net.cpp:380] loc_ip3 -> loc_ip3
I1230 16:43:27.067404 29022 net.cpp:122] Setting up loc_ip3
I1230 16:43:27.067414 29022 net.cpp:129] Top shape: 100 32 (3200)
I1230 16:43:27.067420 29022 net.cpp:137] Memory required for data: 1006000
I1230 16:43:27.067427 29022 layer_factory.hpp:77] Creating layer loc_relu3
I1230 16:43:27.067435 29022 net.cpp:84] Creating Layer loc_relu3
I1230 16:43:27.067451 29022 net.cpp:406] loc_relu3 <- loc_ip3
I1230 16:43:27.067458 29022 net.cpp:367] loc_relu3 -> loc_ip3 (in-place)
I1230 16:43:27.068164 29022 net.cpp:122] Setting up loc_relu3
I1230 16:43:27.068179 29022 net.cpp:129] Top shape: 100 32 (3200)
I1230 16:43:27.068186 29022 net.cpp:137] Memory required for data: 1018800
I1230 16:43:27.068192 29022 layer_factory.hpp:77] Creating layer loc_reg
I1230 16:43:27.068199 29022 net.cpp:84] Creating Layer loc_reg
I1230 16:43:27.068205 29022 net.cpp:406] loc_reg <- loc_ip3
I1230 16:43:27.068212 29022 net.cpp:380] loc_reg -> theta
I1230 16:43:27.068720 29022 net.cpp:122] Setting up loc_reg
I1230 16:43:27.068735 29022 net.cpp:129] Top shape: 100 6 (600)
I1230 16:43:27.068742 29022 net.cpp:137] Memory required for data: 1021200
I1230 16:43:27.068749 29022 layer_factory.hpp:77] Creating layer st_layer
I1230 16:43:27.068758 29022 net.cpp:84] Creating Layer st_layer
I1230 16:43:27.068766 29022 net.cpp:406] st_layer <- data_mnist_0_split_1
I1230 16:43:27.068778 29022 net.cpp:406] st_layer <- theta
I1230 16:43:27.068785 29022 net.cpp:380] st_layer -> st_output
I1230 16:43:27.068918 29022 net.cpp:122] Setting up st_layer
I1230 16:43:27.068930 29022 net.cpp:129] Top shape: 100 1 28 28 (78400)
I1230 16:43:27.068936 29022 net.cpp:137] Memory required for data: 1334800
I1230 16:43:27.068944 29022 layer_factory.hpp:77] Creating layer ip1
I1230 16:43:27.068953 29022 net.cpp:84] Creating Layer ip1
I1230 16:43:27.068958 29022 net.cpp:406] ip1 <- st_output
I1230 16:43:27.068967 29022 net.cpp:380] ip1 -> ip1
I1230 16:43:27.070950 29022 net.cpp:122] Setting up ip1
I1230 16:43:27.070977 29022 net.cpp:129] Top shape: 100 256 (25600)
I1230 16:43:27.070983 29022 net.cpp:137] Memory required for data: 1437200
I1230 16:43:27.070996 29022 layer_factory.hpp:77] Creating layer relu1
I1230 16:43:27.071004 29022 net.cpp:84] Creating Layer relu1
I1230 16:43:27.071017 29022 net.cpp:406] relu1 <- ip1
I1230 16:43:27.071027 29022 net.cpp:367] relu1 -> ip1 (in-place)
I1230 16:43:27.071174 29022 net.cpp:122] Setting up relu1
I1230 16:43:27.071190 29022 net.cpp:129] Top shape: 100 256 (25600)
I1230 16:43:27.071197 29022 net.cpp:137] Memory required for data: 1539600
I1230 16:43:27.071202 29022 layer_factory.hpp:77] Creating layer ip2
I1230 16:43:27.071211 29022 net.cpp:84] Creating Layer ip2
I1230 16:43:27.071218 29022 net.cpp:406] ip2 <- ip1
I1230 16:43:27.071225 29022 net.cpp:380] ip2 -> ip2
I1230 16:43:27.071674 29022 net.cpp:122] Setting up ip2
I1230 16:43:27.071686 29022 net.cpp:129] Top shape: 100 256 (25600)
I1230 16:43:27.071691 29022 net.cpp:137] Memory required for data: 1642000
I1230 16:43:27.071698 29022 layer_factory.hpp:77] Creating layer relu2
I1230 16:43:27.071705 29022 net.cpp:84] Creating Layer relu2
I1230 16:43:27.071710 29022 net.cpp:406] relu2 <- ip2
I1230 16:43:27.071717 29022 net.cpp:367] relu2 -> ip2 (in-place)
I1230 16:43:27.071842 29022 net.cpp:122] Setting up relu2
I1230 16:43:27.071853 29022 net.cpp:129] Top shape: 100 256 (25600)
I1230 16:43:27.071859 29022 net.cpp:137] Memory required for data: 1744400
I1230 16:43:27.071864 29022 layer_factory.hpp:77] Creating layer classification
I1230 16:43:27.071872 29022 net.cpp:84] Creating Layer classification
I1230 16:43:27.071878 29022 net.cpp:406] classification <- ip2
I1230 16:43:27.071884 29022 net.cpp:380] classification -> class
I1230 16:43:27.071983 29022 net.cpp:122] Setting up classification
I1230 16:43:27.071992 29022 net.cpp:129] Top shape: 100 10 (1000)
I1230 16:43:27.071997 29022 net.cpp:137] Memory required for data: 1748400
I1230 16:43:27.072005 29022 layer_factory.hpp:77] Creating layer class_classification_0_split
I1230 16:43:27.072013 29022 net.cpp:84] Creating Layer class_classification_0_split
I1230 16:43:27.072019 29022 net.cpp:406] class_classification_0_split <- class
I1230 16:43:27.072026 29022 net.cpp:380] class_classification_0_split -> class_classification_0_split_0
I1230 16:43:27.072033 29022 net.cpp:380] class_classification_0_split -> class_classification_0_split_1
I1230 16:43:27.072062 29022 net.cpp:122] Setting up class_classification_0_split
I1230 16:43:27.072088 29022 net.cpp:129] Top shape: 100 10 (1000)
I1230 16:43:27.072094 29022 net.cpp:129] Top shape: 100 10 (1000)
I1230 16:43:27.072099 29022 net.cpp:137] Memory required for data: 1756400
I1230 16:43:27.072104 29022 layer_factory.hpp:77] Creating layer accuracy
I1230 16:43:27.072113 29022 net.cpp:84] Creating Layer accuracy
I1230 16:43:27.072118 29022 net.cpp:406] accuracy <- class_classification_0_split_0
I1230 16:43:27.072124 29022 net.cpp:406] accuracy <- label_mnist_1_split_0
I1230 16:43:27.072131 29022 net.cpp:380] accuracy -> accuracy
…
