…
I1222 14:53:18.996628 18051 net.cpp:294] The NetState phase (0) differed from the phase (1) specified by a rule in layer mnist
I1222 14:53:18.996652 18051 net.cpp:294] The NetState phase (0) differed from the phase (1) specified by a rule in layer accuracy
I1222 14:53:18.996726 18051 net.cpp:51] Initializing net from parameters: 
name: "ST_FCN"
state {
  phase: TRAIN
  level: 0
  stage: ""
}
layer {
  name: "mnist"
  type: "Data"
  top: "data"
  top: "label"
  include {
    phase: TRAIN
  }
  transform_param {
    scale: 0.00390625
  }
  data_param {
    source: "/data2/xyyu/datasets/Mnist/train_RTS"
    batch_size: 256
    backend: LMDB
  }
}
layer {
  name: "loc_ip1"
  type: "InnerProduct"
  bottom: "data"
  top: "loc_ip1"
  inner_product_param {
    num_output: 32
    weight_filler {
      type: "xavier"
    }
    bias_filler {
      type: "constant"
    }
  }
}
layer {
  name: "loc_relu1"
  type: "ReLU"
  bottom: "loc_ip1"
  top: "loc_ip1"
}
layer {
  name: "loc_ip2"
  type: "InnerProduct"
  bottom: "loc_ip1"
  top: "loc_ip2"
  inner_product_param {
    num_output: 32
    weight_filler {
      type: "xavier"
    }
    bias_filler {
      type: "constant"
    }
  }
}
layer {
  name: "loc_relu2"
  type: "ReLU"
  bottom: "loc_ip2"
  top: "loc_ip2"
}
layer {
  name: "loc_ip3"
  type: "InnerProduct"
  bottom: "loc_ip2"
  top: "loc_ip3"
  inner_product_param {
    num_output: 32
    weight_filler {
      type: "xavier"
    }
    bias_filler {
      type: "constant"
    }
  }
}
layer {
  name: "loc_relu3"
  type: "ReLU"
  bottom: "loc_ip3"
  top: "loc_ip3"
}
layer {
  name: "loc_reg"
  type: "InnerProduct"
  bottom: "loc_ip3"
  top: "theta"
  inner_product_param {
    num_output: 6
    weight_filler {
      type: "constant"
      value: 0
    }
    bias_filler {
      type: "file"
      file: "examples/mnist_tests/bias_init.txt"
    }
  }
}
layer {
  name: "st_layer"
  type: "SpatialTransformer"
  bottom: "data"
  bottom: "theta"
  top: "st_output"
}
layer {
  name: "ip1"
  type: "InnerProduct"
  bottom: "st_output"
  top: "ip1"
  inner_product_param {
    num_output: 256
    weight_filler {
      type: "xavier"
    }
    bias_filler {
      type: "constant"
    }
  }
}
layer {
  name: "relu1"
  type: "ReLU"
  bottom: "ip1"
  top: "ip1"
}
layer {
  name: "ip2"
  type: "InnerProduct"
  bottom: "ip1"
  top: "ip2"
  inner_product_param {
    num_output: 256
    weight_filler {
      type: "xavier"
    }
    bias_filler {
      type: "constant"
    }
  }
}
layer {
  name: "relu2"
  type: "ReLU"
  bottom: "ip2"
  top: "ip2"
}
layer {
  name: "classification"
  type: "InnerProduct"
  bottom: "ip2"
  top: "class"
  inner_product_param {
    num_output: 10
    weight_filler {
      type: "xavier"
    }
    bias_filler {
      type: "constant"
    }
  }
}
layer {
  name: "loss"
  type: "SoftmaxWithLoss"
  bottom: "class"
  bottom: "label"
  top: "loss"
}
I1222 14:53:18.997241 18051 layer_factory.hpp:77] Creating layer mnist
I1222 14:53:18.997340 18051 db_lmdb.cpp:35] Opened lmdb /data2/xyyu/datasets/Mnist/train_RTS
I1222 14:53:18.997373 18051 net.cpp:84] Creating Layer mnist
I1222 14:53:18.997385 18051 net.cpp:380] mnist -> data
I1222 14:53:18.997411 18051 net.cpp:380] mnist -> label
I1222 14:53:18.999650 18051 data_layer.cpp:45] output data size: 256,1,42,42
I1222 14:53:19.048595 18051 net.cpp:122] Setting up mnist
I1222 14:53:19.048666 18051 net.cpp:129] Top shape: 256 1 42 42 (451584)
I1222 14:53:19.048678 18051 net.cpp:129] Top shape: 256 (256)
I1222 14:53:19.048699 18051 net.cpp:137] Memory required for data: 1807360
I1222 14:53:19.048710 18051 layer_factory.hpp:77] Creating layer data_mnist_0_split
I1222 14:53:19.048727 18051 net.cpp:84] Creating Layer data_mnist_0_split
I1222 14:53:19.048735 18051 net.cpp:406] data_mnist_0_split <- data
I1222 14:53:19.048750 18051 net.cpp:380] data_mnist_0_split -> data_mnist_0_split_0
I1222 14:53:19.048765 18051 net.cpp:380] data_mnist_0_split -> data_mnist_0_split_1
I1222 14:53:19.048858 18051 net.cpp:122] Setting up data_mnist_0_split
I1222 14:53:19.048871 18051 net.cpp:129] Top shape: 256 1 42 42 (451584)
I1222 14:53:19.048878 18051 net.cpp:129] Top shape: 256 1 42 42 (451584)
I1222 14:53:19.048883 18051 net.cpp:137] Memory required for data: 5420032
I1222 14:53:19.048889 18051 layer_factory.hpp:77] Creating layer loc_ip1
I1222 14:53:19.048902 18051 net.cpp:84] Creating Layer loc_ip1
I1222 14:53:19.048908 18051 net.cpp:406] loc_ip1 <- data_mnist_0_split_0
I1222 14:53:19.048915 18051 net.cpp:380] loc_ip1 -> loc_ip1
I1222 14:53:19.051502 18051 net.cpp:122] Setting up loc_ip1
I1222 14:53:19.051522 18051 net.cpp:129] Top shape: 256 32 (8192)
I1222 14:53:19.051527 18051 net.cpp:137] Memory required for data: 5452800
I1222 14:53:19.051547 18051 layer_factory.hpp:77] Creating layer loc_relu1
I1222 14:53:19.051560 18051 net.cpp:84] Creating Layer loc_relu1
I1222 14:53:19.051566 18051 net.cpp:406] loc_relu1 <- loc_ip1
I1222 14:53:19.051573 18051 net.cpp:367] loc_relu1 -> loc_ip1 (in-place)
I1222 14:53:19.716367 18051 net.cpp:122] Setting up loc_relu1
I1222 14:53:19.716403 18051 net.cpp:129] Top shape: 256 32 (8192)
I1222 14:53:19.716410 18051 net.cpp:137] Memory required for data: 5485568
I1222 14:53:19.716418 18051 layer_factory.hpp:77] Creating layer loc_ip2
I1222 14:53:19.716434 18051 net.cpp:84] Creating Layer loc_ip2
I1222 14:53:19.716441 18051 net.cpp:406] loc_ip2 <- loc_ip1
I1222 14:53:19.716451 18051 net.cpp:380] loc_ip2 -> loc_ip2
I1222 14:53:19.717792 18051 net.cpp:122] Setting up loc_ip2
I1222 14:53:19.717810 18051 net.cpp:129] Top shape: 256 32 (8192)
I1222 14:53:19.717818 18051 net.cpp:137] Memory required for data: 5518336
I1222 14:53:19.717830 18051 layer_factory.hpp:77] Creating layer loc_relu2
I1222 14:53:19.717840 18051 net.cpp:84] Creating Layer loc_relu2
I1222 14:53:19.717846 18051 net.cpp:406] loc_relu2 <- loc_ip2
I1222 14:53:19.717854 18051 net.cpp:367] loc_relu2 -> loc_ip2 (in-place)
I1222 14:53:19.718590 18051 net.cpp:122] Setting up loc_relu2
I1222 14:53:19.718606 18051 net.cpp:129] Top shape: 256 32 (8192)
I1222 14:53:19.718613 18051 net.cpp:137] Memory required for data: 5551104
I1222 14:53:19.718619 18051 layer_factory.hpp:77] Creating layer loc_ip3
I1222 14:53:19.718628 18051 net.cpp:84] Creating Layer loc_ip3
I1222 14:53:19.718634 18051 net.cpp:406] loc_ip3 <- loc_ip2
I1222 14:53:19.718642 18051 net.cpp:380] loc_ip3 -> loc_ip3
I1222 14:53:19.718724 18051 net.cpp:122] Setting up loc_ip3
I1222 14:53:19.718736 18051 net.cpp:129] Top shape: 256 32 (8192)
I1222 14:53:19.718742 18051 net.cpp:137] Memory required for data: 5583872
I1222 14:53:19.718752 18051 layer_factory.hpp:77] Creating layer loc_relu3
I1222 14:53:19.718760 18051 net.cpp:84] Creating Layer loc_relu3
I1222 14:53:19.718766 18051 net.cpp:406] loc_relu3 <- loc_ip3
I1222 14:53:19.718773 18051 net.cpp:367] loc_relu3 -> loc_ip3 (in-place)
I1222 14:53:19.720525 18051 net.cpp:122] Setting up loc_relu3
I1222 14:53:19.720538 18051 net.cpp:129] Top shape: 256 32 (8192)
I1222 14:53:19.720544 18051 net.cpp:137] Memory required for data: 5616640
I1222 14:53:19.720551 18051 layer_factory.hpp:77] Creating layer loc_reg
I1222 14:53:19.720559 18051 net.cpp:84] Creating Layer loc_reg
I1222 14:53:19.720566 18051 net.cpp:406] loc_reg <- loc_ip3
I1222 14:53:19.720573 18051 net.cpp:380] loc_reg -> theta
I1222 14:53:19.720749 18051 net.cpp:122] Setting up loc_reg
I1222 14:53:19.720763 18051 net.cpp:129] Top shape: 256 6 (1536)
I1222 14:53:19.720768 18051 net.cpp:137] Memory required for data: 5622784
I1222 14:53:19.720778 18051 layer_factory.hpp:77] Creating layer st_layer
I1222 14:53:19.720810 18051 net.cpp:84] Creating Layer st_layer
I1222 14:53:19.720818 18051 net.cpp:406] st_layer <- data_mnist_0_split_1
I1222 14:53:19.720824 18051 net.cpp:406] st_layer <- theta
I1222 14:53:19.720831 18051 net.cpp:380] st_layer -> st_output
I1222 14:53:19.722056 18051 net.cpp:122] Setting up st_layer
I1222 14:53:19.722070 18051 net.cpp:129] Top shape: 256 1 42 42 (451584)
I1222 14:53:19.722076 18051 net.cpp:137] Memory required for data: 7429120
I1222 14:53:19.722082 18051 layer_factory.hpp:77] Creating layer ip1
I1222 14:53:19.722091 18051 net.cpp:84] Creating Layer ip1
I1222 14:53:19.722097 18051 net.cpp:406] ip1 <- st_output
I1222 14:53:19.722105 18051 net.cpp:380] ip1 -> ip1
I1222 14:53:19.725549 18051 net.cpp:122] Setting up ip1
I1222 14:53:19.725569 18051 net.cpp:129] Top shape: 256 256 (65536)
I1222 14:53:19.725575 18051 net.cpp:137] Memory required for data: 7691264
I1222 14:53:19.725586 18051 layer_factory.hpp:77] Creating layer relu1
I1222 14:53:19.725595 18051 net.cpp:84] Creating Layer relu1
I1222 14:53:19.725601 18051 net.cpp:406] relu1 <- ip1
I1222 14:53:19.725607 18051 net.cpp:367] relu1 -> ip1 (in-place)
I1222 14:53:19.725736 18051 net.cpp:122] Setting up relu1
I1222 14:53:19.725749 18051 net.cpp:129] Top shape: 256 256 (65536)
I1222 14:53:19.725754 18051 net.cpp:137] Memory required for data: 7953408
I1222 14:53:19.725760 18051 layer_factory.hpp:77] Creating layer ip2
I1222 14:53:19.725769 18051 net.cpp:84] Creating Layer ip2
I1222 14:53:19.725775 18051 net.cpp:406] ip2 <- ip1
I1222 14:53:19.725781 18051 net.cpp:380] ip2 -> ip2
I1222 14:53:19.726214 18051 net.cpp:122] Setting up ip2
I1222 14:53:19.726225 18051 net.cpp:129] Top shape: 256 256 (65536)
I1222 14:53:19.726230 18051 net.cpp:137] Memory required for data: 8215552
I1222 14:53:19.726238 18051 layer_factory.hpp:77] Creating layer relu2
I1222 14:53:19.726245 18051 net.cpp:84] Creating Layer relu2
I1222 14:53:19.726251 18051 net.cpp:406] relu2 <- ip2
I1222 14:53:19.726258 18051 net.cpp:367] relu2 -> ip2 (in-place)
I1222 14:53:19.727161 18051 net.cpp:122] Setting up relu2
I1222 14:53:19.727179 18051 net.cpp:129] Top shape: 256 256 (65536)
I1222 14:53:19.727185 18051 net.cpp:137] Memory required for data: 8477696
I1222 14:53:19.727190 18051 layer_factory.hpp:77] Creating layer classification
I1222 14:53:19.727200 18051 net.cpp:84] Creating Layer classification
I1222 14:53:19.727205 18051 net.cpp:406] classification <- ip2
I1222 14:53:19.727212 18051 net.cpp:380] classification -> class
I1222 14:53:19.728387 18051 net.cpp:122] Setting up classification
I1222 14:53:19.728404 18051 net.cpp:129] Top shape: 256 10 (2560)
I1222 14:53:19.728410 18051 net.cpp:137] Memory required for data: 8487936
I1222 14:53:19.728418 18051 layer_factory.hpp:77] Creating layer loss
I1222 14:53:19.728430 18051 net.cpp:84] Creating Layer loss
I1222 14:53:19.728436 18051 net.cpp:406] loss <- class
I1222 14:53:19.728442 18051 net.cpp:406] loss <- label
I1222 14:53:19.728449 18051 net.cpp:380] loss -> loss
I1222 14:53:19.728466 18051 layer_factory.hpp:77] Creating layer loss
…
I1222 14:53:19.730029 18051 solver.cpp:172] Creating test net (#0) specified by net file: examples/mnist_tests/ST_FCN_RST/ST_FCN.prototxt
I1222 14:53:19.730074 18051 net.cpp:294] The NetState phase (1) differed from the phase (0) specified by a rule in layer mnist
I1222 14:53:19.730195 18051 net.cpp:51] Initializing net from parameters: 
name: "ST_FCN"
state {
  phase: TEST
}
layer {
  name: "mnist"
  type: "Data"
  top: "data"
  top: "label"
  include {
    phase: TEST
  }
  transform_param {
    scale: 0.00390625
  }
  data_param {
    source: "/data2/xyyu/datasets/Mnist/test_RTS"
    batch_size: 100
    backend: LMDB
  }
}
layer {
  name: "loc_ip1"
  type: "InnerProduct"
  bottom: "data"
  top: "loc_ip1"
  inner_product_param {
    num_output: 32
    weight_filler {
      type: "xavier"
    }
    bias_filler {
      type: "constant"
    }
  }
}
layer {
  name: "loc_relu1"
  type: "ReLU"
  bottom: "loc_ip1"
  top: "loc_ip1"
}
layer {
  name: "loc_ip2"
  type: "InnerProduct"
  bottom: "loc_ip1"
  top: "loc_ip2"
  inner_product_param {
    num_output: 32
    weight_filler {
      type: "xavier"
    }
    bias_filler {
      type: "constant"
    }
  }
}
layer {
  name: "loc_relu2"
  type: "ReLU"
  bottom: "loc_ip2"
  top: "loc_ip2"
}
layer {
  name: "loc_ip3"
  type: "InnerProduct"
  bottom: "loc_ip2"
  top: "loc_ip3"
  inner_product_param {
    num_output: 32
    weight_filler {
      type: "xavier"
    }
    bias_filler {
      type: "constant"
    }
  }
}
layer {
  name: "loc_relu3"
  type: "ReLU"
  bottom: "loc_ip3"
  top: "loc_ip3"
}
layer {
  name: "loc_reg"
  type: "InnerProduct"
  bottom: "loc_ip3"
  top: "theta"
  inner_product_param {
    num_output: 6
    weight_filler {
      type: "constant"
      value: 0
    }
    bias_filler {
      type: "file"
      file: "examples/mnist_tests/bias_init.txt"
    }
  }
}
layer {
  name: "st_layer"
  type: "SpatialTransformer"
  bottom: "data"
  bottom: "theta"
  top: "st_output"
}
layer {
  name: "ip1"
  type: "InnerProduct"
  bottom: "st_output"
  top: "ip1"
  inner_product_param {
    num_output: 256
    weight_filler {
      type: "xavier"
    }
    bias_filler {
      type: "constant"
    }
  }
}
layer {
  name: "relu1"
  type: "ReLU"
  bottom: "ip1"
  top: "ip1"
}
layer {
  name: "ip2"
  type: "InnerProduct"
  bottom: "ip1"
  top: "ip2"
  inner_product_param {
    num_output: 256
    weight_filler {
      type: "xavier"
    }
    bias_filler {
      type: "constant"
    }
  }
}
layer {
  name: "relu2"
  type: "ReLU"
  bottom: "ip2"
  top: "ip2"
}
layer {
  name: "classification"
  type: "InnerProduct"
  bottom: "ip2"
  top: "class"
  inner_product_param {
    num_output: 10
    weight_filler {
      type: "xavier"
    }
    bias_filler {
      type: "constant"
    }
  }
}
layer {
  name: "accuracy"
  type: "Accuracy"
  bottom: "class"
  bottom: "label"
  top: "accuracy"
  include {
    phase: TEST
  }
}
layer {
  name: "loss"
  type: "SoftmaxWithLoss"
  bottom: "class"
  bottom: "label"
  top: "loss"
}
I1222 14:53:19.730914 18051 layer_factory.hpp:77] Creating layer mnist
I1222 14:53:19.730983 18051 db_lmdb.cpp:35] Opened lmdb /data2/xyyu/datasets/Mnist/test_RTS
I1222 14:53:19.731006 18051 net.cpp:84] Creating Layer mnist
I1222 14:53:19.731019 18051 net.cpp:380] mnist -> data
I1222 14:53:19.731034 18051 net.cpp:380] mnist -> label
I1222 14:53:19.731113 18051 data_layer.cpp:45] output data size: 100,1,42,42
I1222 14:53:19.747664 18051 net.cpp:122] Setting up mnist
I1222 14:53:19.747684 18051 net.cpp:129] Top shape: 100 1 42 42 (176400)
I1222 14:53:19.747690 18051 net.cpp:129] Top shape: 100 (100)
I1222 14:53:19.747696 18051 net.cpp:137] Memory required for data: 706000
I1222 14:53:19.747702 18051 layer_factory.hpp:77] Creating layer data_mnist_0_split
I1222 14:53:19.747712 18051 net.cpp:84] Creating Layer data_mnist_0_split
I1222 14:53:19.747719 18051 net.cpp:406] data_mnist_0_split <- data
I1222 14:53:19.747725 18051 net.cpp:380] data_mnist_0_split -> data_mnist_0_split_0
I1222 14:53:19.747735 18051 net.cpp:380] data_mnist_0_split -> data_mnist_0_split_1
I1222 14:53:19.747803 18051 net.cpp:122] Setting up data_mnist_0_split
I1222 14:53:19.747814 18051 net.cpp:129] Top shape: 100 1 42 42 (176400)
I1222 14:53:19.747820 18051 net.cpp:129] Top shape: 100 1 42 42 (176400)
I1222 14:53:19.747825 18051 net.cpp:137] Memory required for data: 2117200
I1222 14:53:19.747831 18051 layer_factory.hpp:77] Creating layer label_mnist_1_split
I1222 14:53:19.747838 18051 net.cpp:84] Creating Layer label_mnist_1_split
I1222 14:53:19.747844 18051 net.cpp:406] label_mnist_1_split <- label
I1222 14:53:19.747850 18051 net.cpp:380] label_mnist_1_split -> label_mnist_1_split_0
I1222 14:53:19.747859 18051 net.cpp:380] label_mnist_1_split -> label_mnist_1_split_1
I1222 14:53:19.747889 18051 net.cpp:122] Setting up label_mnist_1_split
I1222 14:53:19.747898 18051 net.cpp:129] Top shape: 100 (100)
I1222 14:53:19.747905 18051 net.cpp:129] Top shape: 100 (100)
I1222 14:53:19.747908 18051 net.cpp:137] Memory required for data: 2118000
I1222 14:53:19.747915 18051 layer_factory.hpp:77] Creating layer loc_ip1
I1222 14:53:19.747922 18051 net.cpp:84] Creating Layer loc_ip1
I1222 14:53:19.747927 18051 net.cpp:406] loc_ip1 <- data_mnist_0_split_0
I1222 14:53:19.747934 18051 net.cpp:380] loc_ip1 -> loc_ip1
I1222 14:53:19.748327 18051 net.cpp:122] Setting up loc_ip1
I1222 14:53:19.748338 18051 net.cpp:129] Top shape: 100 32 (3200)
I1222 14:53:19.748343 18051 net.cpp:137] Memory required for data: 2130800
I1222 14:53:19.748354 18051 layer_factory.hpp:77] Creating layer loc_relu1
I1222 14:53:19.748363 18051 net.cpp:84] Creating Layer loc_relu1
I1222 14:53:19.748368 18051 net.cpp:406] loc_relu1 <- loc_ip1
I1222 14:53:19.748374 18051 net.cpp:367] loc_relu1 -> loc_ip1 (in-place)
I1222 14:53:19.749991 18051 net.cpp:122] Setting up loc_relu1
I1222 14:53:19.750013 18051 net.cpp:129] Top shape: 100 32 (3200)
I1222 14:53:19.750023 18051 net.cpp:137] Memory required for data: 2143600
I1222 14:53:19.750035 18051 layer_factory.hpp:77] Creating layer loc_ip2
I1222 14:53:19.750047 18051 net.cpp:84] Creating Layer loc_ip2
I1222 14:53:19.750057 18051 net.cpp:406] loc_ip2 <- loc_ip1
I1222 14:53:19.750069 18051 net.cpp:380] loc_ip2 -> loc_ip2
I1222 14:53:19.750187 18051 net.cpp:122] Setting up loc_ip2
I1222 14:53:19.750205 18051 net.cpp:129] Top shape: 100 32 (3200)
I1222 14:53:19.750214 18051 net.cpp:137] Memory required for data: 2156400
I1222 14:53:19.750229 18051 layer_factory.hpp:77] Creating layer loc_relu2
I1222 14:53:19.750242 18051 net.cpp:84] Creating Layer loc_relu2
I1222 14:53:19.750252 18051 net.cpp:406] loc_relu2 <- loc_ip2
I1222 14:53:19.750262 18051 net.cpp:367] loc_relu2 -> loc_ip2 (in-place)
I1222 14:53:19.752377 18051 net.cpp:122] Setting up loc_relu2
I1222 14:53:19.752393 18051 net.cpp:129] Top shape: 100 32 (3200)
I1222 14:53:19.752400 18051 net.cpp:137] Memory required for data: 2169200
I1222 14:53:19.752406 18051 layer_factory.hpp:77] Creating layer loc_ip3
I1222 14:53:19.752415 18051 net.cpp:84] Creating Layer loc_ip3
I1222 14:53:19.752423 18051 net.cpp:406] loc_ip3 <- loc_ip2
I1222 14:53:19.752430 18051 net.cpp:380] loc_ip3 -> loc_ip3
I1222 14:53:19.758345 18051 net.cpp:122] Setting up loc_ip3
I1222 14:53:19.758374 18051 net.cpp:129] Top shape: 100 32 (3200)
I1222 14:53:19.758383 18051 net.cpp:137] Memory required for data: 2182000
I1222 14:53:19.758395 18051 layer_factory.hpp:77] Creating layer loc_relu3
I1222 14:53:19.758406 18051 net.cpp:84] Creating Layer loc_relu3
I1222 14:53:19.758437 18051 net.cpp:406] loc_relu3 <- loc_ip3
I1222 14:53:19.758446 18051 net.cpp:367] loc_relu3 -> loc_ip3 (in-place)
I1222 14:53:19.759886 18051 net.cpp:122] Setting up loc_relu3
I1222 14:53:19.759910 18051 net.cpp:129] Top shape: 100 32 (3200)
I1222 14:53:19.759920 18051 net.cpp:137] Memory required for data: 2194800
I1222 14:53:19.759929 18051 layer_factory.hpp:77] Creating layer loc_reg
I1222 14:53:19.759944 18051 net.cpp:84] Creating Layer loc_reg
I1222 14:53:19.759953 18051 net.cpp:406] loc_reg <- loc_ip3
I1222 14:53:19.759965 18051 net.cpp:380] loc_reg -> theta
I1222 14:53:19.760171 18051 net.cpp:122] Setting up loc_reg
I1222 14:53:19.760187 18051 net.cpp:129] Top shape: 100 6 (600)
I1222 14:53:19.760196 18051 net.cpp:137] Memory required for data: 2197200
I1222 14:53:19.760208 18051 layer_factory.hpp:77] Creating layer st_layer
I1222 14:53:19.760221 18051 net.cpp:84] Creating Layer st_layer
I1222 14:53:19.760231 18051 net.cpp:406] st_layer <- data_mnist_0_split_1
I1222 14:53:19.760241 18051 net.cpp:406] st_layer <- theta
I1222 14:53:19.760251 18051 net.cpp:380] st_layer -> st_output
I1222 14:53:19.760504 18051 net.cpp:122] Setting up st_layer
I1222 14:53:19.760519 18051 net.cpp:129] Top shape: 100 1 42 42 (176400)
I1222 14:53:19.760527 18051 net.cpp:137] Memory required for data: 2902800
I1222 14:53:19.760535 18051 layer_factory.hpp:77] Creating layer ip1
I1222 14:53:19.760547 18051 net.cpp:84] Creating Layer ip1
I1222 14:53:19.760556 18051 net.cpp:406] ip1 <- st_output
I1222 14:53:19.760567 18051 net.cpp:380] ip1 -> ip1
I1222 14:53:19.766681 18051 net.cpp:122] Setting up ip1
I1222 14:53:19.766708 18051 net.cpp:129] Top shape: 100 256 (25600)
I1222 14:53:19.766723 18051 net.cpp:137] Memory required for data: 3005200
I1222 14:53:19.766741 18051 layer_factory.hpp:77] Creating layer relu1
I1222 14:53:19.766757 18051 net.cpp:84] Creating Layer relu1
I1222 14:53:19.766767 18051 net.cpp:406] relu1 <- ip1
I1222 14:53:19.766779 18051 net.cpp:367] relu1 -> ip1 (in-place)
I1222 14:53:19.766991 18051 net.cpp:122] Setting up relu1
I1222 14:53:19.767014 18051 net.cpp:129] Top shape: 100 256 (25600)
I1222 14:53:19.767022 18051 net.cpp:137] Memory required for data: 3107600
I1222 14:53:19.767031 18051 layer_factory.hpp:77] Creating layer ip2
I1222 14:53:19.767047 18051 net.cpp:84] Creating Layer ip2
I1222 14:53:19.767057 18051 net.cpp:406] ip2 <- ip1
I1222 14:53:19.767068 18051 net.cpp:380] ip2 -> ip2
I1222 14:53:19.767765 18051 net.cpp:122] Setting up ip2
I1222 14:53:19.767781 18051 net.cpp:129] Top shape: 100 256 (25600)
I1222 14:53:19.767789 18051 net.cpp:137] Memory required for data: 3210000
I1222 14:53:19.767802 18051 layer_factory.hpp:77] Creating layer relu2
I1222 14:53:19.767813 18051 net.cpp:84] Creating Layer relu2
I1222 14:53:19.767822 18051 net.cpp:406] relu2 <- ip2
I1222 14:53:19.767832 18051 net.cpp:367] relu2 -> ip2 (in-place)
I1222 14:53:19.768324 18051 net.cpp:122] Setting up relu2
I1222 14:53:19.768342 18051 net.cpp:129] Top shape: 100 256 (25600)
I1222 14:53:19.768350 18051 net.cpp:137] Memory required for data: 3312400
I1222 14:53:19.768359 18051 layer_factory.hpp:77] Creating layer classification
I1222 14:53:19.768371 18051 net.cpp:84] Creating Layer classification
I1222 14:53:19.768380 18051 net.cpp:406] classification <- ip2
I1222 14:53:19.768391 18051 net.cpp:380] classification -> class
I1222 14:53:19.768538 18051 net.cpp:122] Setting up classification
I1222 14:53:19.768553 18051 net.cpp:129] Top shape: 100 10 (1000)
I1222 14:53:19.768561 18051 net.cpp:137] Memory required for data: 3316400
I1222 14:53:19.768573 18051 layer_factory.hpp:77] Creating layer class_classification_0_split
I1222 14:53:19.768586 18051 net.cpp:84] Creating Layer class_classification_0_split
I1222 14:53:19.768595 18051 net.cpp:406] class_classification_0_split <- class
I1222 14:53:19.768605 18051 net.cpp:380] class_classification_0_split -> class_classification_0_split_0
I1222 14:53:19.768617 18051 net.cpp:380] class_classification_0_split -> class_classification_0_split_1
I1222 14:53:19.768682 18051 net.cpp:122] Setting up class_classification_0_split
I1222 14:53:19.768695 18051 net.cpp:129] Top shape: 100 10 (1000)
I1222 14:53:19.768704 18051 net.cpp:129] Top shape: 100 10 (1000)
I1222 14:53:19.768712 18051 net.cpp:137] Memory required for data: 3324400
I1222 14:53:19.768720 18051 layer_factory.hpp:77] Creating layer accuracy
I1222 14:53:19.768733 18051 net.cpp:84] Creating Layer accuracy
I1222 14:53:19.768741 18051 net.cpp:406] accuracy <- class_classification_0_split_0
I1222 14:53:19.768751 18051 net.cpp:406] accuracy <- label_mnist_1_split_0
I1222 14:53:19.768761 18051 net.cpp:380] accuracy -> accuracy
…
