…
I1214 11:19:55.112901 26675 net.cpp:51] Initializing net from parameters: 
name: "P3DSTN-IsoGDNet"
state {
  phase: TRAIN
  level: 0
  stage: ""
}
layer {
  name: "data"
  type: "TridimData"
  top: "data"
  top: "label"
  include {
    phase: TRAIN
  }
  transform_param {
    mirror: true
    crop_size: 120
    mean_value: 128
    mean_value: 128
    mean_value: 128
  }
  tridim_data_param {
    source: "/data2/xyyu/datasets/train_4.lst"
    batch_size: 10
    shuffle: false
    new_height: 120
    new_width: 160
    root_folder: ""
    new_length: 10
    show_data: false
    use_image: true
  }
}
layer {
  name: "loc_conv1"
  type: "Convolution"
  bottom: "data"
  top: "loc_conv1"
  param {
    lr_mult: 1
    decay_mult: 1
  }
  convolution_param {
    num_output: 64
    bias_term: false
    pad: 0
    pad: 3
    pad: 3
    kernel_size: 1
    kernel_size: 7
    kernel_size: 7
    stride: 1
    stride: 2
    stride: 2
    weight_filler {
      type: "gaussian"
      std: 0.001
    }
    engine: CAFFE
  }
}
layer {
  name: "loc_bn_conv1"
  type: "BN"
  bottom: "loc_conv1"
  top: "loc_bn_conv1"
  param {
    lr_mult: 1
    decay_mult: 0
  }
  param {
    lr_mult: 1
    decay_mult: 0
  }
  param {
    lr_mult: 0
  }
  param {
    lr_mult: 0
  }
  bn_param {
    slope_filler {
      type: "constant"
      value: 1
    }
    bias_filler {
      type: "constant"
      value: 0
    }
    frozen: false
  }
}
layer {
  name: "loc_conv1_relu"
  type: "ReLU"
  bottom: "loc_bn_conv1"
  top: "loc_bn_conv1"
  relu_param {
    engine: CAFFE
  }
}
layer {
  name: "loc_pool1"
  type: "Pooling3D"
  bottom: "loc_bn_conv1"
  top: "loc_pool1"
  pooling3d_param {
    pool: MAX
    pad: 0
    kernel_size: 3
    stride: 2
    pad_l: 0
    kernel_l: 2
    stride_l: 2
  }
}
layer {
  name: "loc_res2a_branch1"
  type: "Convolution"
  bottom: "loc_pool1"
  top: "loc_res2a_branch1"
  param {
    lr_mult: 1
    decay_mult: 1
  }
  convolution_param {
    num_output: 256
    bias_term: false
    pad: 0
    pad: 0
    pad: 0
    kernel_size: 1
    kernel_size: 1
    kernel_size: 1
    stride: 1
    stride: 1
    stride: 1
    weight_filler {
      type: "gaussian"
      std: 0.001
    }
    engine: CAFFE
  }
}
layer {
  name: "loc_bn2a_branch1"
  type: "BN"
  bottom: "loc_res2a_branch1"
  top: "loc_bn2a_branch1"
  param {
    lr_mult: 1
    decay_mult: 0
  }
  param {
    lr_mult: 1
    decay_mult: 0
  }
  param {
    lr_mult: 0
  }
  param {
    lr_mult: 0
  }
  bn_param {
    slope_filler {
      type: "constant"
      value: 1
    }
    bias_filler {
      type: "constant"
      value: 0
    }
    frozen: true
  }
}
layer {
  name: "loc_res2a_branch2a"
  type: "Convolution"
  bottom: "loc_pool1"
  top: "loc_res2a_branch2a"
  param {
    lr_mult: 1
    decay_mult: 1
  }
  convolution_param {
    num_output: 64
    bias_term: false
    pad: 0
    pad: 0
    pad: 0
    kernel_size: 1
    kernel_size: 1
    kernel_size: 1
    stride: 1
    stride: 1
    stride: 1
    weight_filler {
      type: "gaussian"
      std: 0.001
    }
    engine: CAFFE
  }
}
layer {
  name: "loc_bn2a_branch2a"
  type: "BN"
  bottom: "loc_res2a_branch2a"
  top: "loc_bn2a_branch2a"
  param {
    lr_mult: 1
    decay_mult: 0
  }
  param {
    lr_mult: 1
    decay_mult: 0
  }
  param {
    lr_mult: 0
  }
  param {
    lr_mult: 0
  }
  bn_param {
    slope_filler {
      type: "constant"
      value: 1
    }
    bias_filler {
      type: "constant"
      value: 0
    }
    frozen: true
  }
}
layer {
  name: "loc_res2a_branch2a_relu"
  type: "ReLU"
  bottom: "loc_bn2a_branch2a"
  top: "loc_bn2a_branch2a"
  relu_param {
    engine: CAFFE
  }
}
layer {
  name: "loc_res2a_branch2b"
  type: "Convolution"
  bottom: "loc_bn2a_branch2a"
  top: "loc_res2a_branch2b"
  param {
    lr_mult: 1
    decay_mult: 1
  }
  convolution_param {
    num_output: 64
    bias_term: false
    pad: 0
    pad: 1
    pad: 1
    kernel_size: 1
    kernel_size: 3
    kernel_size: 3
    stride: 1
    stride: 1
    stride: 1
    weight_filler {
      type: "gaussian"
      std: 0.001
    }
    engine: CAFFE
  }
}
layer {
  name: "loc_bn2a_branch2b"
  type: "BN"
  bottom: "loc_res2a_branch2b"
  top: "loc_bn2a_branch2b"
  param {
    lr_mult: 1
    decay_mult: 0
  }
  param {
    lr_mult: 1
    decay_mult: 0
  }
  param {
    lr_mult: 0
  }
  param {
    lr_mult: 0
  }
  bn_param {
    slope_filler {
      type: "constant"
      value: 1
    }
    bias_filler {
      type: "constant"
      value: 0
    }
    frozen: true
  }
}
layer {
  name: "loc_res2a_branch2b_relu"
  type: "ReLU"
  bottom: "loc_bn2a_branch2b"
  top: "loc_bn2a_branch2b"
  relu_param {
    engine: CAFFE
  }
}
layer {
  name: "loc_res2a_branch2b_t"
  type: "Convolution"
  bottom: "loc_bn2a_branch2b"
  top: "loc_res2a_branch2b_t"
  param {
    lr_mult: 1
    decay_mult: 1
  }
  convolution_param {
    num_output: 64
    bias_term: false
    pad: 1
    pad: 0
    pad: 0
    kernel_size: 3
    kernel_size: 1
    kernel_size: 1
    stride: 1
    stride: 1
    stride: 1
    weight_filler {
      type: "gaussian"
      std: 0.001
    }
    engine: CAFFE
  }
}
layer {
  name: "loc_bn2a_branch2b_t"
  type: "BN"
  bottom: "loc_res2a_branch2b_t"
  top: "loc_bn2a_branch2b_t"
  param {
    lr_mult: 1
    decay_mult: 0
  }
  param {
    lr_mult: 1
    decay_mult: 0
  }
  param {
    lr_mult: 0
  }
  param {
    lr_mult: 0
  }
  bn_param {
    slope_filler {
      type: "constant"
      value: 1
    }
    bias_filler {
      type: "constant"
      value: 0
    }
    frozen: true
  }
}
layer {
  name: "loc_res2a_branch2b_t_relu"
  type: "ReLU"
  bottom: "loc_bn2a_branch2b_t"
  top: "loc_bn2a_branch2b_t"
  relu_param {
    engine: CAFFE
  }
}
layer {
  name: "loc_res2a_branch2c"
  type: "Convolution"
  bottom: "loc_bn2a_branch2b_t"
  top: "loc_res2a_branch2c"
  param {
    lr_mult: 1
    decay_mult: 1
  }
  convolution_param {
    num_output: 256
    bias_term: false
    pad: 0
    pad: 0
    pad: 0
    kernel_size: 1
    kernel_size: 1
    kernel_size: 1
    stride: 1
    stride: 1
    stride: 1
    weight_filler {
      type: "gaussian"
      std: 0.001
    }
    engine: CAFFE
  }
}
layer {
  name: "loc_bn2a_branch2c"
  type: "BN"
  bottom: "loc_res2a_branch2c"
  top: "loc_bn2a_branch2c"
  param {
    lr_mult: 1
    decay_mult: 0
  }
  param {
    lr_mult: 1
    decay_mult: 0
  }
  param {
    lr_mult: 0
  }
  param {
    lr_mult: 0
  }
  bn_param {
    slope_filler {
      type: "constant"
      value: 1
    }
    bias_filler {
      type: "constant"
      value: 0
    }
    frozen: true
  }
}
layer {
  name: "loc_res2a"
  type: "Eltwise"
  bottom: "loc_bn2a_branch1"
  bottom: "loc_bn2a_branch2c"
  top: "loc_res2a"
  eltwise_param {
    operation: SUM
  }
}
layer {
  name: "loc_res2a_relu"
  type: "ReLU"
  bottom: "loc_res2a"
  top: "loc_res2a"
  relu_param {
    engine: CAFFE
  }
}
layer {
  name: "loc_pool2"
  type: "Pooling3D"
  bottom: "loc_res2a"
  top: "loc_pool2"
  pooling3d_param {
    pool: MAX
    pad: 0
    kernel_size: 1
    stride: 1
    pad_l: 0
    kernel_l: 2
    stride_l: 2
  }
}
layer {
  name: "loc_ip1"
  type: "InnerProduct"
  bottom: "loc_pool2"
  top: "loc_ip1"
  param {
    lr_mult: 10
    decay_mult: 1
  }
  param {
    lr_mult: 20
    decay_mult: 0
  }
  inner_product_param {
    num_output: 64
    weight_filler {
      type: "gaussian"
      std: 0.001
    }
    bias_filler {
      type: "constant"
      value: 0
    }
  }
}
layer {
  name: "loc_relu1"
  type: "ReLU"
  bottom: "loc_ip1"
  top: "loc_ip1"
}
layer {
  name: "loc_ip2"
  type: "InnerProduct"
  bottom: "loc_ip1"
  top: "theta"
  param {
    lr_mult: 10
    decay_mult: 1
  }
  param {
    lr_mult: 12
    decay_mult: 0
  }
  inner_product_param {
    num_output: 12
    weight_filler {
      type: "constant"
      value: 0
    }
    bias_filler {
      type: "file"
      file: "examples/mnist_tests/bias_init.txt"
    }
  }
}
layer {
  name: "trist_layer"
  type: "TridimSpatialTransformer"
  bottom: "data"
  bottom: "theta"
  top: "trist_output"
}
layer {
  name: "conv1"
  type: "Convolution"
  bottom: "trist_output"
  top: "conv1"
  param {
    lr_mult: 1
    decay_mult: 1
  }
  convolution_param {
    num_output: 64
    bias_term: false
    pad: 0
    pad: 3
    pad: 3
    kernel_size: 1
    kernel_size: 7
    kernel_size: 7
    stride: 1
    stride: 2
    stride: 2
    weight_filler {
      type: "gaussian"
      std: 0.001
    }
    engine: CAFFE
  }
}
layer {
  name: "bn_conv1"
  type: "BN"
  bottom: "conv1"
  top: "bn_conv1"
  param {
    lr_mult: 1
    decay_mult: 0
  }
  param {
    lr_mult: 1
    decay_mult: 0
  }
  param {
    lr_mult: 0
  }
  param {
    lr_mult: 0
  }
  bn_param {
    slope_filler {
      type: "constant"
      value: 1
    }
    bias_filler {
      type: "constant"
      value: 0
    }
    frozen: false
  }
}
layer {
  name: "conv1_relu"
  type: "ReLU"
  bottom: "bn_conv1"
  top: "bn_conv1"
  relu_param {
    engine: CAFFE
  }
}
layer {
  name: "pool1"
  type: "Pooling3D"
  bottom: "bn_conv1"
  top: "pool1"
  pooling3d_param {
    pool: MAX
    pad: 0
    kernel_size: 3
    stride: 2
    pad_l: 0
    kernel_l: 2
    stride_l: 2
  }
}
layer {
  name: "res2a_branch1"
  type: "Convolution"
  bottom: "pool1"
  top: "res2a_branch1"
  param {
    lr_mult: 1
    decay_mult: 1
  }
  convolution_param {
    num_output: 256
    bias_term: false
    pad: 0
    pad: 0
    pad: 0
    kernel_size: 1
    kernel_size: 1
    kernel_size: 1
    stride: 1
    stride: 1
    stride: 1
    weight_filler {
      type: "gaussian"
      std: 0.001
    }
    engine: CAFFE
  }
}
layer {
  name: "bn2a_branch1"
  type: "BN"
  bottom: "res2a_branch1"
  top: "bn2a_branch1"
  param {
    lr_mult: 1
    decay_mult: 0
  }
  param {
    lr_mult: 1
    decay_mult: 0
  }
  param {
    lr_mult: 0
  }
  param {
    lr_mult: 0
  }
  bn_param {
    slope_filler {
      type: "constant"
      value: 1
    }
    bias_filler {
      type: "constant"
      value: 0
    }
    frozen: true
  }
}
layer {
  name: "res2a_branch2a"
  type: "Convolution"
  bottom: "pool1"
  top: "res2a_branch2a"
  param {
    lr_mult: 1
    decay_mult: 1
  }
  convolution_param {
    num_output: 64
    bias_term: false
    pad: 0
    pad: 0
    pad: 0
    kernel_size: 1
    kernel_size: 1
    kernel_size: 1
    stride: 1
    stride: 1
    stride: 1
    weight_filler {
      type: "gaussian"
      std: 0.001
    }
    engine: CAFFE
  }
}
layer {
  name: "bn2a_branch2a"
  type: "BN"
  bottom: "res2a_branch2a"
  top: "bn2a_branch2a"
  param {
    lr_mult: 1
    decay_mult: 0
  }
  param {
    lr_mult: 1
    decay_mult: 0
  }
  param {
    lr_mult: 0
  }
  param {
    lr_mult: 0
  }
  bn_param {
    slope_filler {
      type: "constant"
      value: 1
    }
    bias_filler {
      type: "constant"
      value: 0
    }
    frozen: true
  }
}
layer {
  name: "res2a_branch2a_relu"
  type: "ReLU"
  bottom: "bn2a_branch2a"
  top: "bn2a_branch2a"
  relu_param {
    engine: CAFFE
  }
}
layer {
  name: "res2a_branch2b"
  type: "Convolution"
  bottom: "bn2a_branch2a"
  top: "res2a_branch2b"
  param {
    lr_mult: 1
    decay_mult: 1
  }
  convolution_param {
    num_output: 64
    bias_term: false
    pad: 0
    pad: 1
    pad: 1
    kernel_size: 1
    kernel_size: 3
    kernel_size: 3
    stride: 1
    stride: 1
    stride: 1
    weight_filler {
      type: "gaussian"
      std: 0.001
    }
    engine: CAFFE
  }
}
layer {
  name: "bn2a_branch2b"
  type: "BN"
  bottom: "res2a_branch2b"
  top: "bn2a_branch2b"
  param {
    lr_mult: 1
    decay_mult: 0
  }
  param {
    lr_mult: 1
    decay_mult: 0
  }
  param {
    lr_mult: 0
  }
  param {
    lr_mult: 0
  }
  bn_param {
    slope_filler {
      type: "constant"
      value: 1
    }
    bias_filler {
      type: "constant"
      value: 0
    }
    frozen: true
  }
}
layer {
  name: "res2a_branch2b_relu"
  type: "ReLU"
  bottom: "bn2a_branch2b"
  top: "bn2a_branch2b"
  relu_param {
    engine: CAFFE
  }
}
layer {
  name: "res2a_branch2b_t"
  type: "Convolution"
  bottom: "bn2a_branch2b"
  top: "res2a_branch2b_t"
  param {
    lr_mult: 1
    decay_mult: 1
  }
  convolution_param {
    num_output: 64
    bias_term: false
    pad: 1
    pad: 0
    pad: 0
    kernel_size: 3
    kernel_size: 1
    kernel_size: 1
    stride: 1
    stride: 1
    stride: 1
    weight_filler {
      type: "gaussian"
      std: 0.001
    }
    engine: CAFFE
  }
}
layer {
  name: "bn2a_branch2b_t"
  type: "BN"
  bottom: "res2a_branch2b_t"
  top: "bn2a_branch2b_t"
  param {
    lr_mult: 1
    decay_mult: 0
  }
  param {
    lr_mult: 1
    decay_mult: 0
  }
  param {
    lr_mult: 0
  }
  param {
    lr_mult: 0
  }
  bn_param {
    slope_filler {
      type: "constant"
      value: 1
    }
    bias_filler {
      type: "constant"
      value: 0
    }
    frozen: true
  }
}
layer {
  name: "res2a_branch2b_t_relu"
  type: "ReLU"
  bottom: "bn2a_branch2b_t"
  top: "bn2a_branch2b_t"
  relu_param {
    engine: CAFFE
  }
}
layer {
  name: "res2a_branch2c"
  type: "Convolution"
  bottom: "bn2a_branch2b_t"
  top: "res2a_branch2c"
  param {
    lr_mult: 1
    decay_mult: 1
  }
  convolution_param {
    num_output: 256
    bias_term: false
    pad: 0
    pad: 0
    pad: 0
    kernel_size: 1
    kernel_size: 1
    kernel_size: 1
    stride: 1
    stride: 1
    stride: 1
    weight_filler {
      type: "gaussian"
      std: 0.001
    }
    engine: CAFFE
  }
}
layer {
  name: "bn2a_branch2c"
  type: "BN"
  bottom: "res2a_branch2c"
  top: "bn2a_branch2c"
  param {
    lr_mult: 1
    decay_mult: 0
  }
  param {
    lr_mult: 1
    decay_mult: 0
  }
  param {
    lr_mult: 0
  }
  param {
    lr_mult: 0
  }
  bn_param {
    slope_filler {
      type: "constant"
      value: 1
    }
    bias_filler {
      type: "constant"
      value: 0
    }
    frozen: true
  }
}
layer {
  name: "res2a"
  type: "Eltwise"
  bottom: "bn2a_branch1"
  bottom: "bn2a_branch2c"
  top: "res2a"
  eltwise_param {
    operation: SUM
  }
}
layer {
  name: "res2a_relu"
  type: "ReLU"
  bottom: "res2a"
  top: "res2a"
  relu_param {
    engine: CAFFE
  }
}
layer {
  name: "pool2"
  type: "Pooling3D"
  bottom: "res2a"
  top: "pool2"
  pooling3d_param {
    pool: MAX
    pad: 0
    kernel_size: 1
    stride: 1
    pad_l: 0
    kernel_l: 2
    stride_l: 2
  }
}
layer {
  name: "ip1"
  type: "InnerProduct"
  bottom: "pool2"
  top: "ip1"
  param {
    lr_mult: 10
    decay_mult: 1
  }
  param {
    lr_mult: 20
    decay_mult: 0
  }
  inner_product_param {
    num_output: 3
    weight_filler {
      type: "gaussian"
      std: 0.001
    }
    bias_filler {
      type: "constant"
      value: 0
    }
  }
}
layer {
  name: "loss"
  type: "SoftmaxWithLoss"
  bottom: "ip1"
  bottom: "label"
  top: "loss"
}
I1214 11:19:55.116564 26675 layer_factory.hpp:77] Creating layer data
I1214 11:19:55.116619 26675 net.cpp:84] Creating Layer data
I1214 11:19:55.116638 26675 net.cpp:380] data -> data
I1214 11:19:55.116675 26675 net.cpp:380] data -> label
I1214 11:19:55.117221 26675 tridim_data_layer.cpp:67] Opening file /data2/xyyu/datasets/train_4.lst
I1214 11:19:55.129736 26675 tridim_data_layer.cpp:140] A total of 20698 tridim chunks.
I1214 11:19:55.136677 26675 tridim_data_layer.cpp:182] output data size: 10,3,10,120,120
I1214 11:19:55.183267 26675 net.cpp:122] Setting up data
I1214 11:19:55.183322 26675 net.cpp:129] Top shape: 10 3 10 120 120 (4320000)
I1214 11:19:55.183338 26675 net.cpp:129] Top shape: 10 (10)
I1214 11:19:55.183388 26675 net.cpp:137] Memory required for data: 17280040
I1214 11:19:55.183406 26675 layer_factory.hpp:77] Creating layer data_data_0_split
I1214 11:19:55.183432 26675 net.cpp:84] Creating Layer data_data_0_split
I1214 11:19:55.183450 26675 net.cpp:406] data_data_0_split <- data
I1214 11:19:55.183475 26675 net.cpp:380] data_data_0_split -> data_data_0_split_0
I1214 11:19:55.183498 26675 net.cpp:380] data_data_0_split -> data_data_0_split_1
I1214 11:19:55.183567 26675 net.cpp:122] Setting up data_data_0_split
I1214 11:19:55.183585 26675 net.cpp:129] Top shape: 10 3 10 120 120 (4320000)
I1214 11:19:55.183598 26675 net.cpp:129] Top shape: 10 3 10 120 120 (4320000)
I1214 11:19:55.183609 26675 net.cpp:137] Memory required for data: 51840040
I1214 11:19:55.183619 26675 layer_factory.hpp:77] Creating layer loc_conv1
I1214 11:19:55.183645 26675 net.cpp:84] Creating Layer loc_conv1
I1214 11:19:55.183666 26675 net.cpp:406] loc_conv1 <- data_data_0_split_0
I1214 11:19:55.183681 26675 net.cpp:380] loc_conv1 -> loc_conv1
I1214 11:19:55.185385 26675 net.cpp:122] Setting up loc_conv1
I1214 11:19:55.185417 26675 net.cpp:129] Top shape: 10 64 10 60 60 (23040000)
I1214 11:19:55.185431 26675 net.cpp:137] Memory required for data: 144000040
I1214 11:19:55.185456 26675 layer_factory.hpp:77] Creating layer loc_bn_conv1
I1214 11:19:55.185480 26675 net.cpp:84] Creating Layer loc_bn_conv1
I1214 11:19:55.185492 26675 net.cpp:406] loc_bn_conv1 <- loc_conv1
I1214 11:19:55.185506 26675 net.cpp:380] loc_bn_conv1 -> loc_bn_conv1
I1214 11:19:55.186866 26675 net.cpp:122] Setting up loc_bn_conv1
I1214 11:19:55.186895 26675 net.cpp:129] Top shape: 10 64 10 60 60 (23040000)
I1214 11:19:55.186914 26675 net.cpp:137] Memory required for data: 236160040
I1214 11:19:55.186940 26675 layer_factory.hpp:77] Creating layer loc_conv1_relu
I1214 11:19:55.186964 26675 net.cpp:84] Creating Layer loc_conv1_relu
I1214 11:19:55.186976 26675 net.cpp:406] loc_conv1_relu <- loc_bn_conv1
I1214 11:19:55.186990 26675 net.cpp:367] loc_conv1_relu -> loc_bn_conv1 (in-place)
I1214 11:19:55.187010 26675 net.cpp:122] Setting up loc_conv1_relu
I1214 11:19:55.187023 26675 net.cpp:129] Top shape: 10 64 10 60 60 (23040000)
I1214 11:19:55.187034 26675 net.cpp:137] Memory required for data: 328320040
I1214 11:19:55.187045 26675 layer_factory.hpp:77] Creating layer loc_pool1
I1214 11:19:55.187062 26675 net.cpp:84] Creating Layer loc_pool1
I1214 11:19:55.187075 26675 net.cpp:406] loc_pool1 <- loc_bn_conv1
I1214 11:19:55.187088 26675 net.cpp:380] loc_pool1 -> loc_pool1
I1214 11:19:55.187153 26675 net.cpp:122] Setting up loc_pool1
I1214 11:19:55.187173 26675 net.cpp:129] Top shape: 10 64 5 30 30 (2880000)
I1214 11:19:55.187185 26675 net.cpp:137] Memory required for data: 339840040
I1214 11:19:55.187194 26675 layer_factory.hpp:77] Creating layer loc_pool1_loc_pool1_0_split
I1214 11:19:55.187207 26675 net.cpp:84] Creating Layer loc_pool1_loc_pool1_0_split
I1214 11:19:55.187218 26675 net.cpp:406] loc_pool1_loc_pool1_0_split <- loc_pool1
I1214 11:19:55.187230 26675 net.cpp:380] loc_pool1_loc_pool1_0_split -> loc_pool1_loc_pool1_0_split_0
I1214 11:19:55.187244 26675 net.cpp:380] loc_pool1_loc_pool1_0_split -> loc_pool1_loc_pool1_0_split_1
I1214 11:19:55.187290 26675 net.cpp:122] Setting up loc_pool1_loc_pool1_0_split
I1214 11:19:55.187309 26675 net.cpp:129] Top shape: 10 64 5 30 30 (2880000)
I1214 11:19:55.187322 26675 net.cpp:129] Top shape: 10 64 5 30 30 (2880000)
I1214 11:19:55.187332 26675 net.cpp:137] Memory required for data: 362880040
I1214 11:19:55.187342 26675 layer_factory.hpp:77] Creating layer loc_res2a_branch1
I1214 11:19:55.187361 26675 net.cpp:84] Creating Layer loc_res2a_branch1
I1214 11:19:55.187376 26675 net.cpp:406] loc_res2a_branch1 <- loc_pool1_loc_pool1_0_split_0
I1214 11:19:55.187389 26675 net.cpp:380] loc_res2a_branch1 -> loc_res2a_branch1
I1214 11:19:55.188132 26675 net.cpp:122] Setting up loc_res2a_branch1
I1214 11:19:55.188150 26675 net.cpp:129] Top shape: 10 256 5 30 30 (11520000)
I1214 11:19:55.188161 26675 net.cpp:137] Memory required for data: 408960040
I1214 11:19:55.188204 26675 layer_factory.hpp:77] Creating layer loc_bn2a_branch1
I1214 11:19:55.188223 26675 net.cpp:84] Creating Layer loc_bn2a_branch1
I1214 11:19:55.188235 26675 net.cpp:406] loc_bn2a_branch1 <- loc_res2a_branch1
I1214 11:19:55.188249 26675 net.cpp:380] loc_bn2a_branch1 -> loc_bn2a_branch1
I1214 11:19:55.188463 26675 net.cpp:122] Setting up loc_bn2a_branch1
I1214 11:19:55.188482 26675 net.cpp:129] Top shape: 10 256 5 30 30 (11520000)
I1214 11:19:55.188493 26675 net.cpp:137] Memory required for data: 455040040
I1214 11:19:55.188511 26675 layer_factory.hpp:77] Creating layer loc_res2a_branch2a
I1214 11:19:55.188530 26675 net.cpp:84] Creating Layer loc_res2a_branch2a
I1214 11:19:55.188542 26675 net.cpp:406] loc_res2a_branch2a <- loc_pool1_loc_pool1_0_split_1
I1214 11:19:55.188555 26675 net.cpp:380] loc_res2a_branch2a -> loc_res2a_branch2a
I1214 11:19:55.189986 26675 net.cpp:122] Setting up loc_res2a_branch2a
I1214 11:19:55.190014 26675 net.cpp:129] Top shape: 10 64 5 30 30 (2880000)
I1214 11:19:55.190026 26675 net.cpp:137] Memory required for data: 466560040
I1214 11:19:55.190040 26675 layer_factory.hpp:77] Creating layer loc_bn2a_branch2a
I1214 11:19:55.190058 26675 net.cpp:84] Creating Layer loc_bn2a_branch2a
I1214 11:19:55.190071 26675 net.cpp:406] loc_bn2a_branch2a <- loc_res2a_branch2a
I1214 11:19:55.190086 26675 net.cpp:380] loc_bn2a_branch2a -> loc_bn2a_branch2a
I1214 11:19:55.192911 26675 net.cpp:122] Setting up loc_bn2a_branch2a
I1214 11:19:55.192939 26675 net.cpp:129] Top shape: 10 64 5 30 30 (2880000)
I1214 11:19:55.192950 26675 net.cpp:137] Memory required for data: 478080040
I1214 11:19:55.192967 26675 layer_factory.hpp:77] Creating layer loc_res2a_branch2a_relu
I1214 11:19:55.192983 26675 net.cpp:84] Creating Layer loc_res2a_branch2a_relu
I1214 11:19:55.192994 26675 net.cpp:406] loc_res2a_branch2a_relu <- loc_bn2a_branch2a
I1214 11:19:55.193007 26675 net.cpp:367] loc_res2a_branch2a_relu -> loc_bn2a_branch2a (in-place)
I1214 11:19:55.193023 26675 net.cpp:122] Setting up loc_res2a_branch2a_relu
I1214 11:19:55.193037 26675 net.cpp:129] Top shape: 10 64 5 30 30 (2880000)
I1214 11:19:55.193045 26675 net.cpp:137] Memory required for data: 489600040
I1214 11:19:55.193055 26675 layer_factory.hpp:77] Creating layer loc_res2a_branch2b
I1214 11:19:55.193073 26675 net.cpp:84] Creating Layer loc_res2a_branch2b
I1214 11:19:55.193084 26675 net.cpp:406] loc_res2a_branch2b <- loc_bn2a_branch2a
I1214 11:19:55.193097 26675 net.cpp:380] loc_res2a_branch2b -> loc_res2a_branch2b
I1214 11:19:55.194545 26675 net.cpp:122] Setting up loc_res2a_branch2b
I1214 11:19:55.194567 26675 net.cpp:129] Top shape: 10 64 5 30 30 (2880000)
I1214 11:19:55.194577 26675 net.cpp:137] Memory required for data: 501120040
I1214 11:19:55.194591 26675 layer_factory.hpp:77] Creating layer loc_bn2a_branch2b
I1214 11:19:55.194607 26675 net.cpp:84] Creating Layer loc_bn2a_branch2b
I1214 11:19:55.194618 26675 net.cpp:406] loc_bn2a_branch2b <- loc_res2a_branch2b
I1214 11:19:55.194631 26675 net.cpp:380] loc_bn2a_branch2b -> loc_bn2a_branch2b
I1214 11:19:55.194871 26675 net.cpp:122] Setting up loc_bn2a_branch2b
I1214 11:19:55.194890 26675 net.cpp:129] Top shape: 10 64 5 30 30 (2880000)
I1214 11:19:55.194900 26675 net.cpp:137] Memory required for data: 512640040
I1214 11:19:55.194936 26675 layer_factory.hpp:77] Creating layer loc_res2a_branch2b_relu
I1214 11:19:55.194953 26675 net.cpp:84] Creating Layer loc_res2a_branch2b_relu
I1214 11:19:55.194965 26675 net.cpp:406] loc_res2a_branch2b_relu <- loc_bn2a_branch2b
I1214 11:19:55.194977 26675 net.cpp:367] loc_res2a_branch2b_relu -> loc_bn2a_branch2b (in-place)
I1214 11:19:55.194993 26675 net.cpp:122] Setting up loc_res2a_branch2b_relu
I1214 11:19:55.195005 26675 net.cpp:129] Top shape: 10 64 5 30 30 (2880000)
I1214 11:19:55.195015 26675 net.cpp:137] Memory required for data: 524160040
I1214 11:19:55.195025 26675 layer_factory.hpp:77] Creating layer loc_res2a_branch2b_t
I1214 11:19:55.195041 26675 net.cpp:84] Creating Layer loc_res2a_branch2b_t
I1214 11:19:55.195051 26675 net.cpp:406] loc_res2a_branch2b_t <- loc_bn2a_branch2b
I1214 11:19:55.195098 26675 net.cpp:380] loc_res2a_branch2b_t -> loc_res2a_branch2b_t
I1214 11:19:55.195710 26675 net.cpp:122] Setting up loc_res2a_branch2b_t
I1214 11:19:55.195729 26675 net.cpp:129] Top shape: 10 64 5 30 30 (2880000)
I1214 11:19:55.195739 26675 net.cpp:137] Memory required for data: 535680040
I1214 11:19:55.195750 26675 layer_factory.hpp:77] Creating layer loc_bn2a_branch2b_t
I1214 11:19:55.195767 26675 net.cpp:84] Creating Layer loc_bn2a_branch2b_t
I1214 11:19:55.195778 26675 net.cpp:406] loc_bn2a_branch2b_t <- loc_res2a_branch2b_t
I1214 11:19:55.195791 26675 net.cpp:380] loc_bn2a_branch2b_t -> loc_bn2a_branch2b_t
I1214 11:19:55.196025 26675 net.cpp:122] Setting up loc_bn2a_branch2b_t
I1214 11:19:55.196044 26675 net.cpp:129] Top shape: 10 64 5 30 30 (2880000)
I1214 11:19:55.196054 26675 net.cpp:137] Memory required for data: 547200040
I1214 11:19:55.196069 26675 layer_factory.hpp:77] Creating layer loc_res2a_branch2b_t_relu
I1214 11:19:55.196084 26675 net.cpp:84] Creating Layer loc_res2a_branch2b_t_relu
I1214 11:19:55.196094 26675 net.cpp:406] loc_res2a_branch2b_t_relu <- loc_bn2a_branch2b_t
I1214 11:19:55.196105 26675 net.cpp:367] loc_res2a_branch2b_t_relu -> loc_bn2a_branch2b_t (in-place)
I1214 11:19:55.196118 26675 net.cpp:122] Setting up loc_res2a_branch2b_t_relu
I1214 11:19:55.196131 26675 net.cpp:129] Top shape: 10 64 5 30 30 (2880000)
I1214 11:19:55.196141 26675 net.cpp:137] Memory required for data: 558720040
I1214 11:19:55.196151 26675 layer_factory.hpp:77] Creating layer loc_res2a_branch2c
I1214 11:19:55.196166 26675 net.cpp:84] Creating Layer loc_res2a_branch2c
I1214 11:19:55.196175 26675 net.cpp:406] loc_res2a_branch2c <- loc_bn2a_branch2b_t
I1214 11:19:55.196188 26675 net.cpp:380] loc_res2a_branch2c -> loc_res2a_branch2c
I1214 11:19:55.196929 26675 net.cpp:122] Setting up loc_res2a_branch2c
I1214 11:19:55.196949 26675 net.cpp:129] Top shape: 10 256 5 30 30 (11520000)
I1214 11:19:55.196959 26675 net.cpp:137] Memory required for data: 604800040
I1214 11:19:55.196970 26675 layer_factory.hpp:77] Creating layer loc_bn2a_branch2c
I1214 11:19:55.196985 26675 net.cpp:84] Creating Layer loc_bn2a_branch2c
I1214 11:19:55.196995 26675 net.cpp:406] loc_bn2a_branch2c <- loc_res2a_branch2c
I1214 11:19:55.197010 26675 net.cpp:380] loc_bn2a_branch2c -> loc_bn2a_branch2c
I1214 11:19:55.197223 26675 net.cpp:122] Setting up loc_bn2a_branch2c
I1214 11:19:55.197240 26675 net.cpp:129] Top shape: 10 256 5 30 30 (11520000)
I1214 11:19:55.197252 26675 net.cpp:137] Memory required for data: 650880040
I1214 11:19:55.197266 26675 layer_factory.hpp:77] Creating layer loc_res2a
I1214 11:19:55.197284 26675 net.cpp:84] Creating Layer loc_res2a
I1214 11:19:55.197295 26675 net.cpp:406] loc_res2a <- loc_bn2a_branch1
I1214 11:19:55.197306 26675 net.cpp:406] loc_res2a <- loc_bn2a_branch2c
I1214 11:19:55.197319 26675 net.cpp:380] loc_res2a -> loc_res2a
I1214 11:19:55.197357 26675 net.cpp:122] Setting up loc_res2a
I1214 11:19:55.197373 26675 net.cpp:129] Top shape: 10 256 5 30 30 (11520000)
I1214 11:19:55.197382 26675 net.cpp:137] Memory required for data: 696960040
I1214 11:19:55.197392 26675 layer_factory.hpp:77] Creating layer loc_res2a_relu
I1214 11:19:55.197404 26675 net.cpp:84] Creating Layer loc_res2a_relu
I1214 11:19:55.197414 26675 net.cpp:406] loc_res2a_relu <- loc_res2a
I1214 11:19:55.197427 26675 net.cpp:367] loc_res2a_relu -> loc_res2a (in-place)
I1214 11:19:55.197439 26675 net.cpp:122] Setting up loc_res2a_relu
I1214 11:19:55.197451 26675 net.cpp:129] Top shape: 10 256 5 30 30 (11520000)
I1214 11:19:55.197460 26675 net.cpp:137] Memory required for data: 743040040
I1214 11:19:55.197469 26675 layer_factory.hpp:77] Creating layer loc_pool2
I1214 11:19:55.197482 26675 net.cpp:84] Creating Layer loc_pool2
I1214 11:19:55.197492 26675 net.cpp:406] loc_pool2 <- loc_res2a
I1214 11:19:55.197504 26675 net.cpp:380] loc_pool2 -> loc_pool2
I1214 11:19:55.197547 26675 net.cpp:122] Setting up loc_pool2
I1214 11:19:55.197562 26675 net.cpp:129] Top shape: 10 256 3 30 30 (6912000)
I1214 11:19:55.197589 26675 net.cpp:137] Memory required for data: 770688040
I1214 11:19:55.197600 26675 layer_factory.hpp:77] Creating layer loc_ip1
I1214 11:19:55.197618 26675 net.cpp:84] Creating Layer loc_ip1
I1214 11:19:55.197628 26675 net.cpp:406] loc_ip1 <- loc_pool2
I1214 11:19:55.197640 26675 net.cpp:380] loc_ip1 -> loc_ip1
I1214 11:19:56.728148 26675 net.cpp:122] Setting up loc_ip1
I1214 11:19:56.728199 26675 net.cpp:129] Top shape: 10 64 (640)
I1214 11:19:56.728211 26675 net.cpp:137] Memory required for data: 770690600
I1214 11:19:56.728231 26675 layer_factory.hpp:77] Creating layer loc_relu1
I1214 11:19:56.728250 26675 net.cpp:84] Creating Layer loc_relu1
I1214 11:19:56.728261 26675 net.cpp:406] loc_relu1 <- loc_ip1
I1214 11:19:56.728276 26675 net.cpp:367] loc_relu1 -> loc_ip1 (in-place)
I1214 11:19:57.629202 26675 net.cpp:122] Setting up loc_relu1
I1214 11:19:57.629279 26675 net.cpp:129] Top shape: 10 64 (640)
I1214 11:19:57.629294 26675 net.cpp:137] Memory required for data: 770693160
I1214 11:19:57.629309 26675 layer_factory.hpp:77] Creating layer loc_ip2
I1214 11:19:57.629336 26675 net.cpp:84] Creating Layer loc_ip2
I1214 11:19:57.629351 26675 net.cpp:406] loc_ip2 <- loc_ip1
I1214 11:19:57.629371 26675 net.cpp:380] loc_ip2 -> theta
I1214 11:19:57.631664 26675 net.cpp:122] Setting up loc_ip2
I1214 11:19:57.631726 26675 net.cpp:129] Top shape: 10 12 (120)
I1214 11:19:57.631739 26675 net.cpp:137] Memory required for data: 770693640
I1214 11:19:57.631783 26675 layer_factory.hpp:77] Creating layer trist_layer
I1214 11:19:57.631821 26675 net.cpp:84] Creating Layer trist_layer
I1214 11:19:57.631837 26675 net.cpp:406] trist_layer <- data_data_0_split_1
I1214 11:19:57.631853 26675 net.cpp:406] trist_layer <- theta
I1214 11:19:57.631867 26675 net.cpp:380] trist_layer -> trist_output
I1214 11:19:57.638592 26675 net.cpp:122] Setting up trist_layer
I1214 11:19:57.638633 26675 net.cpp:129] Top shape: 10 3 10 120 120 (4320000)
I1214 11:19:57.638645 26675 net.cpp:137] Memory required for data: 787973640
I1214 11:19:57.638659 26675 layer_factory.hpp:77] Creating layer conv1
I1214 11:19:57.638684 26675 net.cpp:84] Creating Layer conv1
I1214 11:19:57.638697 26675 net.cpp:406] conv1 <- trist_output
I1214 11:19:57.638715 26675 net.cpp:380] conv1 -> conv1
I1214 11:19:57.639266 26675 net.cpp:122] Setting up conv1
I1214 11:19:57.639289 26675 net.cpp:129] Top shape: 10 64 10 60 60 (23040000)
I1214 11:19:57.639300 26675 net.cpp:137] Memory required for data: 880133640
I1214 11:19:57.639314 26675 layer_factory.hpp:77] Creating layer bn_conv1
I1214 11:19:57.639333 26675 net.cpp:84] Creating Layer bn_conv1
I1214 11:19:57.639343 26675 net.cpp:406] bn_conv1 <- conv1
I1214 11:19:57.639358 26675 net.cpp:380] bn_conv1 -> bn_conv1
I1214 11:19:57.639655 26675 net.cpp:122] Setting up bn_conv1
I1214 11:19:57.639674 26675 net.cpp:129] Top shape: 10 64 10 60 60 (23040000)
I1214 11:19:57.639685 26675 net.cpp:137] Memory required for data: 972293640
I1214 11:19:57.639701 26675 layer_factory.hpp:77] Creating layer conv1_relu
I1214 11:19:57.639716 26675 net.cpp:84] Creating Layer conv1_relu
I1214 11:19:57.639727 26675 net.cpp:406] conv1_relu <- bn_conv1
I1214 11:19:57.639739 26675 net.cpp:367] conv1_relu -> bn_conv1 (in-place)
I1214 11:19:57.639753 26675 net.cpp:122] Setting up conv1_relu
I1214 11:19:57.639766 26675 net.cpp:129] Top shape: 10 64 10 60 60 (23040000)
I1214 11:19:57.639775 26675 net.cpp:137] Memory required for data: 1064453640
I1214 11:19:57.639786 26675 layer_factory.hpp:77] Creating layer pool1
I1214 11:19:57.639799 26675 net.cpp:84] Creating Layer pool1
I1214 11:19:57.639809 26675 net.cpp:406] pool1 <- bn_conv1
I1214 11:19:57.639822 26675 net.cpp:380] pool1 -> pool1
I1214 11:19:57.639875 26675 net.cpp:122] Setting up pool1
I1214 11:19:57.639891 26675 net.cpp:129] Top shape: 10 64 5 30 30 (2880000)
I1214 11:19:57.639901 26675 net.cpp:137] Memory required for data: 1075973640
I1214 11:19:57.639911 26675 layer_factory.hpp:77] Creating layer pool1_pool1_0_split
I1214 11:19:57.639925 26675 net.cpp:84] Creating Layer pool1_pool1_0_split
I1214 11:19:57.639963 26675 net.cpp:406] pool1_pool1_0_split <- pool1
I1214 11:19:57.639977 26675 net.cpp:380] pool1_pool1_0_split -> pool1_pool1_0_split_0
I1214 11:19:57.639992 26675 net.cpp:380] pool1_pool1_0_split -> pool1_pool1_0_split_1
I1214 11:19:57.640039 26675 net.cpp:122] Setting up pool1_pool1_0_split
I1214 11:19:57.640055 26675 net.cpp:129] Top shape: 10 64 5 30 30 (2880000)
I1214 11:19:57.640067 26675 net.cpp:129] Top shape: 10 64 5 30 30 (2880000)
I1214 11:19:57.640077 26675 net.cpp:137] Memory required for data: 1099013640
I1214 11:19:57.640087 26675 layer_factory.hpp:77] Creating layer res2a_branch1
I1214 11:19:57.640110 26675 net.cpp:84] Creating Layer res2a_branch1
I1214 11:19:57.640121 26675 net.cpp:406] res2a_branch1 <- pool1_pool1_0_split_0
I1214 11:19:57.640135 26675 net.cpp:380] res2a_branch1 -> res2a_branch1
I1214 11:19:57.640899 26675 net.cpp:122] Setting up res2a_branch1
I1214 11:19:57.640919 26675 net.cpp:129] Top shape: 10 256 5 30 30 (11520000)
I1214 11:19:57.640929 26675 net.cpp:137] Memory required for data: 1145093640
I1214 11:19:57.640943 26675 layer_factory.hpp:77] Creating layer bn2a_branch1
I1214 11:19:57.640959 26675 net.cpp:84] Creating Layer bn2a_branch1
I1214 11:19:57.640969 26675 net.cpp:406] bn2a_branch1 <- res2a_branch1
I1214 11:19:57.640982 26675 net.cpp:380] bn2a_branch1 -> bn2a_branch1
I1214 11:19:57.641223 26675 net.cpp:122] Setting up bn2a_branch1
I1214 11:19:57.641240 26675 net.cpp:129] Top shape: 10 256 5 30 30 (11520000)
I1214 11:19:57.641252 26675 net.cpp:137] Memory required for data: 1191173640
I1214 11:19:57.641266 26675 layer_factory.hpp:77] Creating layer res2a_branch2a
I1214 11:19:57.641283 26675 net.cpp:84] Creating Layer res2a_branch2a
I1214 11:19:57.641295 26675 net.cpp:406] res2a_branch2a <- pool1_pool1_0_split_1
I1214 11:19:57.641309 26675 net.cpp:380] res2a_branch2a -> res2a_branch2a
I1214 11:19:57.641652 26675 net.cpp:122] Setting up res2a_branch2a
I1214 11:19:57.641669 26675 net.cpp:129] Top shape: 10 64 5 30 30 (2880000)
I1214 11:19:57.641680 26675 net.cpp:137] Memory required for data: 1202693640
I1214 11:19:57.641692 26675 layer_factory.hpp:77] Creating layer bn2a_branch2a
I1214 11:19:57.641707 26675 net.cpp:84] Creating Layer bn2a_branch2a
I1214 11:19:57.641718 26675 net.cpp:406] bn2a_branch2a <- res2a_branch2a
I1214 11:19:57.641731 26675 net.cpp:380] bn2a_branch2a -> bn2a_branch2a
I1214 11:19:57.641995 26675 net.cpp:122] Setting up bn2a_branch2a
I1214 11:19:57.642014 26675 net.cpp:129] Top shape: 10 64 5 30 30 (2880000)
I1214 11:19:57.642024 26675 net.cpp:137] Memory required for data: 1214213640
I1214 11:19:57.642040 26675 layer_factory.hpp:77] Creating layer res2a_branch2a_relu
I1214 11:19:57.642053 26675 net.cpp:84] Creating Layer res2a_branch2a_relu
I1214 11:19:57.642065 26675 net.cpp:406] res2a_branch2a_relu <- bn2a_branch2a
I1214 11:19:57.642076 26675 net.cpp:367] res2a_branch2a_relu -> bn2a_branch2a (in-place)
I1214 11:19:57.642091 26675 net.cpp:122] Setting up res2a_branch2a_relu
I1214 11:19:57.642102 26675 net.cpp:129] Top shape: 10 64 5 30 30 (2880000)
I1214 11:19:57.642112 26675 net.cpp:137] Memory required for data: 1225733640
I1214 11:19:57.642122 26675 layer_factory.hpp:77] Creating layer res2a_branch2b
I1214 11:19:57.642138 26675 net.cpp:84] Creating Layer res2a_branch2b
I1214 11:19:57.642148 26675 net.cpp:406] res2a_branch2b <- bn2a_branch2a
I1214 11:19:57.642160 26675 net.cpp:380] res2a_branch2b -> res2a_branch2b
I1214 11:19:57.643623 26675 net.cpp:122] Setting up res2a_branch2b
I1214 11:19:57.643645 26675 net.cpp:129] Top shape: 10 64 5 30 30 (2880000)
I1214 11:19:57.643656 26675 net.cpp:137] Memory required for data: 1237253640
I1214 11:19:57.643668 26675 layer_factory.hpp:77] Creating layer bn2a_branch2b
I1214 11:19:57.643682 26675 net.cpp:84] Creating Layer bn2a_branch2b
I1214 11:19:57.643693 26675 net.cpp:406] bn2a_branch2b <- res2a_branch2b
I1214 11:19:57.643707 26675 net.cpp:380] bn2a_branch2b -> bn2a_branch2b
I1214 11:19:57.643965 26675 net.cpp:122] Setting up bn2a_branch2b
I1214 11:19:57.643982 26675 net.cpp:129] Top shape: 10 64 5 30 30 (2880000)
I1214 11:19:57.644019 26675 net.cpp:137] Memory required for data: 1248773640
I1214 11:19:57.644037 26675 layer_factory.hpp:77] Creating layer res2a_branch2b_relu
I1214 11:19:57.644050 26675 net.cpp:84] Creating Layer res2a_branch2b_relu
I1214 11:19:57.644062 26675 net.cpp:406] res2a_branch2b_relu <- bn2a_branch2b
I1214 11:19:57.644073 26675 net.cpp:367] res2a_branch2b_relu -> bn2a_branch2b (in-place)
I1214 11:19:57.644088 26675 net.cpp:122] Setting up res2a_branch2b_relu
I1214 11:19:57.644099 26675 net.cpp:129] Top shape: 10 64 5 30 30 (2880000)
I1214 11:19:57.644109 26675 net.cpp:137] Memory required for data: 1260293640
I1214 11:19:57.644119 26675 layer_factory.hpp:77] Creating layer res2a_branch2b_t
I1214 11:19:57.644134 26675 net.cpp:84] Creating Layer res2a_branch2b_t
I1214 11:19:57.644145 26675 net.cpp:406] res2a_branch2b_t <- bn2a_branch2b
I1214 11:19:57.644157 26675 net.cpp:380] res2a_branch2b_t -> res2a_branch2b_t
I1214 11:19:57.644783 26675 net.cpp:122] Setting up res2a_branch2b_t
I1214 11:19:57.644801 26675 net.cpp:129] Top shape: 10 64 5 30 30 (2880000)
I1214 11:19:57.644812 26675 net.cpp:137] Memory required for data: 1271813640
I1214 11:19:57.644824 26675 layer_factory.hpp:77] Creating layer bn2a_branch2b_t
I1214 11:19:57.644839 26675 net.cpp:84] Creating Layer bn2a_branch2b_t
I1214 11:19:57.644850 26675 net.cpp:406] bn2a_branch2b_t <- res2a_branch2b_t
I1214 11:19:57.644862 26675 net.cpp:380] bn2a_branch2b_t -> bn2a_branch2b_t
I1214 11:19:57.645118 26675 net.cpp:122] Setting up bn2a_branch2b_t
I1214 11:19:57.645135 26675 net.cpp:129] Top shape: 10 64 5 30 30 (2880000)
I1214 11:19:57.645145 26675 net.cpp:137] Memory required for data: 1283333640
I1214 11:19:57.645160 26675 layer_factory.hpp:77] Creating layer res2a_branch2b_t_relu
I1214 11:19:57.645174 26675 net.cpp:84] Creating Layer res2a_branch2b_t_relu
I1214 11:19:57.645184 26675 net.cpp:406] res2a_branch2b_t_relu <- bn2a_branch2b_t
I1214 11:19:57.645195 26675 net.cpp:367] res2a_branch2b_t_relu -> bn2a_branch2b_t (in-place)
I1214 11:19:57.645210 26675 net.cpp:122] Setting up res2a_branch2b_t_relu
I1214 11:19:57.645221 26675 net.cpp:129] Top shape: 10 64 5 30 30 (2880000)
I1214 11:19:57.645231 26675 net.cpp:137] Memory required for data: 1294853640
I1214 11:19:57.645241 26675 layer_factory.hpp:77] Creating layer res2a_branch2c
I1214 11:19:57.645256 26675 net.cpp:84] Creating Layer res2a_branch2c
I1214 11:19:57.645265 26675 net.cpp:406] res2a_branch2c <- bn2a_branch2b_t
I1214 11:19:57.645278 26675 net.cpp:380] res2a_branch2c -> res2a_branch2c
I1214 11:19:57.646039 26675 net.cpp:122] Setting up res2a_branch2c
I1214 11:19:57.646057 26675 net.cpp:129] Top shape: 10 256 5 30 30 (11520000)
I1214 11:19:57.646067 26675 net.cpp:137] Memory required for data: 1340933640
I1214 11:19:57.646080 26675 layer_factory.hpp:77] Creating layer bn2a_branch2c
I1214 11:19:57.646095 26675 net.cpp:84] Creating Layer bn2a_branch2c
I1214 11:19:57.646106 26675 net.cpp:406] bn2a_branch2c <- res2a_branch2c
I1214 11:19:57.646118 26675 net.cpp:380] bn2a_branch2c -> bn2a_branch2c
I1214 11:19:57.646356 26675 net.cpp:122] Setting up bn2a_branch2c
I1214 11:19:57.646373 26675 net.cpp:129] Top shape: 10 256 5 30 30 (11520000)
I1214 11:19:57.646384 26675 net.cpp:137] Memory required for data: 1387013640
I1214 11:19:57.646399 26675 layer_factory.hpp:77] Creating layer res2a
I1214 11:19:57.646414 26675 net.cpp:84] Creating Layer res2a
I1214 11:19:57.646425 26675 net.cpp:406] res2a <- bn2a_branch1
I1214 11:19:57.646436 26675 net.cpp:406] res2a <- bn2a_branch2c
I1214 11:19:57.646448 26675 net.cpp:380] res2a -> res2a
I1214 11:19:57.646483 26675 net.cpp:122] Setting up res2a
I1214 11:19:57.646494 26675 net.cpp:129] Top shape: 10 256 5 30 30 (11520000)
I1214 11:19:57.646509 26675 net.cpp:137] Memory required for data: 1433093640
I1214 11:19:57.646519 26675 layer_factory.hpp:77] Creating layer res2a_relu
I1214 11:19:57.646531 26675 net.cpp:84] Creating Layer res2a_relu
I1214 11:19:57.646541 26675 net.cpp:406] res2a_relu <- res2a
I1214 11:19:57.646553 26675 net.cpp:367] res2a_relu -> res2a (in-place)
I1214 11:19:57.646584 26675 net.cpp:122] Setting up res2a_relu
I1214 11:19:57.646596 26675 net.cpp:129] Top shape: 10 256 5 30 30 (11520000)
I1214 11:19:57.646606 26675 net.cpp:137] Memory required for data: 1479173640
I1214 11:19:57.646615 26675 layer_factory.hpp:77] Creating layer pool2
I1214 11:19:57.646630 26675 net.cpp:84] Creating Layer pool2
I1214 11:19:57.646639 26675 net.cpp:406] pool2 <- res2a
I1214 11:19:57.646651 26675 net.cpp:380] pool2 -> pool2
I1214 11:19:57.646700 26675 net.cpp:122] Setting up pool2
I1214 11:19:57.646716 26675 net.cpp:129] Top shape: 10 256 3 30 30 (6912000)
I1214 11:19:57.646726 26675 net.cpp:137] Memory required for data: 1506821640
I1214 11:19:57.646736 26675 layer_factory.hpp:77] Creating layer ip1
I1214 11:19:57.646751 26675 net.cpp:84] Creating Layer ip1
I1214 11:19:57.646762 26675 net.cpp:406] ip1 <- pool2
I1214 11:19:57.646775 26675 net.cpp:380] ip1 -> ip1
I1214 11:19:57.719301 26675 net.cpp:122] Setting up ip1
I1214 11:19:57.719348 26675 net.cpp:129] Top shape: 10 3 (30)
I1214 11:19:57.719362 26675 net.cpp:137] Memory required for data: 1506821760
I1214 11:19:57.719395 26675 layer_factory.hpp:77] Creating layer loss
I1214 11:19:57.719425 26675 net.cpp:84] Creating Layer loss
I1214 11:19:57.719439 26675 net.cpp:406] loss <- ip1
I1214 11:19:57.719454 26675 net.cpp:406] loss <- label
I1214 11:19:57.719470 26675 net.cpp:380] loss -> loss
I1214 11:19:57.719497 26675 layer_factory.hpp:77] Creating layer loss
…
I1214 11:19:57.725999 26675 net.cpp:51] Initializing net from parameters: 
name: "P3DSTN-IsoGDNet"
state {
  phase: TEST
}
layer {
  name: "data"
  type: "TridimData"
  top: "data"
  top: "label"
  include {
    phase: TEST
  }
  transform_param {
    mirror: false
    crop_size: 120
    mean_value: 128
    mean_value: 128
    mean_value: 128
  }
  tridim_data_param {
    source: "/data2/xyyu/datasets/train_4.lst"
    batch_size: 10
    shuffle: false
    new_height: 120
    new_width: 160
    root_folder: ""
    new_length: 10
    show_data: false
    use_image: true
  }
}
layer {
  name: "loc_conv1"
  type: "Convolution"
  bottom: "data"
  top: "loc_conv1"
  param {
    lr_mult: 1
    decay_mult: 1
  }
  convolution_param {
    num_output: 64
    bias_term: false
    pad: 0
    pad: 3
    pad: 3
    kernel_size: 1
    kernel_size: 7
    kernel_size: 7
    stride: 1
    stride: 2
    stride: 2
    weight_filler {
      type: "gaussian"
      std: 0.001
    }
    engine: CAFFE
  }
}
layer {
  name: "loc_bn_conv1"
  type: "BN"
  bottom: "loc_conv1"
  top: "loc_bn_conv1"
  param {
    lr_mult: 1
    decay_mult: 0
  }
  param {
    lr_mult: 1
    decay_mult: 0
  }
  param {
    lr_mult: 0
  }
  param {
    lr_mult: 0
  }
  bn_param {
    slope_filler {
      type: "constant"
      value: 1
    }
    bias_filler {
      type: "constant"
      value: 0
    }
    frozen: false
  }
}
layer {
  name: "loc_conv1_relu"
  type: "ReLU"
  bottom: "loc_bn_conv1"
  top: "loc_bn_conv1"
  relu_param {
    engine: CAFFE
  }
}
layer {
  name: "loc_pool1"
  type: "Pooling3D"
  bottom: "loc_bn_conv1"
  top: "loc_pool1"
  pooling3d_param {
    pool: MAX
    pad: 0
    kernel_size: 3
    stride: 2
    pad_l: 0
    kernel_l: 2
    stride_l: 2
  }
}
layer {
  name: "loc_res2a_branch1"
  type: "Convolution"
  bottom: "loc_pool1"
  top: "loc_res2a_branch1"
  param {
    lr_mult: 1
    decay_mult: 1
  }
  convolution_param {
    num_output: 256
    bias_term: false
    pad: 0
    pad: 0
    pad: 0
    kernel_size: 1
    kernel_size: 1
    kernel_size: 1
    stride: 1
    stride: 1
    stride: 1
    weight_filler {
      type: "gaussian"
      std: 0.001
    }
    engine: CAFFE
  }
}
layer {
  name: "loc_bn2a_branch1"
  type: "BN"
  bottom: "loc_res2a_branch1"
  top: "loc_bn2a_branch1"
  param {
    lr_mult: 1
    decay_mult: 0
  }
  param {
    lr_mult: 1
    decay_mult: 0
  }
  param {
    lr_mult: 0
  }
  param {
    lr_mult: 0
  }
  bn_param {
    slope_filler {
      type: "constant"
      value: 1
    }
    bias_filler {
      type: "constant"
      value: 0
    }
    frozen: true
  }
}
layer {
  name: "loc_res2a_branch2a"
  type: "Convolution"
  bottom: "loc_pool1"
  top: "loc_res2a_branch2a"
  param {
    lr_mult: 1
    decay_mult: 1
  }
  convolution_param {
    num_output: 64
    bias_term: false
    pad: 0
    pad: 0
    pad: 0
    kernel_size: 1
    kernel_size: 1
    kernel_size: 1
    stride: 1
    stride: 1
    stride: 1
    weight_filler {
      type: "gaussian"
      std: 0.001
    }
    engine: CAFFE
  }
}
layer {
  name: "loc_bn2a_branch2a"
  type: "BN"
  bottom: "loc_res2a_branch2a"
  top: "loc_bn2a_branch2a"
  param {
    lr_mult: 1
    decay_mult: 0
  }
  param {
    lr_mult: 1
    decay_mult: 0
  }
  param {
    lr_mult: 0
  }
  param {
    lr_mult: 0
  }
  bn_param {
    slope_filler {
      type: "constant"
      value: 1
    }
    bias_filler {
      type: "constant"
      value: 0
    }
    frozen: true
  }
}
layer {
  name: "loc_res2a_branch2a_relu"
  type: "ReLU"
  bottom: "loc_bn2a_branch2a"
  top: "loc_bn2a_branch2a"
  relu_param {
    engine: CAFFE
  }
}
layer {
  name: "loc_res2a_branch2b"
  type: "Convolution"
  bottom: "loc_bn2a_branch2a"
  top: "loc_res2a_branch2b"
  param {
    lr_mult: 1
    decay_mult: 1
  }
  convolution_param {
    num_output: 64
    bias_term: false
    pad: 0
    pad: 1
    pad: 1
    kernel_size: 1
    kernel_size: 3
    kernel_size: 3
    stride: 1
    stride: 1
    stride: 1
    weight_filler {
      type: "gaussian"
      std: 0.001
    }
    engine: CAFFE
  }
}
layer {
  name: "loc_bn2a_branch2b"
  type: "BN"
  bottom: "loc_res2a_branch2b"
  top: "loc_bn2a_branch2b"
  param {
    lr_mult: 1
    decay_mult: 0
  }
  param {
    lr_mult: 1
    decay_mult: 0
  }
  param {
    lr_mult: 0
  }
  param {
    lr_mult: 0
  }
  bn_param {
    slope_filler {
      type: "constant"
      value: 1
    }
    bias_filler {
      type: "constant"
      value: 0
    }
    frozen: true
  }
}
layer {
  name: "loc_res2a_branch2b_relu"
  type: "ReLU"
  bottom: "loc_bn2a_branch2b"
  top: "loc_bn2a_branch2b"
  relu_param {
    engine: CAFFE
  }
}
layer {
  name: "loc_res2a_branch2b_t"
  type: "Convolution"
  bottom: "loc_bn2a_branch2b"
  top: "loc_res2a_branch2b_t"
  param {
    lr_mult: 1
    decay_mult: 1
  }
  convolution_param {
    num_output: 64
    bias_term: false
    pad: 1
    pad: 0
    pad: 0
    kernel_size: 3
    kernel_size: 1
    kernel_size: 1
    stride: 1
    stride: 1
    stride: 1
    weight_filler {
      type: "gaussian"
      std: 0.001
    }
    engine: CAFFE
  }
}
layer {
  name: "loc_bn2a_branch2b_t"
  type: "BN"
  bottom: "loc_res2a_branch2b_t"
  top: "loc_bn2a_branch2b_t"
  param {
    lr_mult: 1
    decay_mult: 0
  }
  param {
    lr_mult: 1
    decay_mult: 0
  }
  param {
    lr_mult: 0
  }
  param {
    lr_mult: 0
  }
  bn_param {
    slope_filler {
      type: "constant"
      value: 1
    }
    bias_filler {
      type: "constant"
      value: 0
    }
    frozen: true
  }
}
layer {
  name: "loc_res2a_branch2b_t_relu"
  type: "ReLU"
  bottom: "loc_bn2a_branch2b_t"
  top: "loc_bn2a_branch2b_t"
  relu_param {
    engine: CAFFE
  }
}
layer {
  name: "loc_res2a_branch2c"
  type: "Convolution"
  bottom: "loc_bn2a_branch2b_t"
  top: "loc_res2a_branch2c"
  param {
    lr_mult: 1
    decay_mult: 1
  }
  convolution_param {
    num_output: 256
    bias_term: false
    pad: 0
    pad: 0
    pad: 0
    kernel_size: 1
    kernel_size: 1
    kernel_size: 1
    stride: 1
    stride: 1
    stride: 1
    weight_filler {
      type: "gaussian"
      std: 0.001
    }
    engine: CAFFE
  }
}
layer {
  name: "loc_bn2a_branch2c"
  type: "BN"
  bottom: "loc_res2a_branch2c"
  top: "loc_bn2a_branch2c"
  param {
    lr_mult: 1
    decay_mult: 0
  }
  param {
    lr_mult: 1
    decay_mult: 0
  }
  param {
    lr_mult: 0
  }
  param {
    lr_mult: 0
  }
  bn_param {
    slope_filler {
      type: "constant"
      value: 1
    }
    bias_filler {
      type: "constant"
      value: 0
    }
    frozen: true
  }
}
layer {
  name: "loc_res2a"
  type: "Eltwise"
  bottom: "loc_bn2a_branch1"
  bottom: "loc_bn2a_branch2c"
  top: "loc_res2a"
  eltwise_param {
    operation: SUM
  }
}
layer {
  name: "loc_res2a_relu"
  type: "ReLU"
  bottom: "loc_res2a"
  top: "loc_res2a"
  relu_param {
    engine: CAFFE
  }
}
layer {
  name: "loc_pool2"
  type: "Pooling3D"
  bottom: "loc_res2a"
  top: "loc_pool2"
  pooling3d_param {
    pool: MAX
    pad: 0
    kernel_size: 1
    stride: 1
    pad_l: 0
    kernel_l: 2
    stride_l: 2
  }
}
layer {
  name: "loc_ip1"
  type: "InnerProduct"
  bottom: "loc_pool2"
  top: "loc_ip1"
  param {
    lr_mult: 10
    decay_mult: 1
  }
  param {
    lr_mult: 20
    decay_mult: 0
  }
  inner_product_param {
    num_output: 64
    weight_filler {
      type: "gaussian"
      std: 0.001
    }
    bias_filler {
      type: "constant"
      value: 0
    }
  }
}
layer {
  name: "loc_relu1"
  type: "ReLU"
  bottom: "loc_ip1"
  top: "loc_ip1"
}
layer {
  name: "loc_ip2"
  type: "InnerProduct"
  bottom: "loc_ip1"
  top: "theta"
  param {
    lr_mult: 10
    decay_mult: 1
  }
  param {
    lr_mult: 12
    decay_mult: 0
  }
  inner_product_param {
    num_output: 12
    weight_filler {
      type: "constant"
      value: 0
    }
    bias_filler {
      type: "file"
      file: "examples/mnist_tests/bias_init.txt"
    }
  }
}
layer {
  name: "trist_layer"
  type: "TridimSpatialTransformer"
  bottom: "data"
  bottom: "theta"
  top: "trist_output"
}
layer {
  name: "conv1"
  type: "Convolution"
  bottom: "trist_output"
  top: "conv1"
  param {
    lr_mult: 1
    decay_mult: 1
  }
  convolution_param {
    num_output: 64
    bias_term: false
    pad: 0
    pad: 3
    pad: 3
    kernel_size: 1
    kernel_size: 7
    kernel_size: 7
    stride: 1
    stride: 2
    stride: 2
    weight_filler {
      type: "gaussian"
      std: 0.001
    }
    engine: CAFFE
  }
}
layer {
  name: "bn_conv1"
  type: "BN"
  bottom: "conv1"
  top: "bn_conv1"
  param {
    lr_mult: 1
    decay_mult: 0
  }
  param {
    lr_mult: 1
    decay_mult: 0
  }
  param {
    lr_mult: 0
  }
  param {
    lr_mult: 0
  }
  bn_param {
    slope_filler {
      type: "constant"
      value: 1
    }
    bias_filler {
      type: "constant"
      value: 0
    }
    frozen: false
  }
}
layer {
  name: "conv1_relu"
  type: "ReLU"
  bottom: "bn_conv1"
  top: "bn_conv1"
  relu_param {
    engine: CAFFE
  }
}
layer {
  name: "pool1"
  type: "Pooling3D"
  bottom: "bn_conv1"
  top: "pool1"
  pooling3d_param {
    pool: MAX
    pad: 0
    kernel_size: 3
    stride: 2
    pad_l: 0
    kernel_l: 2
    stride_l: 2
  }
}
layer {
  name: "res2a_branch1"
  type: "Convolution"
  bottom: "pool1"
  top: "res2a_branch1"
  param {
    lr_mult: 1
    decay_mult: 1
  }
  convolution_param {
    num_output: 256
    bias_term: false
    pad: 0
    pad: 0
    pad: 0
    kernel_size: 1
    kernel_size: 1
    kernel_size: 1
    stride: 1
    stride: 1
    stride: 1
    weight_filler {
      type: "gaussian"
      std: 0.001
    }
    engine: CAFFE
  }
}
layer {
  name: "bn2a_branch1"
  type: "BN"
  bottom: "res2a_branch1"
  top: "bn2a_branch1"
  param {
    lr_mult: 1
    decay_mult: 0
  }
  param {
    lr_mult: 1
    decay_mult: 0
  }
  param {
    lr_mult: 0
  }
  param {
    lr_mult: 0
  }
  bn_param {
    slope_filler {
      type: "constant"
      value: 1
    }
    bias_filler {
      type: "constant"
      value: 0
    }
    frozen: true
  }
}
layer {
  name: "res2a_branch2a"
  type: "Convolution"
  bottom: "pool1"
  top: "res2a_branch2a"
  param {
    lr_mult: 1
    decay_mult: 1
  }
  convolution_param {
    num_output: 64
    bias_term: false
    pad: 0
    pad: 0
    pad: 0
    kernel_size: 1
    kernel_size: 1
    kernel_size: 1
    stride: 1
    stride: 1
    stride: 1
    weight_filler {
      type: "gaussian"
      std: 0.001
    }
    engine: CAFFE
  }
}
layer {
  name: "bn2a_branch2a"
  type: "BN"
  bottom: "res2a_branch2a"
  top: "bn2a_branch2a"
  param {
    lr_mult: 1
    decay_mult: 0
  }
  param {
    lr_mult: 1
    decay_mult: 0
  }
  param {
    lr_mult: 0
  }
  param {
    lr_mult: 0
  }
  bn_param {
    slope_filler {
      type: "constant"
      value: 1
    }
    bias_filler {
      type: "constant"
      value: 0
    }
    frozen: true
  }
}
layer {
  name: "res2a_branch2a_relu"
  type: "ReLU"
  bottom: "bn2a_branch2a"
  top: "bn2a_branch2a"
  relu_param {
    engine: CAFFE
  }
}
layer {
  name: "res2a_branch2b"
  type: "Convolution"
  bottom: "bn2a_branch2a"
  top: "res2a_branch2b"
  param {
    lr_mult: 1
    decay_mult: 1
  }
  convolution_param {
    num_output: 64
    bias_term: false
    pad: 0
    pad: 1
    pad: 1
    kernel_size: 1
    kernel_size: 3
    kernel_size: 3
    stride: 1
    stride: 1
    stride: 1
    weight_filler {
      type: "gaussian"
      std: 0.001
    }
    engine: CAFFE
  }
}
layer {
  name: "bn2a_branch2b"
  type: "BN"
  bottom: "res2a_branch2b"
  top: "bn2a_branch2b"
  param {
    lr_mult: 1
    decay_mult: 0
  }
  param {
    lr_mult: 1
    decay_mult: 0
  }
  param {
    lr_mult: 0
  }
  param {
    lr_mult: 0
  }
  bn_param {
    slope_filler {
      type: "constant"
      value: 1
    }
    bias_filler {
      type: "constant"
      value: 0
    }
    frozen: true
  }
}
layer {
  name: "res2a_branch2b_relu"
  type: "ReLU"
  bottom: "bn2a_branch2b"
  top: "bn2a_branch2b"
  relu_param {
    engine: CAFFE
  }
}
layer {
  name: "res2a_branch2b_t"
  type: "Convolution"
  bottom: "bn2a_branch2b"
  top: "res2a_branch2b_t"
  param {
    lr_mult: 1
    decay_mult: 1
  }
  convolution_param {
    num_output: 64
    bias_term: false
    pad: 1
    pad: 0
    pad: 0
    kernel_size: 3
    kernel_size: 1
    kernel_size: 1
    stride: 1
    stride: 1
    stride: 1
    weight_filler {
      type: "gaussian"
      std: 0.001
    }
    engine: CAFFE
  }
}
layer {
  name: "bn2a_branch2b_t"
  type: "BN"
  bottom: "res2a_branch2b_t"
  top: "bn2a_branch2b_t"
  param {
    lr_mult: 1
    decay_mult: 0
  }
  param {
    lr_mult: 1
    decay_mult: 0
  }
  param {
    lr_mult: 0
  }
  param {
    lr_mult: 0
  }
  bn_param {
    slope_filler {
      type: "constant"
      value: 1
    }
    bias_filler {
      type: "constant"
      value: 0
    }
    frozen: true
  }
}
layer {
  name: "res2a_branch2b_t_relu"
  type: "ReLU"
  bottom: "bn2a_branch2b_t"
  top: "bn2a_branch2b_t"
  relu_param {
    engine: CAFFE
  }
}
layer {
  name: "res2a_branch2c"
  type: "Convolution"
  bottom: "bn2a_branch2b_t"
  top: "res2a_branch2c"
  param {
    lr_mult: 1
    decay_mult: 1
  }
  convolution_param {
    num_output: 256
    bias_term: false
    pad: 0
    pad: 0
    pad: 0
    kernel_size: 1
    kernel_size: 1
    kernel_size: 1
    stride: 1
    stride: 1
    stride: 1
    weight_filler {
      type: "gaussian"
      std: 0.001
    }
    engine: CAFFE
  }
}
layer {
  name: "bn2a_branch2c"
  type: "BN"
  bottom: "res2a_branch2c"
  top: "bn2a_branch2c"
  param {
    lr_mult: 1
    decay_mult: 0
  }
  param {
    lr_mult: 1
    decay_mult: 0
  }
  param {
    lr_mult: 0
  }
  param {
    lr_mult: 0
  }
  bn_param {
    slope_filler {
      type: "constant"
      value: 1
    }
    bias_filler {
      type: "constant"
      value: 0
    }
    frozen: true
  }
}
layer {
  name: "res2a"
  type: "Eltwise"
  bottom: "bn2a_branch1"
  bottom: "bn2a_branch2c"
  top: "res2a"
  eltwise_param {
    operation: SUM
  }
}
layer {
  name: "res2a_relu"
  type: "ReLU"
  bottom: "res2a"
  top: "res2a"
  relu_param {
    engine: CAFFE
  }
}
layer {
  name: "pool2"
  type: "Pooling3D"
  bottom: "res2a"
  top: "pool2"
  pooling3d_param {
    pool: MAX
    pad: 0
    kernel_size: 1
    stride: 1
    pad_l: 0
    kernel_l: 2
    stride_l: 2
  }
}
layer {
  name: "ip1"
  type: "InnerProduct"
  bottom: "pool2"
  top: "ip1"
  param {
    lr_mult: 10
    decay_mult: 1
  }
  param {
    lr_mult: 20
    decay_mult: 0
  }
  inner_product_param {
    num_output: 3
    weight_filler {
      type: "gaussian"
      std: 0.001
    }
    bias_filler {
      type: "constant"
      value: 0
    }
  }
}
layer {
  name: "accuracy/top1"
  type: "Accuracy"
  bottom: "ip1"
  bottom: "label"
  top: "accuracy/top1"
  include {
    phase: TEST
  }
}
layer {
  name: "loss"
  type: "SoftmaxWithLoss"
  bottom: "ip1"
  bottom: "label"
  top: "loss"
}
I1214 11:19:57.729482 26675 layer_factory.hpp:77] Creating layer data
I1214 11:19:57.729514 26675 net.cpp:84] Creating Layer data
I1214 11:19:57.729529 26675 net.cpp:380] data -> data
I1214 11:19:57.729549 26675 net.cpp:380] data -> label
I1214 11:19:57.729568 26675 tridim_data_layer.cpp:67] Opening file /data2/xyyu/datasets/train_4.lst
I1214 11:19:57.741753 26675 tridim_data_layer.cpp:140] A total of 20698 tridim chunks.
I1214 11:19:57.747313 26675 tridim_data_layer.cpp:182] output data size: 10,3,10,120,120
I1214 11:19:57.943725 26675 net.cpp:122] Setting up data
I1214 11:19:57.943775 26675 net.cpp:129] Top shape: 10 3 10 120 120 (4320000)
I1214 11:19:57.943791 26675 net.cpp:129] Top shape: 10 (10)
I1214 11:19:57.943802 26675 net.cpp:137] Memory required for data: 17280040
I1214 11:19:57.943816 26675 layer_factory.hpp:77] Creating layer data_data_0_split
I1214 11:19:57.943837 26675 net.cpp:84] Creating Layer data_data_0_split
I1214 11:19:57.943850 26675 net.cpp:406] data_data_0_split <- data
I1214 11:19:57.943866 26675 net.cpp:380] data_data_0_split -> data_data_0_split_0
I1214 11:19:57.943884 26675 net.cpp:380] data_data_0_split -> data_data_0_split_1
I1214 11:19:57.943974 26675 net.cpp:122] Setting up data_data_0_split
I1214 11:19:57.943994 26675 net.cpp:129] Top shape: 10 3 10 120 120 (4320000)
I1214 11:19:57.944006 26675 net.cpp:129] Top shape: 10 3 10 120 120 (4320000)
I1214 11:19:57.944017 26675 net.cpp:137] Memory required for data: 51840040
I1214 11:19:57.944028 26675 layer_factory.hpp:77] Creating layer label_data_1_split
I1214 11:19:57.944041 26675 net.cpp:84] Creating Layer label_data_1_split
I1214 11:19:57.944052 26675 net.cpp:406] label_data_1_split <- label
I1214 11:19:57.944064 26675 net.cpp:380] label_data_1_split -> label_data_1_split_0
I1214 11:19:57.944080 26675 net.cpp:380] label_data_1_split -> label_data_1_split_1
I1214 11:19:57.944138 26675 net.cpp:122] Setting up label_data_1_split
I1214 11:19:57.944154 26675 net.cpp:129] Top shape: 10 (10)
I1214 11:19:57.944166 26675 net.cpp:129] Top shape: 10 (10)
I1214 11:19:57.944176 26675 net.cpp:137] Memory required for data: 51840120
I1214 11:19:57.944186 26675 layer_factory.hpp:77] Creating layer loc_conv1
I1214 11:19:57.944205 26675 net.cpp:84] Creating Layer loc_conv1
I1214 11:19:57.944217 26675 net.cpp:406] loc_conv1 <- data_data_0_split_0
I1214 11:19:57.944231 26675 net.cpp:380] loc_conv1 -> loc_conv1
I1214 11:19:57.944797 26675 net.cpp:122] Setting up loc_conv1
I1214 11:19:57.944819 26675 net.cpp:129] Top shape: 10 64 10 60 60 (23040000)
I1214 11:19:57.944830 26675 net.cpp:137] Memory required for data: 144000120
I1214 11:19:57.944846 26675 layer_factory.hpp:77] Creating layer loc_bn_conv1
I1214 11:19:57.944864 26675 net.cpp:84] Creating Layer loc_bn_conv1
I1214 11:19:57.944876 26675 net.cpp:406] loc_bn_conv1 <- loc_conv1
I1214 11:19:57.944890 26675 net.cpp:380] loc_bn_conv1 -> loc_bn_conv1
I1214 11:19:57.945214 26675 net.cpp:122] Setting up loc_bn_conv1
I1214 11:19:57.945235 26675 net.cpp:129] Top shape: 10 64 10 60 60 (23040000)
I1214 11:19:57.945246 26675 net.cpp:137] Memory required for data: 236160120
I1214 11:19:57.945269 26675 layer_factory.hpp:77] Creating layer loc_conv1_relu
I1214 11:19:57.945307 26675 net.cpp:84] Creating Layer loc_conv1_relu
I1214 11:19:57.945317 26675 net.cpp:406] loc_conv1_relu <- loc_bn_conv1
I1214 11:19:57.945329 26675 net.cpp:367] loc_conv1_relu -> loc_bn_conv1 (in-place)
I1214 11:19:57.945377 26675 net.cpp:122] Setting up loc_conv1_relu
I1214 11:19:57.945392 26675 net.cpp:129] Top shape: 10 64 10 60 60 (23040000)
I1214 11:19:57.945403 26675 net.cpp:137] Memory required for data: 328320120
I1214 11:19:57.945413 26675 layer_factory.hpp:77] Creating layer loc_pool1
I1214 11:19:57.945428 26675 net.cpp:84] Creating Layer loc_pool1
I1214 11:19:57.945439 26675 net.cpp:406] loc_pool1 <- loc_bn_conv1
I1214 11:19:57.945453 26675 net.cpp:380] loc_pool1 -> loc_pool1
I1214 11:19:57.945509 26675 net.cpp:122] Setting up loc_pool1
I1214 11:19:57.945526 26675 net.cpp:129] Top shape: 10 64 5 30 30 (2880000)
I1214 11:19:57.945538 26675 net.cpp:137] Memory required for data: 339840120
I1214 11:19:57.945549 26675 layer_factory.hpp:77] Creating layer loc_pool1_loc_pool1_0_split
I1214 11:19:57.945561 26675 net.cpp:84] Creating Layer loc_pool1_loc_pool1_0_split
I1214 11:19:57.945571 26675 net.cpp:406] loc_pool1_loc_pool1_0_split <- loc_pool1
I1214 11:19:57.945585 26675 net.cpp:380] loc_pool1_loc_pool1_0_split -> loc_pool1_loc_pool1_0_split_0
I1214 11:19:57.945598 26675 net.cpp:380] loc_pool1_loc_pool1_0_split -> loc_pool1_loc_pool1_0_split_1
I1214 11:19:57.945652 26675 net.cpp:122] Setting up loc_pool1_loc_pool1_0_split
I1214 11:19:57.945669 26675 net.cpp:129] Top shape: 10 64 5 30 30 (2880000)
I1214 11:19:57.945682 26675 net.cpp:129] Top shape: 10 64 5 30 30 (2880000)
I1214 11:19:57.945693 26675 net.cpp:137] Memory required for data: 362880120
I1214 11:19:57.945703 26675 layer_factory.hpp:77] Creating layer loc_res2a_branch1
I1214 11:19:57.945719 26675 net.cpp:84] Creating Layer loc_res2a_branch1
I1214 11:19:57.945731 26675 net.cpp:406] loc_res2a_branch1 <- loc_pool1_loc_pool1_0_split_0
I1214 11:19:57.945745 26675 net.cpp:380] loc_res2a_branch1 -> loc_res2a_branch1
I1214 11:19:57.946558 26675 net.cpp:122] Setting up loc_res2a_branch1
I1214 11:19:57.946578 26675 net.cpp:129] Top shape: 10 256 5 30 30 (11520000)
I1214 11:19:57.946588 26675 net.cpp:137] Memory required for data: 408960120
I1214 11:19:57.946601 26675 layer_factory.hpp:77] Creating layer loc_bn2a_branch1
I1214 11:19:57.946617 26675 net.cpp:84] Creating Layer loc_bn2a_branch1
I1214 11:19:57.946629 26675 net.cpp:406] loc_bn2a_branch1 <- loc_res2a_branch1
I1214 11:19:57.946642 26675 net.cpp:380] loc_bn2a_branch1 -> loc_bn2a_branch1
I1214 11:19:57.946945 26675 net.cpp:122] Setting up loc_bn2a_branch1
I1214 11:19:57.946964 26675 net.cpp:129] Top shape: 10 256 5 30 30 (11520000)
I1214 11:19:57.946976 26675 net.cpp:137] Memory required for data: 455040120
I1214 11:19:57.946995 26675 layer_factory.hpp:77] Creating layer loc_res2a_branch2a
I1214 11:19:57.947013 26675 net.cpp:84] Creating Layer loc_res2a_branch2a
I1214 11:19:57.947026 26675 net.cpp:406] loc_res2a_branch2a <- loc_pool1_loc_pool1_0_split_1
I1214 11:19:57.947039 26675 net.cpp:380] loc_res2a_branch2a -> loc_res2a_branch2a
I1214 11:19:57.947432 26675 net.cpp:122] Setting up loc_res2a_branch2a
I1214 11:19:57.947449 26675 net.cpp:129] Top shape: 10 64 5 30 30 (2880000)
I1214 11:19:57.947460 26675 net.cpp:137] Memory required for data: 466560120
I1214 11:19:57.947474 26675 layer_factory.hpp:77] Creating layer loc_bn2a_branch2a
I1214 11:19:57.947489 26675 net.cpp:84] Creating Layer loc_bn2a_branch2a
I1214 11:19:57.947501 26675 net.cpp:406] loc_bn2a_branch2a <- loc_res2a_branch2a
I1214 11:19:57.947515 26675 net.cpp:380] loc_bn2a_branch2a -> loc_bn2a_branch2a
I1214 11:19:57.947835 26675 net.cpp:122] Setting up loc_bn2a_branch2a
I1214 11:19:57.947854 26675 net.cpp:129] Top shape: 10 64 5 30 30 (2880000)
I1214 11:19:57.947865 26675 net.cpp:137] Memory required for data: 478080120
I1214 11:19:57.947881 26675 layer_factory.hpp:77] Creating layer loc_res2a_branch2a_relu
I1214 11:19:57.947896 26675 net.cpp:84] Creating Layer loc_res2a_branch2a_relu
I1214 11:19:57.947907 26675 net.cpp:406] loc_res2a_branch2a_relu <- loc_bn2a_branch2a
I1214 11:19:57.947921 26675 net.cpp:367] loc_res2a_branch2a_relu -> loc_bn2a_branch2a (in-place)
I1214 11:19:57.947934 26675 net.cpp:122] Setting up loc_res2a_branch2a_relu
I1214 11:19:57.947964 26675 net.cpp:129] Top shape: 10 64 5 30 30 (2880000)
I1214 11:19:57.947975 26675 net.cpp:137] Memory required for data: 489600120
I1214 11:19:57.947986 26675 layer_factory.hpp:77] Creating layer loc_res2a_branch2b
I1214 11:19:57.948004 26675 net.cpp:84] Creating Layer loc_res2a_branch2b
I1214 11:19:57.948014 26675 net.cpp:406] loc_res2a_branch2b <- loc_bn2a_branch2a
I1214 11:19:57.948029 26675 net.cpp:380] loc_res2a_branch2b -> loc_res2a_branch2b
I1214 11:19:57.949533 26675 net.cpp:122] Setting up loc_res2a_branch2b
I1214 11:19:57.949553 26675 net.cpp:129] Top shape: 10 64 5 30 30 (2880000)
I1214 11:19:57.949563 26675 net.cpp:137] Memory required for data: 501120120
I1214 11:19:57.949576 26675 layer_factory.hpp:77] Creating layer loc_bn2a_branch2b
I1214 11:19:57.949591 26675 net.cpp:84] Creating Layer loc_bn2a_branch2b
I1214 11:19:57.949604 26675 net.cpp:406] loc_bn2a_branch2b <- loc_res2a_branch2b
I1214 11:19:57.949617 26675 net.cpp:380] loc_bn2a_branch2b -> loc_bn2a_branch2b
I1214 11:19:57.949935 26675 net.cpp:122] Setting up loc_bn2a_branch2b
I1214 11:19:57.949954 26675 net.cpp:129] Top shape: 10 64 5 30 30 (2880000)
I1214 11:19:57.949965 26675 net.cpp:137] Memory required for data: 512640120
I1214 11:19:57.949985 26675 layer_factory.hpp:77] Creating layer loc_res2a_branch2b_relu
I1214 11:19:57.950001 26675 net.cpp:84] Creating Layer loc_res2a_branch2b_relu
I1214 11:19:57.950013 26675 net.cpp:406] loc_res2a_branch2b_relu <- loc_bn2a_branch2b
I1214 11:19:57.950026 26675 net.cpp:367] loc_res2a_branch2b_relu -> loc_bn2a_branch2b (in-place)
I1214 11:19:57.950040 26675 net.cpp:122] Setting up loc_res2a_branch2b_relu
I1214 11:19:57.950053 26675 net.cpp:129] Top shape: 10 64 5 30 30 (2880000)
I1214 11:19:57.950064 26675 net.cpp:137] Memory required for data: 524160120
I1214 11:19:57.950074 26675 layer_factory.hpp:77] Creating layer loc_res2a_branch2b_t
I1214 11:19:57.950091 26675 net.cpp:84] Creating Layer loc_res2a_branch2b_t
I1214 11:19:57.950103 26675 net.cpp:406] loc_res2a_branch2b_t <- loc_bn2a_branch2b
I1214 11:19:57.950116 26675 net.cpp:380] loc_res2a_branch2b_t -> loc_res2a_branch2b_t
I1214 11:19:57.950822 26675 net.cpp:122] Setting up loc_res2a_branch2b_t
I1214 11:19:57.950841 26675 net.cpp:129] Top shape: 10 64 5 30 30 (2880000)
I1214 11:19:57.950852 26675 net.cpp:137] Memory required for data: 535680120
I1214 11:19:57.950865 26675 layer_factory.hpp:77] Creating layer loc_bn2a_branch2b_t
I1214 11:19:57.950881 26675 net.cpp:84] Creating Layer loc_bn2a_branch2b_t
I1214 11:19:57.950892 26675 net.cpp:406] loc_bn2a_branch2b_t <- loc_res2a_branch2b_t
I1214 11:19:57.950911 26675 net.cpp:380] loc_bn2a_branch2b_t -> loc_bn2a_branch2b_t
I1214 11:19:57.951225 26675 net.cpp:122] Setting up loc_bn2a_branch2b_t
I1214 11:19:57.951243 26675 net.cpp:129] Top shape: 10 64 5 30 30 (2880000)
I1214 11:19:57.951254 26675 net.cpp:137] Memory required for data: 547200120
I1214 11:19:57.951272 26675 layer_factory.hpp:77] Creating layer loc_res2a_branch2b_t_relu
I1214 11:19:57.951287 26675 net.cpp:84] Creating Layer loc_res2a_branch2b_t_relu
I1214 11:19:57.951297 26675 net.cpp:406] loc_res2a_branch2b_t_relu <- loc_bn2a_branch2b_t
I1214 11:19:57.951310 26675 net.cpp:367] loc_res2a_branch2b_t_relu -> loc_bn2a_branch2b_t (in-place)
I1214 11:19:57.951324 26675 net.cpp:122] Setting up loc_res2a_branch2b_t_relu
I1214 11:19:57.951337 26675 net.cpp:129] Top shape: 10 64 5 30 30 (2880000)
I1214 11:19:57.951349 26675 net.cpp:137] Memory required for data: 558720120
I1214 11:19:57.951359 26675 layer_factory.hpp:77] Creating layer loc_res2a_branch2c
I1214 11:19:57.951375 26675 net.cpp:84] Creating Layer loc_res2a_branch2c
I1214 11:19:57.951386 26675 net.cpp:406] loc_res2a_branch2c <- loc_bn2a_branch2b_t
I1214 11:19:57.951400 26675 net.cpp:380] loc_res2a_branch2c -> loc_res2a_branch2c
I1214 11:19:57.952214 26675 net.cpp:122] Setting up loc_res2a_branch2c
I1214 11:19:57.952232 26675 net.cpp:129] Top shape: 10 256 5 30 30 (11520000)
I1214 11:19:57.952244 26675 net.cpp:137] Memory required for data: 604800120
I1214 11:19:57.952272 26675 layer_factory.hpp:77] Creating layer loc_bn2a_branch2c
I1214 11:19:57.952289 26675 net.cpp:84] Creating Layer loc_bn2a_branch2c
I1214 11:19:57.952301 26675 net.cpp:406] loc_bn2a_branch2c <- loc_res2a_branch2c
I1214 11:19:57.952314 26675 net.cpp:380] loc_bn2a_branch2c -> loc_bn2a_branch2c
I1214 11:19:57.952611 26675 net.cpp:122] Setting up loc_bn2a_branch2c
I1214 11:19:57.952630 26675 net.cpp:129] Top shape: 10 256 5 30 30 (11520000)
I1214 11:19:57.952641 26675 net.cpp:137] Memory required for data: 650880120
I1214 11:19:57.952656 26675 layer_factory.hpp:77] Creating layer loc_res2a
I1214 11:19:57.952672 26675 net.cpp:84] Creating Layer loc_res2a
I1214 11:19:57.952684 26675 net.cpp:406] loc_res2a <- loc_bn2a_branch1
I1214 11:19:57.952695 26675 net.cpp:406] loc_res2a <- loc_bn2a_branch2c
I1214 11:19:57.952708 26675 net.cpp:380] loc_res2a -> loc_res2a
I1214 11:19:57.952747 26675 net.cpp:122] Setting up loc_res2a
I1214 11:19:57.952764 26675 net.cpp:129] Top shape: 10 256 5 30 30 (11520000)
I1214 11:19:57.952774 26675 net.cpp:137] Memory required for data: 696960120
I1214 11:19:57.952785 26675 layer_factory.hpp:77] Creating layer loc_res2a_relu
I1214 11:19:57.952797 26675 net.cpp:84] Creating Layer loc_res2a_relu
I1214 11:19:57.952810 26675 net.cpp:406] loc_res2a_relu <- loc_res2a
I1214 11:19:57.952822 26675 net.cpp:367] loc_res2a_relu -> loc_res2a (in-place)
I1214 11:19:57.952836 26675 net.cpp:122] Setting up loc_res2a_relu
I1214 11:19:57.952849 26675 net.cpp:129] Top shape: 10 256 5 30 30 (11520000)
I1214 11:19:57.952859 26675 net.cpp:137] Memory required for data: 743040120
I1214 11:19:57.952869 26675 layer_factory.hpp:77] Creating layer loc_pool2
I1214 11:19:57.952883 26675 net.cpp:84] Creating Layer loc_pool2
I1214 11:19:57.952893 26675 net.cpp:406] loc_pool2 <- loc_res2a
I1214 11:19:57.952905 26675 net.cpp:380] loc_pool2 -> loc_pool2
I1214 11:19:57.952961 26675 net.cpp:122] Setting up loc_pool2
I1214 11:19:57.952978 26675 net.cpp:129] Top shape: 10 256 3 30 30 (6912000)
I1214 11:19:57.952988 26675 net.cpp:137] Memory required for data: 770688120
I1214 11:19:57.952999 26675 layer_factory.hpp:77] Creating layer loc_ip1
I1214 11:19:57.953014 26675 net.cpp:84] Creating Layer loc_ip1
I1214 11:19:57.953025 26675 net.cpp:406] loc_ip1 <- loc_pool2
I1214 11:19:57.953038 26675 net.cpp:380] loc_ip1 -> loc_ip1
I1214 11:19:59.260144 26675 net.cpp:122] Setting up loc_ip1
I1214 11:19:59.260185 26675 net.cpp:129] Top shape: 10 64 (640)
I1214 11:19:59.260192 26675 net.cpp:137] Memory required for data: 770690680
I1214 11:19:59.260203 26675 layer_factory.hpp:77] Creating layer loc_relu1
I1214 11:19:59.260216 26675 net.cpp:84] Creating Layer loc_relu1
I1214 11:19:59.260222 26675 net.cpp:406] loc_relu1 <- loc_ip1
I1214 11:19:59.260231 26675 net.cpp:367] loc_relu1 -> loc_ip1 (in-place)
I1214 11:19:59.260421 26675 net.cpp:122] Setting up loc_relu1
I1214 11:19:59.260434 26675 net.cpp:129] Top shape: 10 64 (640)
I1214 11:19:59.260440 26675 net.cpp:137] Memory required for data: 770693240
I1214 11:19:59.260447 26675 layer_factory.hpp:77] Creating layer loc_ip2
I1214 11:19:59.260457 26675 net.cpp:84] Creating Layer loc_ip2
I1214 11:19:59.260462 26675 net.cpp:406] loc_ip2 <- loc_ip1
I1214 11:19:59.260470 26675 net.cpp:380] loc_ip2 -> theta
I1214 11:19:59.260660 26675 net.cpp:122] Setting up loc_ip2
I1214 11:19:59.260673 26675 net.cpp:129] Top shape: 10 12 (120)
I1214 11:19:59.260679 26675 net.cpp:137] Memory required for data: 770693720
I1214 11:19:59.260692 26675 layer_factory.hpp:77] Creating layer trist_layer
I1214 11:19:59.260702 26675 net.cpp:84] Creating Layer trist_layer
I1214 11:19:59.260707 26675 net.cpp:406] trist_layer <- data_data_0_split_1
I1214 11:19:59.260715 26675 net.cpp:406] trist_layer <- theta
I1214 11:19:59.260721 26675 net.cpp:380] trist_layer -> trist_output
I1214 11:19:59.266991 26675 net.cpp:122] Setting up trist_layer
I1214 11:19:59.267012 26675 net.cpp:129] Top shape: 10 3 10 120 120 (4320000)
I1214 11:19:59.267019 26675 net.cpp:137] Memory required for data: 787973720
I1214 11:19:59.267055 26675 layer_factory.hpp:77] Creating layer conv1
I1214 11:19:59.267071 26675 net.cpp:84] Creating Layer conv1
I1214 11:19:59.267078 26675 net.cpp:406] conv1 <- trist_output
I1214 11:19:59.267089 26675 net.cpp:380] conv1 -> conv1
I1214 11:19:59.267540 26675 net.cpp:122] Setting up conv1
I1214 11:19:59.267554 26675 net.cpp:129] Top shape: 10 64 10 60 60 (23040000)
I1214 11:19:59.267561 26675 net.cpp:137] Memory required for data: 880133720
I1214 11:19:59.267570 26675 layer_factory.hpp:77] Creating layer bn_conv1
I1214 11:19:59.267581 26675 net.cpp:84] Creating Layer bn_conv1
I1214 11:19:59.267588 26675 net.cpp:406] bn_conv1 <- conv1
I1214 11:19:59.267596 26675 net.cpp:380] bn_conv1 -> bn_conv1
I1214 11:19:59.267849 26675 net.cpp:122] Setting up bn_conv1
I1214 11:19:59.267865 26675 net.cpp:129] Top shape: 10 64 10 60 60 (23040000)
I1214 11:19:59.267873 26675 net.cpp:137] Memory required for data: 972293720
I1214 11:19:59.267884 26675 layer_factory.hpp:77] Creating layer conv1_relu
I1214 11:19:59.267894 26675 net.cpp:84] Creating Layer conv1_relu
I1214 11:19:59.267900 26675 net.cpp:406] conv1_relu <- bn_conv1
I1214 11:19:59.267909 26675 net.cpp:367] conv1_relu -> bn_conv1 (in-place)
I1214 11:19:59.267917 26675 net.cpp:122] Setting up conv1_relu
I1214 11:19:59.267925 26675 net.cpp:129] Top shape: 10 64 10 60 60 (23040000)
I1214 11:19:59.267931 26675 net.cpp:137] Memory required for data: 1064453720
I1214 11:19:59.267937 26675 layer_factory.hpp:77] Creating layer pool1
I1214 11:19:59.267946 26675 net.cpp:84] Creating Layer pool1
I1214 11:19:59.267952 26675 net.cpp:406] pool1 <- bn_conv1
I1214 11:19:59.267961 26675 net.cpp:380] pool1 -> pool1
I1214 11:19:59.268000 26675 net.cpp:122] Setting up pool1
I1214 11:19:59.268010 26675 net.cpp:129] Top shape: 10 64 5 30 30 (2880000)
I1214 11:19:59.268016 26675 net.cpp:137] Memory required for data: 1075973720
I1214 11:19:59.268023 26675 layer_factory.hpp:77] Creating layer pool1_pool1_0_split
I1214 11:19:59.268034 26675 net.cpp:84] Creating Layer pool1_pool1_0_split
I1214 11:19:59.268040 26675 net.cpp:406] pool1_pool1_0_split <- pool1
I1214 11:19:59.268049 26675 net.cpp:380] pool1_pool1_0_split -> pool1_pool1_0_split_0
I1214 11:19:59.268057 26675 net.cpp:380] pool1_pool1_0_split -> pool1_pool1_0_split_1
I1214 11:19:59.268090 26675 net.cpp:122] Setting up pool1_pool1_0_split
I1214 11:19:59.268100 26675 net.cpp:129] Top shape: 10 64 5 30 30 (2880000)
I1214 11:19:59.268107 26675 net.cpp:129] Top shape: 10 64 5 30 30 (2880000)
I1214 11:19:59.268112 26675 net.cpp:137] Memory required for data: 1099013720
I1214 11:19:59.268118 26675 layer_factory.hpp:77] Creating layer res2a_branch1
I1214 11:19:59.268128 26675 net.cpp:84] Creating Layer res2a_branch1
I1214 11:19:59.268136 26675 net.cpp:406] res2a_branch1 <- pool1_pool1_0_split_0
I1214 11:19:59.268143 26675 net.cpp:380] res2a_branch1 -> res2a_branch1
I1214 11:19:59.268779 26675 net.cpp:122] Setting up res2a_branch1
I1214 11:19:59.268791 26675 net.cpp:129] Top shape: 10 256 5 30 30 (11520000)
I1214 11:19:59.268797 26675 net.cpp:137] Memory required for data: 1145093720
I1214 11:19:59.268805 26675 layer_factory.hpp:77] Creating layer bn2a_branch1
I1214 11:19:59.268815 26675 net.cpp:84] Creating Layer bn2a_branch1
I1214 11:19:59.268821 26675 net.cpp:406] bn2a_branch1 <- res2a_branch1
I1214 11:19:59.268828 26675 net.cpp:380] bn2a_branch1 -> bn2a_branch1
I1214 11:19:59.269023 26675 net.cpp:122] Setting up bn2a_branch1
I1214 11:19:59.269034 26675 net.cpp:129] Top shape: 10 256 5 30 30 (11520000)
I1214 11:19:59.269042 26675 net.cpp:137] Memory required for data: 1191173720
I1214 11:19:59.269050 26675 layer_factory.hpp:77] Creating layer res2a_branch2a
I1214 11:19:59.269062 26675 net.cpp:84] Creating Layer res2a_branch2a
I1214 11:19:59.269068 26675 net.cpp:406] res2a_branch2a <- pool1_pool1_0_split_1
I1214 11:19:59.269076 26675 net.cpp:380] res2a_branch2a -> res2a_branch2a
I1214 11:19:59.269356 26675 net.cpp:122] Setting up res2a_branch2a
I1214 11:19:59.269367 26675 net.cpp:129] Top shape: 10 64 5 30 30 (2880000)
I1214 11:19:59.269387 26675 net.cpp:137] Memory required for data: 1202693720
I1214 11:19:59.269395 26675 layer_factory.hpp:77] Creating layer bn2a_branch2a
I1214 11:19:59.269405 26675 net.cpp:84] Creating Layer bn2a_branch2a
I1214 11:19:59.269412 26675 net.cpp:406] bn2a_branch2a <- res2a_branch2a
I1214 11:19:59.269420 26675 net.cpp:380] bn2a_branch2a -> bn2a_branch2a
I1214 11:19:59.269630 26675 net.cpp:122] Setting up bn2a_branch2a
I1214 11:19:59.269641 26675 net.cpp:129] Top shape: 10 64 5 30 30 (2880000)
I1214 11:19:59.269649 26675 net.cpp:137] Memory required for data: 1214213720
I1214 11:19:59.269657 26675 layer_factory.hpp:77] Creating layer res2a_branch2a_relu
I1214 11:19:59.269666 26675 net.cpp:84] Creating Layer res2a_branch2a_relu
I1214 11:19:59.269673 26675 net.cpp:406] res2a_branch2a_relu <- bn2a_branch2a
I1214 11:19:59.269680 26675 net.cpp:367] res2a_branch2a_relu -> bn2a_branch2a (in-place)
I1214 11:19:59.269688 26675 net.cpp:122] Setting up res2a_branch2a_relu
I1214 11:19:59.269696 26675 net.cpp:129] Top shape: 10 64 5 30 30 (2880000)
I1214 11:19:59.269702 26675 net.cpp:137] Memory required for data: 1225733720
I1214 11:19:59.269708 26675 layer_factory.hpp:77] Creating layer res2a_branch2b
I1214 11:19:59.269717 26675 net.cpp:84] Creating Layer res2a_branch2b
I1214 11:19:59.269724 26675 net.cpp:406] res2a_branch2b <- bn2a_branch2a
I1214 11:19:59.269731 26675 net.cpp:380] res2a_branch2b -> res2a_branch2b
I1214 11:19:59.270968 26675 net.cpp:122] Setting up res2a_branch2b
I1214 11:19:59.270982 26675 net.cpp:129] Top shape: 10 64 5 30 30 (2880000)
I1214 11:19:59.270988 26675 net.cpp:137] Memory required for data: 1237253720
I1214 11:19:59.270995 26675 layer_factory.hpp:77] Creating layer bn2a_branch2b
I1214 11:19:59.271004 26675 net.cpp:84] Creating Layer bn2a_branch2b
I1214 11:19:59.271011 26675 net.cpp:406] bn2a_branch2b <- res2a_branch2b
I1214 11:19:59.271019 26675 net.cpp:380] bn2a_branch2b -> bn2a_branch2b
I1214 11:19:59.271225 26675 net.cpp:122] Setting up bn2a_branch2b
I1214 11:19:59.271237 26675 net.cpp:129] Top shape: 10 64 5 30 30 (2880000)
I1214 11:19:59.271245 26675 net.cpp:137] Memory required for data: 1248773720
I1214 11:19:59.271255 26675 layer_factory.hpp:77] Creating layer res2a_branch2b_relu
I1214 11:19:59.271262 26675 net.cpp:84] Creating Layer res2a_branch2b_relu
I1214 11:19:59.271270 26675 net.cpp:406] res2a_branch2b_relu <- bn2a_branch2b
I1214 11:19:59.271276 26675 net.cpp:367] res2a_branch2b_relu -> bn2a_branch2b (in-place)
I1214 11:19:59.271286 26675 net.cpp:122] Setting up res2a_branch2b_relu
I1214 11:19:59.271292 26675 net.cpp:129] Top shape: 10 64 5 30 30 (2880000)
I1214 11:19:59.271298 26675 net.cpp:137] Memory required for data: 1260293720
I1214 11:19:59.271304 26675 layer_factory.hpp:77] Creating layer res2a_branch2b_t
I1214 11:19:59.271314 26675 net.cpp:84] Creating Layer res2a_branch2b_t
I1214 11:19:59.271320 26675 net.cpp:406] res2a_branch2b_t <- bn2a_branch2b
I1214 11:19:59.271328 26675 net.cpp:380] res2a_branch2b_t -> res2a_branch2b_t
I1214 11:19:59.271847 26675 net.cpp:122] Setting up res2a_branch2b_t
I1214 11:19:59.271859 26675 net.cpp:129] Top shape: 10 64 5 30 30 (2880000)
I1214 11:19:59.271865 26675 net.cpp:137] Memory required for data: 1271813720
I1214 11:19:59.271872 26675 layer_factory.hpp:77] Creating layer bn2a_branch2b_t
I1214 11:19:59.271883 26675 net.cpp:84] Creating Layer bn2a_branch2b_t
I1214 11:19:59.271888 26675 net.cpp:406] bn2a_branch2b_t <- res2a_branch2b_t
I1214 11:19:59.271898 26675 net.cpp:380] bn2a_branch2b_t -> bn2a_branch2b_t
I1214 11:19:59.272100 26675 net.cpp:122] Setting up bn2a_branch2b_t
I1214 11:19:59.272111 26675 net.cpp:129] Top shape: 10 64 5 30 30 (2880000)
I1214 11:19:59.272117 26675 net.cpp:137] Memory required for data: 1283333720
I1214 11:19:59.272127 26675 layer_factory.hpp:77] Creating layer res2a_branch2b_t_relu
I1214 11:19:59.272135 26675 net.cpp:84] Creating Layer res2a_branch2b_t_relu
I1214 11:19:59.272141 26675 net.cpp:406] res2a_branch2b_t_relu <- bn2a_branch2b_t
I1214 11:19:59.272148 26675 net.cpp:367] res2a_branch2b_t_relu -> bn2a_branch2b_t (in-place)
I1214 11:19:59.272169 26675 net.cpp:122] Setting up res2a_branch2b_t_relu
I1214 11:19:59.272178 26675 net.cpp:129] Top shape: 10 64 5 30 30 (2880000)
I1214 11:19:59.272184 26675 net.cpp:137] Memory required for data: 1294853720
I1214 11:19:59.272191 26675 layer_factory.hpp:77] Creating layer res2a_branch2c
I1214 11:19:59.272199 26675 net.cpp:84] Creating Layer res2a_branch2c
I1214 11:19:59.272207 26675 net.cpp:406] res2a_branch2c <- bn2a_branch2b_t
I1214 11:19:59.272214 26675 net.cpp:380] res2a_branch2c -> res2a_branch2c
I1214 11:19:59.272872 26675 net.cpp:122] Setting up res2a_branch2c
I1214 11:19:59.272887 26675 net.cpp:129] Top shape: 10 256 5 30 30 (11520000)
I1214 11:19:59.272894 26675 net.cpp:137] Memory required for data: 1340933720
I1214 11:19:59.272902 26675 layer_factory.hpp:77] Creating layer bn2a_branch2c
I1214 11:19:59.272912 26675 net.cpp:84] Creating Layer bn2a_branch2c
I1214 11:19:59.272918 26675 net.cpp:406] bn2a_branch2c <- res2a_branch2c
I1214 11:19:59.272927 26675 net.cpp:380] bn2a_branch2c -> bn2a_branch2c
I1214 11:19:59.273120 26675 net.cpp:122] Setting up bn2a_branch2c
I1214 11:19:59.273133 26675 net.cpp:129] Top shape: 10 256 5 30 30 (11520000)
I1214 11:19:59.273138 26675 net.cpp:137] Memory required for data: 1387013720
I1214 11:19:59.273149 26675 layer_factory.hpp:77] Creating layer res2a
I1214 11:19:59.273157 26675 net.cpp:84] Creating Layer res2a
I1214 11:19:59.273164 26675 net.cpp:406] res2a <- bn2a_branch1
I1214 11:19:59.273171 26675 net.cpp:406] res2a <- bn2a_branch2c
I1214 11:19:59.273178 26675 net.cpp:380] res2a -> res2a
I1214 11:19:59.273203 26675 net.cpp:122] Setting up res2a
I1214 11:19:59.273213 26675 net.cpp:129] Top shape: 10 256 5 30 30 (11520000)
I1214 11:19:59.273219 26675 net.cpp:137] Memory required for data: 1433093720
I1214 11:19:59.273224 26675 layer_factory.hpp:77] Creating layer res2a_relu
I1214 11:19:59.273232 26675 net.cpp:84] Creating Layer res2a_relu
I1214 11:19:59.273238 26675 net.cpp:406] res2a_relu <- res2a
I1214 11:19:59.273246 26675 net.cpp:367] res2a_relu -> res2a (in-place)
I1214 11:19:59.273253 26675 net.cpp:122] Setting up res2a_relu
I1214 11:19:59.273262 26675 net.cpp:129] Top shape: 10 256 5 30 30 (11520000)
I1214 11:19:59.273267 26675 net.cpp:137] Memory required for data: 1479173720
I1214 11:19:59.273272 26675 layer_factory.hpp:77] Creating layer pool2
I1214 11:19:59.273280 26675 net.cpp:84] Creating Layer pool2
I1214 11:19:59.273286 26675 net.cpp:406] pool2 <- res2a
I1214 11:19:59.273293 26675 net.cpp:380] pool2 -> pool2
I1214 11:19:59.273330 26675 net.cpp:122] Setting up pool2
I1214 11:19:59.273339 26675 net.cpp:129] Top shape: 10 256 3 30 30 (6912000)
I1214 11:19:59.273345 26675 net.cpp:137] Memory required for data: 1506821720
I1214 11:19:59.273351 26675 layer_factory.hpp:77] Creating layer ip1
I1214 11:19:59.273360 26675 net.cpp:84] Creating Layer ip1
I1214 11:19:59.273366 26675 net.cpp:406] ip1 <- pool2
I1214 11:19:59.273375 26675 net.cpp:380] ip1 -> ip1
I1214 11:19:59.324965 26675 net.cpp:122] Setting up ip1
I1214 11:19:59.325001 26675 net.cpp:129] Top shape: 10 3 (30)
I1214 11:19:59.325008 26675 net.cpp:137] Memory required for data: 1506821840
I1214 11:19:59.325027 26675 layer_factory.hpp:77] Creating layer ip1_ip1_0_split
I1214 11:19:59.325040 26675 net.cpp:84] Creating Layer ip1_ip1_0_split
I1214 11:19:59.325047 26675 net.cpp:406] ip1_ip1_0_split <- ip1
I1214 11:19:59.325055 26675 net.cpp:380] ip1_ip1_0_split -> ip1_ip1_0_split_0
I1214 11:19:59.325065 26675 net.cpp:380] ip1_ip1_0_split -> ip1_ip1_0_split_1
I1214 11:19:59.325104 26675 net.cpp:122] Setting up ip1_ip1_0_split
I1214 11:19:59.325114 26675 net.cpp:129] Top shape: 10 3 (30)
I1214 11:19:59.325120 26675 net.cpp:129] Top shape: 10 3 (30)
I1214 11:19:59.325125 26675 net.cpp:137] Memory required for data: 1506822080
I1214 11:19:59.325131 26675 layer_factory.hpp:77] Creating layer accuracy/top1
I1214 11:19:59.325140 26675 net.cpp:84] Creating Layer accuracy/top1
I1214 11:19:59.325146 26675 net.cpp:406] accuracy/top1 <- ip1_ip1_0_split_0
I1214 11:19:59.325152 26675 net.cpp:406] accuracy/top1 <- label_data_1_split_0
I1214 11:19:59.325183 26675 net.cpp:380] accuracy/top1 -> accuracy/top1
…
