…
I1215 17:07:24.478193  2028 net.cpp:51] Initializing net from parameters: 
name: "P3DSTN-IsoGDNet"
state {
  phase: TRAIN
  level: 0
  stage: ""
}
layer {
  name: "data"
  type: "TridimData"
  top: "data"
  top: "label"
  include {
    phase: TRAIN
  }
  transform_param {
    mirror: true
    crop_size: 120
    mean_value: 128
    mean_value: 128
    mean_value: 128
  }
  tridim_data_param {
    source: "/data2/xyyu/datasets/train_3.lst"
    batch_size: 10
    shuffle: true
    new_height: 120
    new_width: 160
    root_folder: ""
    new_length: 10
    show_data: false
    use_image: true
  }
}
layer {
  name: "loc_conv1"
  type: "Convolution"
  bottom: "data"
  top: "loc_conv1"
  param {
    lr_mult: 1
    decay_mult: 1
  }
  convolution_param {
    num_output: 64
    bias_term: false
    pad: 0
    pad: 3
    pad: 3
    kernel_size: 1
    kernel_size: 7
    kernel_size: 7
    stride: 1
    stride: 2
    stride: 2
    weight_filler {
      type: "gaussian"
      std: 0.001
    }
    engine: CAFFE
  }
}
layer {
  name: "loc_bn_conv1"
  type: "BN"
  bottom: "loc_conv1"
  top: "loc_bn_conv1"
  param {
    lr_mult: 1
    decay_mult: 0
  }
  param {
    lr_mult: 1
    decay_mult: 0
  }
  param {
    lr_mult: 0
  }
  param {
    lr_mult: 0
  }
  bn_param {
    slope_filler {
      type: "constant"
      value: 1
    }
    bias_filler {
      type: "constant"
      value: 0
    }
    frozen: false
  }
}
layer {
  name: "loc_conv1_relu"
  type: "ReLU"
  bottom: "loc_bn_conv1"
  top: "loc_bn_conv1"
  relu_param {
    engine: CAFFE
  }
}
layer {
  name: "loc_pool1"
  type: "Pooling3D"
  bottom: "loc_bn_conv1"
  top: "loc_pool1"
  pooling3d_param {
    pool: MAX
    pad: 0
    kernel_size: 3
    stride: 2
    pad_l: 0
    kernel_l: 2
    stride_l: 2
  }
}
layer {
  name: "loc_res2a_branch1"
  type: "Convolution"
  bottom: "loc_pool1"
  top: "loc_res2a_branch1"
  param {
    lr_mult: 1
    decay_mult: 1
  }
  convolution_param {
    num_output: 256
    bias_term: false
    pad: 0
    pad: 0
    pad: 0
    kernel_size: 1
    kernel_size: 1
    kernel_size: 1
    stride: 1
    stride: 1
    stride: 1
    weight_filler {
      type: "gaussian"
      std: 0.001
    }
    engine: CAFFE
  }
}
layer {
  name: "loc_bn2a_branch1"
  type: "BN"
  bottom: "loc_res2a_branch1"
  top: "loc_bn2a_branch1"
  param {
    lr_mult: 1
    decay_mult: 0
  }
  param {
    lr_mult: 1
    decay_mult: 0
  }
  param {
    lr_mult: 0
  }
  param {
    lr_mult: 0
  }
  bn_param {
    slope_filler {
      type: "constant"
      value: 1
    }
    bias_filler {
      type: "constant"
      value: 0
    }
    frozen: true
  }
}
layer {
  name: "loc_res2a_branch2a"
  type: "Convolution"
  bottom: "loc_pool1"
  top: "loc_res2a_branch2a"
  param {
    lr_mult: 1
    decay_mult: 1
  }
  convolution_param {
    num_output: 64
    bias_term: false
    pad: 0
    pad: 0
    pad: 0
    kernel_size: 1
    kernel_size: 1
    kernel_size: 1
    stride: 1
    stride: 1
    stride: 1
    weight_filler {
      type: "gaussian"
      std: 0.001
    }
    engine: CAFFE
  }
}
layer {
  name: "loc_bn2a_branch2a"
  type: "BN"
  bottom: "loc_res2a_branch2a"
  top: "loc_bn2a_branch2a"
  param {
    lr_mult: 1
    decay_mult: 0
  }
  param {
    lr_mult: 1
    decay_mult: 0
  }
  param {
    lr_mult: 0
  }
  param {
    lr_mult: 0
  }
  bn_param {
    slope_filler {
      type: "constant"
      value: 1
    }
    bias_filler {
      type: "constant"
      value: 0
    }
    frozen: true
  }
}
layer {
  name: "loc_res2a_branch2a_relu"
  type: "ReLU"
  bottom: "loc_bn2a_branch2a"
  top: "loc_bn2a_branch2a"
  relu_param {
    engine: CAFFE
  }
}
layer {
  name: "loc_res2a_branch2b"
  type: "Convolution"
  bottom: "loc_bn2a_branch2a"
  top: "loc_res2a_branch2b"
  param {
    lr_mult: 1
    decay_mult: 1
  }
  convolution_param {
    num_output: 64
    bias_term: false
    pad: 0
    pad: 1
    pad: 1
    kernel_size: 1
    kernel_size: 3
    kernel_size: 3
    stride: 1
    stride: 1
    stride: 1
    weight_filler {
      type: "gaussian"
      std: 0.001
    }
    engine: CAFFE
  }
}
layer {
  name: "loc_bn2a_branch2b"
  type: "BN"
  bottom: "loc_res2a_branch2b"
  top: "loc_bn2a_branch2b"
  param {
    lr_mult: 1
    decay_mult: 0
  }
  param {
    lr_mult: 1
    decay_mult: 0
  }
  param {
    lr_mult: 0
  }
  param {
    lr_mult: 0
  }
  bn_param {
    slope_filler {
      type: "constant"
      value: 1
    }
    bias_filler {
      type: "constant"
      value: 0
    }
    frozen: true
  }
}
layer {
  name: "loc_res2a_branch2b_relu"
  type: "ReLU"
  bottom: "loc_bn2a_branch2b"
  top: "loc_bn2a_branch2b"
  relu_param {
    engine: CAFFE
  }
}
layer {
  name: "loc_res2a_branch2b_t"
  type: "Convolution"
  bottom: "loc_bn2a_branch2b"
  top: "loc_res2a_branch2b_t"
  param {
    lr_mult: 1
    decay_mult: 1
  }
  convolution_param {
    num_output: 64
    bias_term: false
    pad: 1
    pad: 0
    pad: 0
    kernel_size: 3
    kernel_size: 1
    kernel_size: 1
    stride: 1
    stride: 1
    stride: 1
    weight_filler {
      type: "gaussian"
      std: 0.001
    }
    engine: CAFFE
  }
}
layer {
  name: "loc_bn2a_branch2b_t"
  type: "BN"
  bottom: "loc_res2a_branch2b_t"
  top: "loc_bn2a_branch2b_t"
  param {
    lr_mult: 1
    decay_mult: 0
  }
  param {
    lr_mult: 1
    decay_mult: 0
  }
  param {
    lr_mult: 0
  }
  param {
    lr_mult: 0
  }
  bn_param {
    slope_filler {
      type: "constant"
      value: 1
    }
    bias_filler {
      type: "constant"
      value: 0
    }
    frozen: true
  }
}
layer {
  name: "loc_res2a_branch2b_t_relu"
  type: "ReLU"
  bottom: "loc_bn2a_branch2b_t"
  top: "loc_bn2a_branch2b_t"
  relu_param {
    engine: CAFFE
  }
}
layer {
  name: "loc_res2a_branch2c"
  type: "Convolution"
  bottom: "loc_bn2a_branch2b_t"
  top: "loc_res2a_branch2c"
  param {
    lr_mult: 1
    decay_mult: 1
  }
  convolution_param {
    num_output: 256
    bias_term: false
    pad: 0
    pad: 0
    pad: 0
    kernel_size: 1
    kernel_size: 1
    kernel_size: 1
    stride: 1
    stride: 1
    stride: 1
    weight_filler {
      type: "gaussian"
      std: 0.001
    }
    engine: CAFFE
  }
}
layer {
  name: "loc_bn2a_branch2c"
  type: "BN"
  bottom: "loc_res2a_branch2c"
  top: "loc_bn2a_branch2c"
  param {
    lr_mult: 1
    decay_mult: 0
  }
  param {
    lr_mult: 1
    decay_mult: 0
  }
  param {
    lr_mult: 0
  }
  param {
    lr_mult: 0
  }
  bn_param {
    slope_filler {
      type: "constant"
      value: 1
    }
    bias_filler {
      type: "constant"
      value: 0
    }
    frozen: true
  }
}
layer {
  name: "loc_res2a"
  type: "Eltwise"
  bottom: "loc_bn2a_branch1"
  bottom: "loc_bn2a_branch2c"
  top: "loc_res2a"
  eltwise_param {
    operation: SUM
  }
}
layer {
  name: "loc_res2a_relu"
  type: "ReLU"
  bottom: "loc_res2a"
  top: "loc_res2a"
  relu_param {
    engine: CAFFE
  }
}
layer {
  name: "loc_pool2"
  type: "Pooling3D"
  bottom: "loc_res2a"
  top: "loc_pool2"
  pooling3d_param {
    pool: MAX
    pad: 0
    kernel_size: 1
    stride: 1
    pad_l: 0
    kernel_l: 2
    stride_l: 2
  }
}
layer {
  name: "loc_ip1"
  type: "InnerProduct"
  bottom: "loc_pool2"
  top: "loc_ip1"
  param {
    lr_mult: 10
    decay_mult: 1
  }
  param {
    lr_mult: 20
    decay_mult: 0
  }
  inner_product_param {
    num_output: 64
    weight_filler {
      type: "gaussian"
      std: 0.001
    }
    bias_filler {
      type: "constant"
      value: 0
    }
  }
}
layer {
  name: "loc_relu1"
  type: "ReLU"
  bottom: "loc_ip1"
  top: "loc_ip1"
}
layer {
  name: "loc_ip2"
  type: "InnerProduct"
  bottom: "loc_ip1"
  top: "theta"
  param {
    lr_mult: 10
    decay_mult: 1
  }
  param {
    lr_mult: 12
    decay_mult: 0
  }
  inner_product_param {
    num_output: 12
    weight_filler {
      type: "constant"
      value: 0
    }
    bias_filler {
      type: "file"
      file: "examples/mnist_tests/bias_init.txt"
    }
  }
}
layer {
  name: "trist_layer"
  type: "TridimSpatialTransformer"
  bottom: "data"
  bottom: "theta"
  top: "trist_output"
}
layer {
  name: "conv1"
  type: "Convolution"
  bottom: "trist_output"
  top: "conv1"
  param {
    lr_mult: 1
    decay_mult: 1
  }
  convolution_param {
    num_output: 64
    bias_term: false
    pad: 0
    pad: 3
    pad: 3
    kernel_size: 1
    kernel_size: 7
    kernel_size: 7
    stride: 1
    stride: 2
    stride: 2
    weight_filler {
      type: "gaussian"
      std: 0.001
    }
    engine: CAFFE
  }
}
layer {
  name: "bn_conv1"
  type: "BN"
  bottom: "conv1"
  top: "bn_conv1"
  param {
    lr_mult: 1
    decay_mult: 0
  }
  param {
    lr_mult: 1
    decay_mult: 0
  }
  param {
    lr_mult: 0
  }
  param {
    lr_mult: 0
  }
  bn_param {
    slope_filler {
      type: "constant"
      value: 1
    }
    bias_filler {
      type: "constant"
      value: 0
    }
    frozen: false
  }
}
layer {
  name: "conv1_relu"
  type: "ReLU"
  bottom: "bn_conv1"
  top: "bn_conv1"
  relu_param {
    engine: CAFFE
  }
}
layer {
  name: "pool1"
  type: "Pooling3D"
  bottom: "bn_conv1"
  top: "pool1"
  pooling3d_param {
    pool: MAX
    pad: 0
    kernel_size: 3
    stride: 2
    pad_l: 0
    kernel_l: 2
    stride_l: 2
  }
}
layer {
  name: "res2a_branch1"
  type: "Convolution"
  bottom: "pool1"
  top: "res2a_branch1"
  param {
    lr_mult: 1
    decay_mult: 1
  }
  convolution_param {
    num_output: 256
    bias_term: false
    pad: 0
    pad: 0
    pad: 0
    kernel_size: 1
    kernel_size: 1
    kernel_size: 1
    stride: 1
    stride: 1
    stride: 1
    weight_filler {
      type: "gaussian"
      std: 0.001
    }
    engine: CAFFE
  }
}
layer {
  name: "bn2a_branch1"
  type: "BN"
  bottom: "res2a_branch1"
  top: "bn2a_branch1"
  param {
    lr_mult: 1
    decay_mult: 0
  }
  param {
    lr_mult: 1
    decay_mult: 0
  }
  param {
    lr_mult: 0
  }
  param {
    lr_mult: 0
  }
  bn_param {
    slope_filler {
      type: "constant"
      value: 1
    }
    bias_filler {
      type: "constant"
      value: 0
    }
    frozen: true
  }
}
layer {
  name: "res2a_branch2a"
  type: "Convolution"
  bottom: "pool1"
  top: "res2a_branch2a"
  param {
    lr_mult: 1
    decay_mult: 1
  }
  convolution_param {
    num_output: 64
    bias_term: false
    pad: 0
    pad: 0
    pad: 0
    kernel_size: 1
    kernel_size: 1
    kernel_size: 1
    stride: 1
    stride: 1
    stride: 1
    weight_filler {
      type: "gaussian"
      std: 0.001
    }
    engine: CAFFE
  }
}
layer {
  name: "bn2a_branch2a"
  type: "BN"
  bottom: "res2a_branch2a"
  top: "bn2a_branch2a"
  param {
    lr_mult: 1
    decay_mult: 0
  }
  param {
    lr_mult: 1
    decay_mult: 0
  }
  param {
    lr_mult: 0
  }
  param {
    lr_mult: 0
  }
  bn_param {
    slope_filler {
      type: "constant"
      value: 1
    }
    bias_filler {
      type: "constant"
      value: 0
    }
    frozen: true
  }
}
layer {
  name: "res2a_branch2a_relu"
  type: "ReLU"
  bottom: "bn2a_branch2a"
  top: "bn2a_branch2a"
  relu_param {
    engine: CAFFE
  }
}
layer {
  name: "res2a_branch2b"
  type: "Convolution"
  bottom: "bn2a_branch2a"
  top: "res2a_branch2b"
  param {
    lr_mult: 1
    decay_mult: 1
  }
  convolution_param {
    num_output: 64
    bias_term: false
    pad: 0
    pad: 1
    pad: 1
    kernel_size: 1
    kernel_size: 3
    kernel_size: 3
    stride: 1
    stride: 1
    stride: 1
    weight_filler {
      type: "gaussian"
      std: 0.001
    }
    engine: CAFFE
  }
}
layer {
  name: "bn2a_branch2b"
  type: "BN"
  bottom: "res2a_branch2b"
  top: "bn2a_branch2b"
  param {
    lr_mult: 1
    decay_mult: 0
  }
  param {
    lr_mult: 1
    decay_mult: 0
  }
  param {
    lr_mult: 0
  }
  param {
    lr_mult: 0
  }
  bn_param {
    slope_filler {
      type: "constant"
      value: 1
    }
    bias_filler {
      type: "constant"
      value: 0
    }
    frozen: true
  }
}
layer {
  name: "res2a_branch2b_relu"
  type: "ReLU"
  bottom: "bn2a_branch2b"
  top: "bn2a_branch2b"
  relu_param {
    engine: CAFFE
  }
}
layer {
  name: "res2a_branch2b_t"
  type: "Convolution"
  bottom: "bn2a_branch2b"
  top: "res2a_branch2b_t"
  param {
    lr_mult: 1
    decay_mult: 1
  }
  convolution_param {
    num_output: 64
    bias_term: false
    pad: 1
    pad: 0
    pad: 0
    kernel_size: 3
    kernel_size: 1
    kernel_size: 1
    stride: 1
    stride: 1
    stride: 1
    weight_filler {
      type: "gaussian"
      std: 0.001
    }
    engine: CAFFE
  }
}
layer {
  name: "bn2a_branch2b_t"
  type: "BN"
  bottom: "res2a_branch2b_t"
  top: "bn2a_branch2b_t"
  param {
    lr_mult: 1
    decay_mult: 0
  }
  param {
    lr_mult: 1
    decay_mult: 0
  }
  param {
    lr_mult: 0
  }
  param {
    lr_mult: 0
  }
  bn_param {
    slope_filler {
      type: "constant"
      value: 1
    }
    bias_filler {
      type: "constant"
      value: 0
    }
    frozen: true
  }
}
layer {
  name: "res2a_branch2b_t_relu"
  type: "ReLU"
  bottom: "bn2a_branch2b_t"
  top: "bn2a_branch2b_t"
  relu_param {
    engine: CAFFE
  }
}
layer {
  name: "res2a_branch2c"
  type: "Convolution"
  bottom: "bn2a_branch2b_t"
  top: "res2a_branch2c"
  param {
    lr_mult: 1
    decay_mult: 1
  }
  convolution_param {
    num_output: 256
    bias_term: false
    pad: 0
    pad: 0
    pad: 0
    kernel_size: 1
    kernel_size: 1
    kernel_size: 1
    stride: 1
    stride: 1
    stride: 1
    weight_filler {
      type: "gaussian"
      std: 0.001
    }
    engine: CAFFE
  }
}
layer {
  name: "bn2a_branch2c"
  type: "BN"
  bottom: "res2a_branch2c"
  top: "bn2a_branch2c"
  param {
    lr_mult: 1
    decay_mult: 0
  }
  param {
    lr_mult: 1
    decay_mult: 0
  }
  param {
    lr_mult: 0
  }
  param {
    lr_mult: 0
  }
  bn_param {
    slope_filler {
      type: "constant"
      value: 1
    }
    bias_filler {
      type: "constant"
      value: 0
    }
    frozen: true
  }
}
layer {
  name: "res2a"
  type: "Eltwise"
  bottom: "bn2a_branch1"
  bottom: "bn2a_branch2c"
  top: "res2a"
  eltwise_param {
    operation: SUM
  }
}
layer {
  name: "res2a_relu"
  type: "ReLU"
  bottom: "res2a"
  top: "res2a"
  relu_param {
    engine: CAFFE
  }
}
layer {
  name: "pool2"
  type: "Pooling3D"
  bottom: "res2a"
  top: "pool2"
  pooling3d_param {
    pool: MAX
    pad: 0
    kernel_size: 1
    stride: 1
    pad_l: 0
    kernel_l: 2
    stride_l: 2
  }
}
layer {
  name: "ip1"
  type: "InnerProduct"
  bottom: "pool2"
  top: "ip1"
  param {
    lr_mult: 10
    decay_mult: 1
  }
  param {
    lr_mult: 20
    decay_mult: 0
  }
  inner_product_param {
    num_output: 3
    weight_filler {
      type: "gaussian"
      std: 0.001
    }
    bias_filler {
      type: "constant"
      value: 0
    }
  }
}
layer {
  name: "loss"
  type: "SoftmaxWithLoss"
  bottom: "ip1"
  bottom: "label"
  top: "loss"
}
I1215 17:07:24.540741  2028 layer_factory.hpp:77] Creating layer data
I1215 17:07:24.545517  2028 net.cpp:84] Creating Layer data
I1215 17:07:24.545581  2028 net.cpp:380] data -> data
I1215 17:07:24.548344  2028 net.cpp:380] data -> label
I1215 17:07:24.548734  2028 tridim_data_layer.cpp:67] Opening file /data2/xyyu/datasets/train_3.lst
I1215 17:07:24.596493  2028 tridim_data_layer.cpp:130] Shuffling data
I1215 17:07:24.597352  2028 tridim_data_layer.cpp:140] A total of 20698 tridim chunks.
I1215 17:07:24.621326  2028 tridim_data_layer.cpp:182] output data size: 10,3,10,120,120
I1215 17:07:24.905779  2028 net.cpp:122] Setting up data
I1215 17:07:24.905824  2028 net.cpp:129] Top shape: 10 3 10 120 120 (4320000)
I1215 17:07:24.905864  2028 net.cpp:129] Top shape: 10 (10)
I1215 17:07:24.905874  2028 net.cpp:137] Memory required for data: 17280040
I1215 17:07:24.905889  2028 layer_factory.hpp:77] Creating layer data_data_0_split
I1215 17:07:24.905906  2028 net.cpp:84] Creating Layer data_data_0_split
I1215 17:07:24.905922  2028 net.cpp:406] data_data_0_split <- data
I1215 17:07:24.905937  2028 net.cpp:380] data_data_0_split -> data_data_0_split_0
I1215 17:07:24.905951  2028 net.cpp:380] data_data_0_split -> data_data_0_split_1
I1215 17:07:24.905999  2028 net.cpp:122] Setting up data_data_0_split
I1215 17:07:24.906010  2028 net.cpp:129] Top shape: 10 3 10 120 120 (4320000)
I1215 17:07:24.906018  2028 net.cpp:129] Top shape: 10 3 10 120 120 (4320000)
I1215 17:07:24.906023  2028 net.cpp:137] Memory required for data: 51840040
I1215 17:07:24.906028  2028 layer_factory.hpp:77] Creating layer loc_conv1
I1215 17:07:24.906046  2028 net.cpp:84] Creating Layer loc_conv1
I1215 17:07:24.906054  2028 net.cpp:406] loc_conv1 <- data_data_0_split_0
I1215 17:07:24.906062  2028 net.cpp:380] loc_conv1 -> loc_conv1
I1215 17:07:24.912268  2028 net.cpp:122] Setting up loc_conv1
I1215 17:07:24.912287  2028 net.cpp:129] Top shape: 10 64 10 60 60 (23040000)
I1215 17:07:24.912294  2028 net.cpp:137] Memory required for data: 144000040
I1215 17:07:24.912309  2028 layer_factory.hpp:77] Creating layer loc_bn_conv1
I1215 17:07:24.912971  2028 net.cpp:84] Creating Layer loc_bn_conv1
I1215 17:07:24.912989  2028 net.cpp:406] loc_bn_conv1 <- loc_conv1
I1215 17:07:24.912998  2028 net.cpp:380] loc_bn_conv1 -> loc_bn_conv1
I1215 17:07:24.917953  2028 net.cpp:122] Setting up loc_bn_conv1
I1215 17:07:24.917995  2028 net.cpp:129] Top shape: 10 64 10 60 60 (23040000)
I1215 17:07:24.918006  2028 net.cpp:137] Memory required for data: 236160040
I1215 17:07:24.918021  2028 layer_factory.hpp:77] Creating layer loc_conv1_relu
I1215 17:07:24.918321  2028 net.cpp:84] Creating Layer loc_conv1_relu
I1215 17:07:24.918334  2028 net.cpp:406] loc_conv1_relu <- loc_bn_conv1
I1215 17:07:24.918340  2028 net.cpp:367] loc_conv1_relu -> loc_bn_conv1 (in-place)
I1215 17:07:24.918354  2028 net.cpp:122] Setting up loc_conv1_relu
I1215 17:07:24.918362  2028 net.cpp:129] Top shape: 10 64 10 60 60 (23040000)
I1215 17:07:24.918367  2028 net.cpp:137] Memory required for data: 328320040
I1215 17:07:24.918375  2028 layer_factory.hpp:77] Creating layer loc_pool1
I1215 17:07:24.918385  2028 net.cpp:84] Creating Layer loc_pool1
I1215 17:07:24.918390  2028 net.cpp:406] loc_pool1 <- loc_bn_conv1
I1215 17:07:24.918396  2028 net.cpp:380] loc_pool1 -> loc_pool1
I1215 17:07:24.918437  2028 net.cpp:122] Setting up loc_pool1
I1215 17:07:24.918448  2028 net.cpp:129] Top shape: 10 64 5 30 30 (2880000)
I1215 17:07:24.918453  2028 net.cpp:137] Memory required for data: 339840040
I1215 17:07:24.918460  2028 layer_factory.hpp:77] Creating layer loc_pool1_loc_pool1_0_split
I1215 17:07:24.918468  2028 net.cpp:84] Creating Layer loc_pool1_loc_pool1_0_split
I1215 17:07:24.918473  2028 net.cpp:406] loc_pool1_loc_pool1_0_split <- loc_pool1
I1215 17:07:24.918479  2028 net.cpp:380] loc_pool1_loc_pool1_0_split -> loc_pool1_loc_pool1_0_split_0
I1215 17:07:24.918488  2028 net.cpp:380] loc_pool1_loc_pool1_0_split -> loc_pool1_loc_pool1_0_split_1
I1215 17:07:24.918514  2028 net.cpp:122] Setting up loc_pool1_loc_pool1_0_split
I1215 17:07:24.918522  2028 net.cpp:129] Top shape: 10 64 5 30 30 (2880000)
I1215 17:07:24.918529  2028 net.cpp:129] Top shape: 10 64 5 30 30 (2880000)
I1215 17:07:24.918534  2028 net.cpp:137] Memory required for data: 362880040
I1215 17:07:24.918539  2028 layer_factory.hpp:77] Creating layer loc_res2a_branch1
I1215 17:07:24.918548  2028 net.cpp:84] Creating Layer loc_res2a_branch1
I1215 17:07:24.918555  2028 net.cpp:406] loc_res2a_branch1 <- loc_pool1_loc_pool1_0_split_0
I1215 17:07:24.918561  2028 net.cpp:380] loc_res2a_branch1 -> loc_res2a_branch1
I1215 17:07:24.919085  2028 net.cpp:122] Setting up loc_res2a_branch1
I1215 17:07:24.919096  2028 net.cpp:129] Top shape: 10 256 5 30 30 (11520000)
I1215 17:07:24.919119  2028 net.cpp:137] Memory required for data: 408960040
I1215 17:07:24.919127  2028 layer_factory.hpp:77] Creating layer loc_bn2a_branch1
I1215 17:07:24.919138  2028 net.cpp:84] Creating Layer loc_bn2a_branch1
I1215 17:07:24.919144  2028 net.cpp:406] loc_bn2a_branch1 <- loc_res2a_branch1
I1215 17:07:24.919152  2028 net.cpp:380] loc_bn2a_branch1 -> loc_bn2a_branch1
I1215 17:07:24.919288  2028 net.cpp:122] Setting up loc_bn2a_branch1
I1215 17:07:24.919299  2028 net.cpp:129] Top shape: 10 256 5 30 30 (11520000)
I1215 17:07:24.919304  2028 net.cpp:137] Memory required for data: 455040040
I1215 17:07:24.919317  2028 layer_factory.hpp:77] Creating layer loc_res2a_branch2a
I1215 17:07:24.919327  2028 net.cpp:84] Creating Layer loc_res2a_branch2a
I1215 17:07:24.919332  2028 net.cpp:406] loc_res2a_branch2a <- loc_pool1_loc_pool1_0_split_1
I1215 17:07:24.919339  2028 net.cpp:380] loc_res2a_branch2a -> loc_res2a_branch2a
I1215 17:07:25.010788  2028 net.cpp:122] Setting up loc_res2a_branch2a
I1215 17:07:25.010821  2028 net.cpp:129] Top shape: 10 64 5 30 30 (2880000)
I1215 17:07:25.010828  2028 net.cpp:137] Memory required for data: 466560040
I1215 17:07:25.010838  2028 layer_factory.hpp:77] Creating layer loc_bn2a_branch2a
I1215 17:07:25.010854  2028 net.cpp:84] Creating Layer loc_bn2a_branch2a
I1215 17:07:25.010860  2028 net.cpp:406] loc_bn2a_branch2a <- loc_res2a_branch2a
I1215 17:07:25.010869  2028 net.cpp:380] loc_bn2a_branch2a -> loc_bn2a_branch2a
I1215 17:07:25.011065  2028 net.cpp:122] Setting up loc_bn2a_branch2a
I1215 17:07:25.011085  2028 net.cpp:129] Top shape: 10 64 5 30 30 (2880000)
I1215 17:07:25.011091  2028 net.cpp:137] Memory required for data: 478080040
I1215 17:07:25.011101  2028 layer_factory.hpp:77] Creating layer loc_res2a_branch2a_relu
I1215 17:07:25.011111  2028 net.cpp:84] Creating Layer loc_res2a_branch2a_relu
I1215 17:07:25.011116  2028 net.cpp:406] loc_res2a_branch2a_relu <- loc_bn2a_branch2a
I1215 17:07:25.011123  2028 net.cpp:367] loc_res2a_branch2a_relu -> loc_bn2a_branch2a (in-place)
I1215 17:07:25.011132  2028 net.cpp:122] Setting up loc_res2a_branch2a_relu
I1215 17:07:25.011138  2028 net.cpp:129] Top shape: 10 64 5 30 30 (2880000)
I1215 17:07:25.011143  2028 net.cpp:137] Memory required for data: 489600040
I1215 17:07:25.011148  2028 layer_factory.hpp:77] Creating layer loc_res2a_branch2b
I1215 17:07:25.011160  2028 net.cpp:84] Creating Layer loc_res2a_branch2b
I1215 17:07:25.011167  2028 net.cpp:406] loc_res2a_branch2b <- loc_bn2a_branch2a
I1215 17:07:25.011173  2028 net.cpp:380] loc_res2a_branch2b -> loc_res2a_branch2b
I1215 17:07:25.012183  2028 net.cpp:122] Setting up loc_res2a_branch2b
I1215 17:07:25.012195  2028 net.cpp:129] Top shape: 10 64 5 30 30 (2880000)
I1215 17:07:25.012202  2028 net.cpp:137] Memory required for data: 501120040
I1215 17:07:25.012207  2028 layer_factory.hpp:77] Creating layer loc_bn2a_branch2b
I1215 17:07:25.012217  2028 net.cpp:84] Creating Layer loc_bn2a_branch2b
I1215 17:07:25.012221  2028 net.cpp:406] loc_bn2a_branch2b <- loc_res2a_branch2b
I1215 17:07:25.012229  2028 net.cpp:380] loc_bn2a_branch2b -> loc_bn2a_branch2b
I1215 17:07:25.012379  2028 net.cpp:122] Setting up loc_bn2a_branch2b
I1215 17:07:25.012390  2028 net.cpp:129] Top shape: 10 64 5 30 30 (2880000)
I1215 17:07:25.012396  2028 net.cpp:137] Memory required for data: 512640040
I1215 17:07:25.012408  2028 layer_factory.hpp:77] Creating layer loc_res2a_branch2b_relu
I1215 17:07:25.012416  2028 net.cpp:84] Creating Layer loc_res2a_branch2b_relu
I1215 17:07:25.012423  2028 net.cpp:406] loc_res2a_branch2b_relu <- loc_bn2a_branch2b
I1215 17:07:25.012428  2028 net.cpp:367] loc_res2a_branch2b_relu -> loc_bn2a_branch2b (in-place)
I1215 17:07:25.012435  2028 net.cpp:122] Setting up loc_res2a_branch2b_relu
I1215 17:07:25.012441  2028 net.cpp:129] Top shape: 10 64 5 30 30 (2880000)
I1215 17:07:25.012447  2028 net.cpp:137] Memory required for data: 524160040
I1215 17:07:25.012452  2028 layer_factory.hpp:77] Creating layer loc_res2a_branch2b_t
I1215 17:07:25.012462  2028 net.cpp:84] Creating Layer loc_res2a_branch2b_t
I1215 17:07:25.012493  2028 net.cpp:406] loc_res2a_branch2b_t <- loc_bn2a_branch2b
I1215 17:07:25.012503  2028 net.cpp:380] loc_res2a_branch2b_t -> loc_res2a_branch2b_t
I1215 17:07:25.012920  2028 net.cpp:122] Setting up loc_res2a_branch2b_t
I1215 17:07:25.012931  2028 net.cpp:129] Top shape: 10 64 5 30 30 (2880000)
I1215 17:07:25.012938  2028 net.cpp:137] Memory required for data: 535680040
I1215 17:07:25.012943  2028 layer_factory.hpp:77] Creating layer loc_bn2a_branch2b_t
I1215 17:07:25.012954  2028 net.cpp:84] Creating Layer loc_bn2a_branch2b_t
I1215 17:07:25.012960  2028 net.cpp:406] loc_bn2a_branch2b_t <- loc_res2a_branch2b_t
I1215 17:07:25.012969  2028 net.cpp:380] loc_bn2a_branch2b_t -> loc_bn2a_branch2b_t
I1215 17:07:25.013116  2028 net.cpp:122] Setting up loc_bn2a_branch2b_t
I1215 17:07:25.013128  2028 net.cpp:129] Top shape: 10 64 5 30 30 (2880000)
I1215 17:07:25.013134  2028 net.cpp:137] Memory required for data: 547200040
I1215 17:07:25.013141  2028 layer_factory.hpp:77] Creating layer loc_res2a_branch2b_t_relu
I1215 17:07:25.013149  2028 net.cpp:84] Creating Layer loc_res2a_branch2b_t_relu
I1215 17:07:25.013155  2028 net.cpp:406] loc_res2a_branch2b_t_relu <- loc_bn2a_branch2b_t
I1215 17:07:25.013161  2028 net.cpp:367] loc_res2a_branch2b_t_relu -> loc_bn2a_branch2b_t (in-place)
I1215 17:07:25.013169  2028 net.cpp:122] Setting up loc_res2a_branch2b_t_relu
I1215 17:07:25.013175  2028 net.cpp:129] Top shape: 10 64 5 30 30 (2880000)
I1215 17:07:25.013180  2028 net.cpp:137] Memory required for data: 558720040
I1215 17:07:25.013185  2028 layer_factory.hpp:77] Creating layer loc_res2a_branch2c
I1215 17:07:25.013192  2028 net.cpp:84] Creating Layer loc_res2a_branch2c
I1215 17:07:25.013197  2028 net.cpp:406] loc_res2a_branch2c <- loc_bn2a_branch2b_t
I1215 17:07:25.013204  2028 net.cpp:380] loc_res2a_branch2c -> loc_res2a_branch2c
I1215 17:07:25.013718  2028 net.cpp:122] Setting up loc_res2a_branch2c
I1215 17:07:25.013728  2028 net.cpp:129] Top shape: 10 256 5 30 30 (11520000)
I1215 17:07:25.013733  2028 net.cpp:137] Memory required for data: 604800040
I1215 17:07:25.013739  2028 layer_factory.hpp:77] Creating layer loc_bn2a_branch2c
I1215 17:07:25.013747  2028 net.cpp:84] Creating Layer loc_bn2a_branch2c
I1215 17:07:25.013753  2028 net.cpp:406] loc_bn2a_branch2c <- loc_res2a_branch2c
I1215 17:07:25.013761  2028 net.cpp:380] loc_bn2a_branch2c -> loc_bn2a_branch2c
I1215 17:07:25.013895  2028 net.cpp:122] Setting up loc_bn2a_branch2c
I1215 17:07:25.013906  2028 net.cpp:129] Top shape: 10 256 5 30 30 (11520000)
I1215 17:07:25.013911  2028 net.cpp:137] Memory required for data: 650880040
I1215 17:07:25.013918  2028 layer_factory.hpp:77] Creating layer loc_res2a
I1215 17:07:25.013931  2028 net.cpp:84] Creating Layer loc_res2a
I1215 17:07:25.013937  2028 net.cpp:406] loc_res2a <- loc_bn2a_branch1
I1215 17:07:25.013943  2028 net.cpp:406] loc_res2a <- loc_bn2a_branch2c
I1215 17:07:25.013949  2028 net.cpp:380] loc_res2a -> loc_res2a
I1215 17:07:25.013975  2028 net.cpp:122] Setting up loc_res2a
I1215 17:07:25.013983  2028 net.cpp:129] Top shape: 10 256 5 30 30 (11520000)
I1215 17:07:25.013988  2028 net.cpp:137] Memory required for data: 696960040
I1215 17:07:25.013993  2028 layer_factory.hpp:77] Creating layer loc_res2a_relu
I1215 17:07:25.014000  2028 net.cpp:84] Creating Layer loc_res2a_relu
I1215 17:07:25.014005  2028 net.cpp:406] loc_res2a_relu <- loc_res2a
I1215 17:07:25.014011  2028 net.cpp:367] loc_res2a_relu -> loc_res2a (in-place)
I1215 17:07:25.014019  2028 net.cpp:122] Setting up loc_res2a_relu
I1215 17:07:25.014024  2028 net.cpp:129] Top shape: 10 256 5 30 30 (11520000)
I1215 17:07:25.014029  2028 net.cpp:137] Memory required for data: 743040040
I1215 17:07:25.014034  2028 layer_factory.hpp:77] Creating layer loc_pool2
I1215 17:07:25.014042  2028 net.cpp:84] Creating Layer loc_pool2
I1215 17:07:25.014047  2028 net.cpp:406] loc_pool2 <- loc_res2a
I1215 17:07:25.014053  2028 net.cpp:380] loc_pool2 -> loc_pool2
I1215 17:07:25.014084  2028 net.cpp:122] Setting up loc_pool2
I1215 17:07:25.014103  2028 net.cpp:129] Top shape: 10 256 3 30 30 (6912000)
I1215 17:07:25.014109  2028 net.cpp:137] Memory required for data: 770688040
I1215 17:07:25.014114  2028 layer_factory.hpp:77] Creating layer loc_ip1
I1215 17:07:25.014125  2028 net.cpp:84] Creating Layer loc_ip1
I1215 17:07:25.014130  2028 net.cpp:406] loc_ip1 <- loc_pool2
I1215 17:07:25.014137  2028 net.cpp:380] loc_ip1 -> loc_ip1
I1215 17:07:26.400084  2028 net.cpp:122] Setting up loc_ip1
I1215 17:07:26.400118  2028 net.cpp:129] Top shape: 10 64 (640)
I1215 17:07:26.400125  2028 net.cpp:137] Memory required for data: 770690600
I1215 17:07:26.400136  2028 layer_factory.hpp:77] Creating layer loc_relu1
I1215 17:07:26.400148  2028 net.cpp:84] Creating Layer loc_relu1
I1215 17:07:26.400156  2028 net.cpp:406] loc_relu1 <- loc_ip1
I1215 17:07:26.400163  2028 net.cpp:367] loc_relu1 -> loc_ip1 (in-place)
I1215 17:07:27.388664  2028 net.cpp:122] Setting up loc_relu1
I1215 17:07:27.388700  2028 net.cpp:129] Top shape: 10 64 (640)
I1215 17:07:27.388710  2028 net.cpp:137] Memory required for data: 770693160
I1215 17:07:27.388717  2028 layer_factory.hpp:77] Creating layer loc_ip2
I1215 17:07:27.388732  2028 net.cpp:84] Creating Layer loc_ip2
I1215 17:07:27.388741  2028 net.cpp:406] loc_ip2 <- loc_ip1
I1215 17:07:27.388752  2028 net.cpp:380] loc_ip2 -> theta
I1215 17:07:27.405666  2028 net.cpp:122] Setting up loc_ip2
I1215 17:07:27.405694  2028 net.cpp:129] Top shape: 10 12 (120)
I1215 17:07:27.405704  2028 net.cpp:137] Memory required for data: 770693640
I1215 17:07:27.405730  2028 layer_factory.hpp:77] Creating layer trist_layer
I1215 17:07:27.421455  2028 net.cpp:84] Creating Layer trist_layer
I1215 17:07:27.421494  2028 net.cpp:406] trist_layer <- data_data_0_split_1
I1215 17:07:27.421510  2028 net.cpp:406] trist_layer <- theta
I1215 17:07:27.421525  2028 net.cpp:380] trist_layer -> trist_output
I1215 17:07:27.425629  2028 net.cpp:122] Setting up trist_layer
I1215 17:07:27.425652  2028 net.cpp:129] Top shape: 10 3 10 120 120 (4320000)
I1215 17:07:27.425663  2028 net.cpp:137] Memory required for data: 787973640
I1215 17:07:27.425674  2028 layer_factory.hpp:77] Creating layer conv1
I1215 17:07:27.425696  2028 net.cpp:84] Creating Layer conv1
I1215 17:07:27.425714  2028 net.cpp:406] conv1 <- trist_output
I1215 17:07:27.425730  2028 net.cpp:380] conv1 -> conv1
I1215 17:07:27.426111  2028 net.cpp:122] Setting up conv1
I1215 17:07:27.426127  2028 net.cpp:129] Top shape: 10 64 10 60 60 (23040000)
I1215 17:07:27.426137  2028 net.cpp:137] Memory required for data: 880133640
I1215 17:07:27.426149  2028 layer_factory.hpp:77] Creating layer bn_conv1
I1215 17:07:27.426165  2028 net.cpp:84] Creating Layer bn_conv1
I1215 17:07:27.426175  2028 net.cpp:406] bn_conv1 <- conv1
I1215 17:07:27.426187  2028 net.cpp:380] bn_conv1 -> bn_conv1
I1215 17:07:27.426388  2028 net.cpp:122] Setting up bn_conv1
I1215 17:07:27.426404  2028 net.cpp:129] Top shape: 10 64 10 60 60 (23040000)
I1215 17:07:27.426414  2028 net.cpp:137] Memory required for data: 972293640
I1215 17:07:27.426429  2028 layer_factory.hpp:77] Creating layer conv1_relu
I1215 17:07:27.426443  2028 net.cpp:84] Creating Layer conv1_relu
I1215 17:07:27.426453  2028 net.cpp:406] conv1_relu <- bn_conv1
I1215 17:07:27.426465  2028 net.cpp:367] conv1_relu -> bn_conv1 (in-place)
I1215 17:07:27.426479  2028 net.cpp:122] Setting up conv1_relu
I1215 17:07:27.426491  2028 net.cpp:129] Top shape: 10 64 10 60 60 (23040000)
I1215 17:07:27.426499  2028 net.cpp:137] Memory required for data: 1064453640
I1215 17:07:27.426508  2028 layer_factory.hpp:77] Creating layer pool1
I1215 17:07:27.426522  2028 net.cpp:84] Creating Layer pool1
I1215 17:07:27.426532  2028 net.cpp:406] pool1 <- bn_conv1
I1215 17:07:27.426542  2028 net.cpp:380] pool1 -> pool1
I1215 17:07:27.426590  2028 net.cpp:122] Setting up pool1
I1215 17:07:27.426604  2028 net.cpp:129] Top shape: 10 64 5 30 30 (2880000)
I1215 17:07:27.426614  2028 net.cpp:137] Memory required for data: 1075973640
I1215 17:07:27.426625  2028 layer_factory.hpp:77] Creating layer pool1_pool1_0_split
I1215 17:07:27.426664  2028 net.cpp:84] Creating Layer pool1_pool1_0_split
I1215 17:07:27.426676  2028 net.cpp:406] pool1_pool1_0_split <- pool1
I1215 17:07:27.426688  2028 net.cpp:380] pool1_pool1_0_split -> pool1_pool1_0_split_0
I1215 17:07:27.426703  2028 net.cpp:380] pool1_pool1_0_split -> pool1_pool1_0_split_1
I1215 17:07:27.426748  2028 net.cpp:122] Setting up pool1_pool1_0_split
I1215 17:07:27.426761  2028 net.cpp:129] Top shape: 10 64 5 30 30 (2880000)
I1215 17:07:27.426772  2028 net.cpp:129] Top shape: 10 64 5 30 30 (2880000)
I1215 17:07:27.426781  2028 net.cpp:137] Memory required for data: 1099013640
I1215 17:07:27.426790  2028 layer_factory.hpp:77] Creating layer res2a_branch1
I1215 17:07:27.426811  2028 net.cpp:84] Creating Layer res2a_branch1
I1215 17:07:27.426823  2028 net.cpp:406] res2a_branch1 <- pool1_pool1_0_split_0
I1215 17:07:27.426837  2028 net.cpp:380] res2a_branch1 -> res2a_branch1
I1215 17:07:27.427393  2028 net.cpp:122] Setting up res2a_branch1
I1215 17:07:27.427410  2028 net.cpp:129] Top shape: 10 256 5 30 30 (11520000)
I1215 17:07:27.427419  2028 net.cpp:137] Memory required for data: 1145093640
I1215 17:07:27.427431  2028 layer_factory.hpp:77] Creating layer bn2a_branch1
I1215 17:07:27.427445  2028 net.cpp:84] Creating Layer bn2a_branch1
I1215 17:07:27.427453  2028 net.cpp:406] bn2a_branch1 <- res2a_branch1
I1215 17:07:27.427459  2028 net.cpp:380] bn2a_branch1 -> bn2a_branch1
I1215 17:07:27.427608  2028 net.cpp:122] Setting up bn2a_branch1
I1215 17:07:27.427618  2028 net.cpp:129] Top shape: 10 256 5 30 30 (11520000)
I1215 17:07:27.427624  2028 net.cpp:137] Memory required for data: 1191173640
I1215 17:07:27.427633  2028 layer_factory.hpp:77] Creating layer res2a_branch2a
I1215 17:07:27.427641  2028 net.cpp:84] Creating Layer res2a_branch2a
I1215 17:07:27.427647  2028 net.cpp:406] res2a_branch2a <- pool1_pool1_0_split_1
I1215 17:07:27.427654  2028 net.cpp:380] res2a_branch2a -> res2a_branch2a
I1215 17:07:27.427886  2028 net.cpp:122] Setting up res2a_branch2a
I1215 17:07:27.427896  2028 net.cpp:129] Top shape: 10 64 5 30 30 (2880000)
I1215 17:07:27.427901  2028 net.cpp:137] Memory required for data: 1202693640
I1215 17:07:27.427907  2028 layer_factory.hpp:77] Creating layer bn2a_branch2a
I1215 17:07:27.427916  2028 net.cpp:84] Creating Layer bn2a_branch2a
I1215 17:07:27.427920  2028 net.cpp:406] bn2a_branch2a <- res2a_branch2a
I1215 17:07:27.427927  2028 net.cpp:380] bn2a_branch2a -> bn2a_branch2a
I1215 17:07:27.428087  2028 net.cpp:122] Setting up bn2a_branch2a
I1215 17:07:27.428097  2028 net.cpp:129] Top shape: 10 64 5 30 30 (2880000)
I1215 17:07:27.428102  2028 net.cpp:137] Memory required for data: 1214213640
I1215 17:07:27.428110  2028 layer_factory.hpp:77] Creating layer res2a_branch2a_relu
I1215 17:07:27.428117  2028 net.cpp:84] Creating Layer res2a_branch2a_relu
I1215 17:07:27.428122  2028 net.cpp:406] res2a_branch2a_relu <- bn2a_branch2a
I1215 17:07:27.428128  2028 net.cpp:367] res2a_branch2a_relu -> bn2a_branch2a (in-place)
I1215 17:07:27.428135  2028 net.cpp:122] Setting up res2a_branch2a_relu
I1215 17:07:27.428141  2028 net.cpp:129] Top shape: 10 64 5 30 30 (2880000)
I1215 17:07:27.428146  2028 net.cpp:137] Memory required for data: 1225733640
I1215 17:07:27.428151  2028 layer_factory.hpp:77] Creating layer res2a_branch2b
I1215 17:07:27.428159  2028 net.cpp:84] Creating Layer res2a_branch2b
I1215 17:07:27.428165  2028 net.cpp:406] res2a_branch2b <- bn2a_branch2a
I1215 17:07:27.428171  2028 net.cpp:380] res2a_branch2b -> res2a_branch2b
I1215 17:07:27.429183  2028 net.cpp:122] Setting up res2a_branch2b
I1215 17:07:27.429193  2028 net.cpp:129] Top shape: 10 64 5 30 30 (2880000)
I1215 17:07:27.429198  2028 net.cpp:137] Memory required for data: 1237253640
I1215 17:07:27.429204  2028 layer_factory.hpp:77] Creating layer bn2a_branch2b
I1215 17:07:27.429213  2028 net.cpp:84] Creating Layer bn2a_branch2b
I1215 17:07:27.429217  2028 net.cpp:406] bn2a_branch2b <- res2a_branch2b
I1215 17:07:27.429224  2028 net.cpp:380] bn2a_branch2b -> bn2a_branch2b
I1215 17:07:27.429383  2028 net.cpp:122] Setting up bn2a_branch2b
I1215 17:07:27.429404  2028 net.cpp:129] Top shape: 10 64 5 30 30 (2880000)
I1215 17:07:27.429409  2028 net.cpp:137] Memory required for data: 1248773640
I1215 17:07:27.429419  2028 layer_factory.hpp:77] Creating layer res2a_branch2b_relu
I1215 17:07:27.429425  2028 net.cpp:84] Creating Layer res2a_branch2b_relu
I1215 17:07:27.429430  2028 net.cpp:406] res2a_branch2b_relu <- bn2a_branch2b
I1215 17:07:27.429437  2028 net.cpp:367] res2a_branch2b_relu -> bn2a_branch2b (in-place)
I1215 17:07:27.429445  2028 net.cpp:122] Setting up res2a_branch2b_relu
I1215 17:07:27.429450  2028 net.cpp:129] Top shape: 10 64 5 30 30 (2880000)
I1215 17:07:27.429455  2028 net.cpp:137] Memory required for data: 1260293640
I1215 17:07:27.429461  2028 layer_factory.hpp:77] Creating layer res2a_branch2b_t
I1215 17:07:27.429468  2028 net.cpp:84] Creating Layer res2a_branch2b_t
I1215 17:07:27.429474  2028 net.cpp:406] res2a_branch2b_t <- bn2a_branch2b
I1215 17:07:27.429481  2028 net.cpp:380] res2a_branch2b_t -> res2a_branch2b_t
I1215 17:07:27.429903  2028 net.cpp:122] Setting up res2a_branch2b_t
I1215 17:07:27.429913  2028 net.cpp:129] Top shape: 10 64 5 30 30 (2880000)
I1215 17:07:27.429917  2028 net.cpp:137] Memory required for data: 1271813640
I1215 17:07:27.429924  2028 layer_factory.hpp:77] Creating layer bn2a_branch2b_t
I1215 17:07:27.429932  2028 net.cpp:84] Creating Layer bn2a_branch2b_t
I1215 17:07:27.429939  2028 net.cpp:406] bn2a_branch2b_t <- res2a_branch2b_t
I1215 17:07:27.429945  2028 net.cpp:380] bn2a_branch2b_t -> bn2a_branch2b_t
I1215 17:07:27.430104  2028 net.cpp:122] Setting up bn2a_branch2b_t
I1215 17:07:27.430112  2028 net.cpp:129] Top shape: 10 64 5 30 30 (2880000)
I1215 17:07:27.430117  2028 net.cpp:137] Memory required for data: 1283333640
I1215 17:07:27.430125  2028 layer_factory.hpp:77] Creating layer res2a_branch2b_t_relu
I1215 17:07:27.430132  2028 net.cpp:84] Creating Layer res2a_branch2b_t_relu
I1215 17:07:27.430137  2028 net.cpp:406] res2a_branch2b_t_relu <- bn2a_branch2b_t
I1215 17:07:27.430143  2028 net.cpp:367] res2a_branch2b_t_relu -> bn2a_branch2b_t (in-place)
I1215 17:07:27.430150  2028 net.cpp:122] Setting up res2a_branch2b_t_relu
I1215 17:07:27.430156  2028 net.cpp:129] Top shape: 10 64 5 30 30 (2880000)
I1215 17:07:27.430160  2028 net.cpp:137] Memory required for data: 1294853640
I1215 17:07:27.430166  2028 layer_factory.hpp:77] Creating layer res2a_branch2c
I1215 17:07:27.430173  2028 net.cpp:84] Creating Layer res2a_branch2c
I1215 17:07:27.430179  2028 net.cpp:406] res2a_branch2c <- bn2a_branch2b_t
I1215 17:07:27.430186  2028 net.cpp:380] res2a_branch2c -> res2a_branch2c
I1215 17:07:27.430707  2028 net.cpp:122] Setting up res2a_branch2c
I1215 17:07:27.430717  2028 net.cpp:129] Top shape: 10 256 5 30 30 (11520000)
I1215 17:07:27.430722  2028 net.cpp:137] Memory required for data: 1340933640
I1215 17:07:27.430728  2028 layer_factory.hpp:77] Creating layer bn2a_branch2c
I1215 17:07:27.430737  2028 net.cpp:84] Creating Layer bn2a_branch2c
I1215 17:07:27.430742  2028 net.cpp:406] bn2a_branch2c <- res2a_branch2c
I1215 17:07:27.430748  2028 net.cpp:380] bn2a_branch2c -> bn2a_branch2c
I1215 17:07:27.430896  2028 net.cpp:122] Setting up bn2a_branch2c
I1215 17:07:27.430912  2028 net.cpp:129] Top shape: 10 256 5 30 30 (11520000)
I1215 17:07:27.430918  2028 net.cpp:137] Memory required for data: 1387013640
I1215 17:07:27.430927  2028 layer_factory.hpp:77] Creating layer res2a
I1215 17:07:27.430935  2028 net.cpp:84] Creating Layer res2a
I1215 17:07:27.430941  2028 net.cpp:406] res2a <- bn2a_branch1
I1215 17:07:27.430948  2028 net.cpp:406] res2a <- bn2a_branch2c
I1215 17:07:27.430953  2028 net.cpp:380] res2a -> res2a
I1215 17:07:27.430976  2028 net.cpp:122] Setting up res2a
I1215 17:07:27.430984  2028 net.cpp:129] Top shape: 10 256 5 30 30 (11520000)
I1215 17:07:27.430989  2028 net.cpp:137] Memory required for data: 1433093640
I1215 17:07:27.430994  2028 layer_factory.hpp:77] Creating layer res2a_relu
I1215 17:07:27.431000  2028 net.cpp:84] Creating Layer res2a_relu
I1215 17:07:27.431005  2028 net.cpp:406] res2a_relu <- res2a
I1215 17:07:27.431022  2028 net.cpp:367] res2a_relu -> res2a (in-place)
I1215 17:07:27.431030  2028 net.cpp:122] Setting up res2a_relu
I1215 17:07:27.431036  2028 net.cpp:129] Top shape: 10 256 5 30 30 (11520000)
I1215 17:07:27.431041  2028 net.cpp:137] Memory required for data: 1479173640
I1215 17:07:27.431046  2028 layer_factory.hpp:77] Creating layer pool2
I1215 17:07:27.431053  2028 net.cpp:84] Creating Layer pool2
I1215 17:07:27.431058  2028 net.cpp:406] pool2 <- res2a
I1215 17:07:27.431064  2028 net.cpp:380] pool2 -> pool2
I1215 17:07:27.431094  2028 net.cpp:122] Setting up pool2
I1215 17:07:27.431102  2028 net.cpp:129] Top shape: 10 256 3 30 30 (6912000)
I1215 17:07:27.431107  2028 net.cpp:137] Memory required for data: 1506821640
I1215 17:07:27.431111  2028 layer_factory.hpp:77] Creating layer ip1
I1215 17:07:27.431120  2028 net.cpp:84] Creating Layer ip1
I1215 17:07:27.431125  2028 net.cpp:406] ip1 <- pool2
I1215 17:07:27.431131  2028 net.cpp:380] ip1 -> ip1
I1215 17:07:27.485687  2028 net.cpp:122] Setting up ip1
I1215 17:07:27.485728  2028 net.cpp:129] Top shape: 10 3 (30)
I1215 17:07:27.485739  2028 net.cpp:137] Memory required for data: 1506821760
I1215 17:07:27.485769  2028 layer_factory.hpp:77] Creating layer loss
I1215 17:07:27.486660  2028 net.cpp:84] Creating Layer loss
I1215 17:07:27.486676  2028 net.cpp:406] loss <- ip1
I1215 17:07:27.486690  2028 net.cpp:406] loss <- label
I1215 17:07:27.486704  2028 net.cpp:380] loss -> loss
I1215 17:07:27.486729  2028 layer_factory.hpp:77] Creating layer loss
…
I1215 17:07:27.489500  2028 net.cpp:51] Initializing net from parameters: 
name: "P3DSTN-IsoGDNet"
state {
  phase: TEST
}
layer {
  name: "data"
  type: "TridimData"
  top: "data"
  top: "label"
  include {
    phase: TEST
  }
  transform_param {
    mirror: false
    crop_size: 120
    mean_value: 128
    mean_value: 128
    mean_value: 128
  }
  tridim_data_param {
    source: "/data2/xyyu/datasets/train_3.lst"
    batch_size: 10
    shuffle: true
    new_height: 120
    new_width: 160
    root_folder: ""
    new_length: 10
    show_data: false
    use_image: true
  }
}
layer {
  name: "loc_conv1"
  type: "Convolution"
  bottom: "data"
  top: "loc_conv1"
  param {
    lr_mult: 1
    decay_mult: 1
  }
  convolution_param {
    num_output: 64
    bias_term: false
    pad: 0
    pad: 3
    pad: 3
    kernel_size: 1
    kernel_size: 7
    kernel_size: 7
    stride: 1
    stride: 2
    stride: 2
    weight_filler {
      type: "gaussian"
      std: 0.001
    }
    engine: CAFFE
  }
}
layer {
  name: "loc_bn_conv1"
  type: "BN"
  bottom: "loc_conv1"
  top: "loc_bn_conv1"
  param {
    lr_mult: 1
    decay_mult: 0
  }
  param {
    lr_mult: 1
    decay_mult: 0
  }
  param {
    lr_mult: 0
  }
  param {
    lr_mult: 0
  }
  bn_param {
    slope_filler {
      type: "constant"
      value: 1
    }
    bias_filler {
      type: "constant"
      value: 0
    }
    frozen: false
  }
}
layer {
  name: "loc_conv1_relu"
  type: "ReLU"
  bottom: "loc_bn_conv1"
  top: "loc_bn_conv1"
  relu_param {
    engine: CAFFE
  }
}
layer {
  name: "loc_pool1"
  type: "Pooling3D"
  bottom: "loc_bn_conv1"
  top: "loc_pool1"
  pooling3d_param {
    pool: MAX
    pad: 0
    kernel_size: 3
    stride: 2
    pad_l: 0
    kernel_l: 2
    stride_l: 2
  }
}
layer {
  name: "loc_res2a_branch1"
  type: "Convolution"
  bottom: "loc_pool1"
  top: "loc_res2a_branch1"
  param {
    lr_mult: 1
    decay_mult: 1
  }
  convolution_param {
    num_output: 256
    bias_term: false
    pad: 0
    pad: 0
    pad: 0
    kernel_size: 1
    kernel_size: 1
    kernel_size: 1
    stride: 1
    stride: 1
    stride: 1
    weight_filler {
      type: "gaussian"
      std: 0.001
    }
    engine: CAFFE
  }
}
layer {
  name: "loc_bn2a_branch1"
  type: "BN"
  bottom: "loc_res2a_branch1"
  top: "loc_bn2a_branch1"
  param {
    lr_mult: 1
    decay_mult: 0
  }
  param {
    lr_mult: 1
    decay_mult: 0
  }
  param {
    lr_mult: 0
  }
  param {
    lr_mult: 0
  }
  bn_param {
    slope_filler {
      type: "constant"
      value: 1
    }
    bias_filler {
      type: "constant"
      value: 0
    }
    frozen: true
  }
}
layer {
  name: "loc_res2a_branch2a"
  type: "Convolution"
  bottom: "loc_pool1"
  top: "loc_res2a_branch2a"
  param {
    lr_mult: 1
    decay_mult: 1
  }
  convolution_param {
    num_output: 64
    bias_term: false
    pad: 0
    pad: 0
    pad: 0
    kernel_size: 1
    kernel_size: 1
    kernel_size: 1
    stride: 1
    stride: 1
    stride: 1
    weight_filler {
      type: "gaussian"
      std: 0.001
    }
    engine: CAFFE
  }
}
layer {
  name: "loc_bn2a_branch2a"
  type: "BN"
  bottom: "loc_res2a_branch2a"
  top: "loc_bn2a_branch2a"
  param {
    lr_mult: 1
    decay_mult: 0
  }
  param {
    lr_mult: 1
    decay_mult: 0
  }
  param {
    lr_mult: 0
  }
  param {
    lr_mult: 0
  }
  bn_param {
    slope_filler {
      type: "constant"
      value: 1
    }
    bias_filler {
      type: "constant"
      value: 0
    }
    frozen: true
  }
}
layer {
  name: "loc_res2a_branch2a_relu"
  type: "ReLU"
  bottom: "loc_bn2a_branch2a"
  top: "loc_bn2a_branch2a"
  relu_param {
    engine: CAFFE
  }
}
layer {
  name: "loc_res2a_branch2b"
  type: "Convolution"
  bottom: "loc_bn2a_branch2a"
  top: "loc_res2a_branch2b"
  param {
    lr_mult: 1
    decay_mult: 1
  }
  convolution_param {
    num_output: 64
    bias_term: false
    pad: 0
    pad: 1
    pad: 1
    kernel_size: 1
    kernel_size: 3
    kernel_size: 3
    stride: 1
    stride: 1
    stride: 1
    weight_filler {
      type: "gaussian"
      std: 0.001
    }
    engine: CAFFE
  }
}
layer {
  name: "loc_bn2a_branch2b"
  type: "BN"
  bottom: "loc_res2a_branch2b"
  top: "loc_bn2a_branch2b"
  param {
    lr_mult: 1
    decay_mult: 0
  }
  param {
    lr_mult: 1
    decay_mult: 0
  }
  param {
    lr_mult: 0
  }
  param {
    lr_mult: 0
  }
  bn_param {
    slope_filler {
      type: "constant"
      value: 1
    }
    bias_filler {
      type: "constant"
      value: 0
    }
    frozen: true
  }
}
layer {
  name: "loc_res2a_branch2b_relu"
  type: "ReLU"
  bottom: "loc_bn2a_branch2b"
  top: "loc_bn2a_branch2b"
  relu_param {
    engine: CAFFE
  }
}
layer {
  name: "loc_res2a_branch2b_t"
  type: "Convolution"
  bottom: "loc_bn2a_branch2b"
  top: "loc_res2a_branch2b_t"
  param {
    lr_mult: 1
    decay_mult: 1
  }
  convolution_param {
    num_output: 64
    bias_term: false
    pad: 1
    pad: 0
    pad: 0
    kernel_size: 3
    kernel_size: 1
    kernel_size: 1
    stride: 1
    stride: 1
    stride: 1
    weight_filler {
      type: "gaussian"
      std: 0.001
    }
    engine: CAFFE
  }
}
layer {
  name: "loc_bn2a_branch2b_t"
  type: "BN"
  bottom: "loc_res2a_branch2b_t"
  top: "loc_bn2a_branch2b_t"
  param {
    lr_mult: 1
    decay_mult: 0
  }
  param {
    lr_mult: 1
    decay_mult: 0
  }
  param {
    lr_mult: 0
  }
  param {
    lr_mult: 0
  }
  bn_param {
    slope_filler {
      type: "constant"
      value: 1
    }
    bias_filler {
      type: "constant"
      value: 0
    }
    frozen: true
  }
}
layer {
  name: "loc_res2a_branch2b_t_relu"
  type: "ReLU"
  bottom: "loc_bn2a_branch2b_t"
  top: "loc_bn2a_branch2b_t"
  relu_param {
    engine: CAFFE
  }
}
layer {
  name: "loc_res2a_branch2c"
  type: "Convolution"
  bottom: "loc_bn2a_branch2b_t"
  top: "loc_res2a_branch2c"
  param {
    lr_mult: 1
    decay_mult: 1
  }
  convolution_param {
    num_output: 256
    bias_term: false
    pad: 0
    pad: 0
    pad: 0
    kernel_size: 1
    kernel_size: 1
    kernel_size: 1
    stride: 1
    stride: 1
    stride: 1
    weight_filler {
      type: "gaussian"
      std: 0.001
    }
    engine: CAFFE
  }
}
layer {
  name: "loc_bn2a_branch2c"
  type: "BN"
  bottom: "loc_res2a_branch2c"
  top: "loc_bn2a_branch2c"
  param {
    lr_mult: 1
    decay_mult: 0
  }
  param {
    lr_mult: 1
    decay_mult: 0
  }
  param {
    lr_mult: 0
  }
  param {
    lr_mult: 0
  }
  bn_param {
    slope_filler {
      type: "constant"
      value: 1
    }
    bias_filler {
      type: "constant"
      value: 0
    }
    frozen: true
  }
}
layer {
  name: "loc_res2a"
  type: "Eltwise"
  bottom: "loc_bn2a_branch1"
  bottom: "loc_bn2a_branch2c"
  top: "loc_res2a"
  eltwise_param {
    operation: SUM
  }
}
layer {
  name: "loc_res2a_relu"
  type: "ReLU"
  bottom: "loc_res2a"
  top: "loc_res2a"
  relu_param {
    engine: CAFFE
  }
}
layer {
  name: "loc_pool2"
  type: "Pooling3D"
  bottom: "loc_res2a"
  top: "loc_pool2"
  pooling3d_param {
    pool: MAX
    pad: 0
    kernel_size: 1
    stride: 1
    pad_l: 0
    kernel_l: 2
    stride_l: 2
  }
}
layer {
  name: "loc_ip1"
  type: "InnerProduct"
  bottom: "loc_pool2"
  top: "loc_ip1"
  param {
    lr_mult: 10
    decay_mult: 1
  }
  param {
    lr_mult: 20
    decay_mult: 0
  }
  inner_product_param {
    num_output: 64
    weight_filler {
      type: "gaussian"
      std: 0.001
    }
    bias_filler {
      type: "constant"
      value: 0
    }
  }
}
layer {
  name: "loc_relu1"
  type: "ReLU"
  bottom: "loc_ip1"
  top: "loc_ip1"
}
layer {
  name: "loc_ip2"
  type: "InnerProduct"
  bottom: "loc_ip1"
  top: "theta"
  param {
    lr_mult: 10
    decay_mult: 1
  }
  param {
    lr_mult: 12
    decay_mult: 0
  }
  inner_product_param {
    num_output: 12
    weight_filler {
      type: "constant"
      value: 0
    }
    bias_filler {
      type: "file"
      file: "examples/mnist_tests/bias_init.txt"
    }
  }
}
layer {
  name: "trist_layer"
  type: "TridimSpatialTransformer"
  bottom: "data"
  bottom: "theta"
  top: "trist_output"
}
layer {
  name: "conv1"
  type: "Convolution"
  bottom: "trist_output"
  top: "conv1"
  param {
    lr_mult: 1
    decay_mult: 1
  }
  convolution_param {
    num_output: 64
    bias_term: false
    pad: 0
    pad: 3
    pad: 3
    kernel_size: 1
    kernel_size: 7
    kernel_size: 7
    stride: 1
    stride: 2
    stride: 2
    weight_filler {
      type: "gaussian"
      std: 0.001
    }
    engine: CAFFE
  }
}
layer {
  name: "bn_conv1"
  type: "BN"
  bottom: "conv1"
  top: "bn_conv1"
  param {
    lr_mult: 1
    decay_mult: 0
  }
  param {
    lr_mult: 1
    decay_mult: 0
  }
  param {
    lr_mult: 0
  }
  param {
    lr_mult: 0
  }
  bn_param {
    slope_filler {
      type: "constant"
      value: 1
    }
    bias_filler {
      type: "constant"
      value: 0
    }
    frozen: false
  }
}
layer {
  name: "conv1_relu"
  type: "ReLU"
  bottom: "bn_conv1"
  top: "bn_conv1"
  relu_param {
    engine: CAFFE
  }
}
layer {
  name: "pool1"
  type: "Pooling3D"
  bottom: "bn_conv1"
  top: "pool1"
  pooling3d_param {
    pool: MAX
    pad: 0
    kernel_size: 3
    stride: 2
    pad_l: 0
    kernel_l: 2
    stride_l: 2
  }
}
layer {
  name: "res2a_branch1"
  type: "Convolution"
  bottom: "pool1"
  top: "res2a_branch1"
  param {
    lr_mult: 1
    decay_mult: 1
  }
  convolution_param {
    num_output: 256
    bias_term: false
    pad: 0
    pad: 0
    pad: 0
    kernel_size: 1
    kernel_size: 1
    kernel_size: 1
    stride: 1
    stride: 1
    stride: 1
    weight_filler {
      type: "gaussian"
      std: 0.001
    }
    engine: CAFFE
  }
}
layer {
  name: "bn2a_branch1"
  type: "BN"
  bottom: "res2a_branch1"
  top: "bn2a_branch1"
  param {
    lr_mult: 1
    decay_mult: 0
  }
  param {
    lr_mult: 1
    decay_mult: 0
  }
  param {
    lr_mult: 0
  }
  param {
    lr_mult: 0
  }
  bn_param {
    slope_filler {
      type: "constant"
      value: 1
    }
    bias_filler {
      type: "constant"
      value: 0
    }
    frozen: true
  }
}
layer {
  name: "res2a_branch2a"
  type: "Convolution"
  bottom: "pool1"
  top: "res2a_branch2a"
  param {
    lr_mult: 1
    decay_mult: 1
  }
  convolution_param {
    num_output: 64
    bias_term: false
    pad: 0
    pad: 0
    pad: 0
    kernel_size: 1
    kernel_size: 1
    kernel_size: 1
    stride: 1
    stride: 1
    stride: 1
    weight_filler {
      type: "gaussian"
      std: 0.001
    }
    engine: CAFFE
  }
}
layer {
  name: "bn2a_branch2a"
  type: "BN"
  bottom: "res2a_branch2a"
  top: "bn2a_branch2a"
  param {
    lr_mult: 1
    decay_mult: 0
  }
  param {
    lr_mult: 1
    decay_mult: 0
  }
  param {
    lr_mult: 0
  }
  param {
    lr_mult: 0
  }
  bn_param {
    slope_filler {
      type: "constant"
      value: 1
    }
    bias_filler {
      type: "constant"
      value: 0
    }
    frozen: true
  }
}
layer {
  name: "res2a_branch2a_relu"
  type: "ReLU"
  bottom: "bn2a_branch2a"
  top: "bn2a_branch2a"
  relu_param {
    engine: CAFFE
  }
}
layer {
  name: "res2a_branch2b"
  type: "Convolution"
  bottom: "bn2a_branch2a"
  top: "res2a_branch2b"
  param {
    lr_mult: 1
    decay_mult: 1
  }
  convolution_param {
    num_output: 64
    bias_term: false
    pad: 0
    pad: 1
    pad: 1
    kernel_size: 1
    kernel_size: 3
    kernel_size: 3
    stride: 1
    stride: 1
    stride: 1
    weight_filler {
      type: "gaussian"
      std: 0.001
    }
    engine: CAFFE
  }
}
layer {
  name: "bn2a_branch2b"
  type: "BN"
  bottom: "res2a_branch2b"
  top: "bn2a_branch2b"
  param {
    lr_mult: 1
    decay_mult: 0
  }
  param {
    lr_mult: 1
    decay_mult: 0
  }
  param {
    lr_mult: 0
  }
  param {
    lr_mult: 0
  }
  bn_param {
    slope_filler {
      type: "constant"
      value: 1
    }
    bias_filler {
      type: "constant"
      value: 0
    }
    frozen: true
  }
}
layer {
  name: "res2a_branch2b_relu"
  type: "ReLU"
  bottom: "bn2a_branch2b"
  top: "bn2a_branch2b"
  relu_param {
    engine: CAFFE
  }
}
layer {
  name: "res2a_branch2b_t"
  type: "Convolution"
  bottom: "bn2a_branch2b"
  top: "res2a_branch2b_t"
  param {
    lr_mult: 1
    decay_mult: 1
  }
  convolution_param {
    num_output: 64
    bias_term: false
    pad: 1
    pad: 0
    pad: 0
    kernel_size: 3
    kernel_size: 1
    kernel_size: 1
    stride: 1
    stride: 1
    stride: 1
    weight_filler {
      type: "gaussian"
      std: 0.001
    }
    engine: CAFFE
  }
}
layer {
  name: "bn2a_branch2b_t"
  type: "BN"
  bottom: "res2a_branch2b_t"
  top: "bn2a_branch2b_t"
  param {
    lr_mult: 1
    decay_mult: 0
  }
  param {
    lr_mult: 1
    decay_mult: 0
  }
  param {
    lr_mult: 0
  }
  param {
    lr_mult: 0
  }
  bn_param {
    slope_filler {
      type: "constant"
      value: 1
    }
    bias_filler {
      type: "constant"
      value: 0
    }
    frozen: true
  }
}
layer {
  name: "res2a_branch2b_t_relu"
  type: "ReLU"
  bottom: "bn2a_branch2b_t"
  top: "bn2a_branch2b_t"
  relu_param {
    engine: CAFFE
  }
}
layer {
  name: "res2a_branch2c"
  type: "Convolution"
  bottom: "bn2a_branch2b_t"
  top: "res2a_branch2c"
  param {
    lr_mult: 1
    decay_mult: 1
  }
  convolution_param {
    num_output: 256
    bias_term: false
    pad: 0
    pad: 0
    pad: 0
    kernel_size: 1
    kernel_size: 1
    kernel_size: 1
    stride: 1
    stride: 1
    stride: 1
    weight_filler {
      type: "gaussian"
      std: 0.001
    }
    engine: CAFFE
  }
}
layer {
  name: "bn2a_branch2c"
  type: "BN"
  bottom: "res2a_branch2c"
  top: "bn2a_branch2c"
  param {
    lr_mult: 1
    decay_mult: 0
  }
  param {
    lr_mult: 1
    decay_mult: 0
  }
  param {
    lr_mult: 0
  }
  param {
    lr_mult: 0
  }
  bn_param {
    slope_filler {
      type: "constant"
      value: 1
    }
    bias_filler {
      type: "constant"
      value: 0
    }
    frozen: true
  }
}
layer {
  name: "res2a"
  type: "Eltwise"
  bottom: "bn2a_branch1"
  bottom: "bn2a_branch2c"
  top: "res2a"
  eltwise_param {
    operation: SUM
  }
}
layer {
  name: "res2a_relu"
  type: "ReLU"
  bottom: "res2a"
  top: "res2a"
  relu_param {
    engine: CAFFE
  }
}
layer {
  name: "pool2"
  type: "Pooling3D"
  bottom: "res2a"
  top: "pool2"
  pooling3d_param {
    pool: MAX
    pad: 0
    kernel_size: 1
    stride: 1
    pad_l: 0
    kernel_l: 2
    stride_l: 2
  }
}
layer {
  name: "ip1"
  type: "InnerProduct"
  bottom: "pool2"
  top: "ip1"
  param {
    lr_mult: 10
    decay_mult: 1
  }
  param {
    lr_mult: 20
    decay_mult: 0
  }
  inner_product_param {
    num_output: 3
    weight_filler {
      type: "gaussian"
      std: 0.001
    }
    bias_filler {
      type: "constant"
      value: 0
    }
  }
}
layer {
  name: "accuracy/top1"
  type: "Accuracy"
  bottom: "ip1"
  bottom: "label"
  top: "accuracy/top1"
  include {
    phase: TEST
  }
}
layer {
  name: "loss"
  type: "SoftmaxWithLoss"
  bottom: "ip1"
  bottom: "label"
  top: "loss"
}
I1215 17:07:27.491578  2028 layer_factory.hpp:77] Creating layer data
I1215 17:07:27.491597  2028 net.cpp:84] Creating Layer data
I1215 17:07:27.491605  2028 net.cpp:380] data -> data
I1215 17:07:27.491613  2028 net.cpp:380] data -> label
I1215 17:07:27.491623  2028 tridim_data_layer.cpp:67] Opening file /data2/xyyu/datasets/train_3.lst
I1215 17:07:27.498193  2028 tridim_data_layer.cpp:130] Shuffling data
I1215 17:07:27.498427  2028 tridim_data_layer.cpp:140] A total of 20698 tridim chunks.
I1215 17:07:27.518483  2028 tridim_data_layer.cpp:182] output data size: 10,3,10,120,120
I1215 17:07:27.557552  2028 net.cpp:122] Setting up data
I1215 17:07:27.557590  2028 net.cpp:129] Top shape: 10 3 10 120 120 (4320000)
I1215 17:07:27.557603  2028 net.cpp:129] Top shape: 10 (10)
I1215 17:07:27.557612  2028 net.cpp:137] Memory required for data: 17280040
I1215 17:07:27.557626  2028 layer_factory.hpp:77] Creating layer data_data_0_split
I1215 17:07:27.557646  2028 net.cpp:84] Creating Layer data_data_0_split
I1215 17:07:27.557659  2028 net.cpp:406] data_data_0_split <- data
I1215 17:07:27.557673  2028 net.cpp:380] data_data_0_split -> data_data_0_split_0
I1215 17:07:27.557693  2028 net.cpp:380] data_data_0_split -> data_data_0_split_1
I1215 17:07:27.557757  2028 net.cpp:122] Setting up data_data_0_split
I1215 17:07:27.557772  2028 net.cpp:129] Top shape: 10 3 10 120 120 (4320000)
I1215 17:07:27.557783  2028 net.cpp:129] Top shape: 10 3 10 120 120 (4320000)
I1215 17:07:27.557792  2028 net.cpp:137] Memory required for data: 51840040
I1215 17:07:27.557801  2028 layer_factory.hpp:77] Creating layer label_data_1_split
I1215 17:07:27.557816  2028 net.cpp:84] Creating Layer label_data_1_split
I1215 17:07:27.557824  2028 net.cpp:406] label_data_1_split <- label
I1215 17:07:27.557837  2028 net.cpp:380] label_data_1_split -> label_data_1_split_0
I1215 17:07:27.557849  2028 net.cpp:380] label_data_1_split -> label_data_1_split_1
I1215 17:07:27.557895  2028 net.cpp:122] Setting up label_data_1_split
I1215 17:07:27.557909  2028 net.cpp:129] Top shape: 10 (10)
I1215 17:07:27.557919  2028 net.cpp:129] Top shape: 10 (10)
I1215 17:07:27.557929  2028 net.cpp:137] Memory required for data: 51840120
I1215 17:07:27.557938  2028 layer_factory.hpp:77] Creating layer loc_conv1
I1215 17:07:27.557956  2028 net.cpp:84] Creating Layer loc_conv1
I1215 17:07:27.557971  2028 net.cpp:406] loc_conv1 <- data_data_0_split_0
I1215 17:07:27.557986  2028 net.cpp:380] loc_conv1 -> loc_conv1
I1215 17:07:27.558395  2028 net.cpp:122] Setting up loc_conv1
I1215 17:07:27.558411  2028 net.cpp:129] Top shape: 10 64 10 60 60 (23040000)
I1215 17:07:27.558420  2028 net.cpp:137] Memory required for data: 144000120
I1215 17:07:27.558435  2028 layer_factory.hpp:77] Creating layer loc_bn_conv1
I1215 17:07:27.558452  2028 net.cpp:84] Creating Layer loc_bn_conv1
I1215 17:07:27.558462  2028 net.cpp:406] loc_bn_conv1 <- loc_conv1
I1215 17:07:27.558475  2028 net.cpp:380] loc_bn_conv1 -> loc_bn_conv1
I1215 17:07:27.558692  2028 net.cpp:122] Setting up loc_bn_conv1
I1215 17:07:27.558709  2028 net.cpp:129] Top shape: 10 64 10 60 60 (23040000)
I1215 17:07:27.558718  2028 net.cpp:137] Memory required for data: 236160120
I1215 17:07:27.558740  2028 layer_factory.hpp:77] Creating layer loc_conv1_relu
I1215 17:07:27.558754  2028 net.cpp:84] Creating Layer loc_conv1_relu
I1215 17:07:27.558785  2028 net.cpp:406] loc_conv1_relu <- loc_bn_conv1
I1215 17:07:27.558794  2028 net.cpp:367] loc_conv1_relu -> loc_bn_conv1 (in-place)
I1215 17:07:27.558801  2028 net.cpp:122] Setting up loc_conv1_relu
I1215 17:07:27.558809  2028 net.cpp:129] Top shape: 10 64 10 60 60 (23040000)
I1215 17:07:27.558814  2028 net.cpp:137] Memory required for data: 328320120
I1215 17:07:27.558820  2028 layer_factory.hpp:77] Creating layer loc_pool1
I1215 17:07:27.558826  2028 net.cpp:84] Creating Layer loc_pool1
I1215 17:07:27.558831  2028 net.cpp:406] loc_pool1 <- loc_bn_conv1
I1215 17:07:27.558838  2028 net.cpp:380] loc_pool1 -> loc_pool1
I1215 17:07:27.558876  2028 net.cpp:122] Setting up loc_pool1
I1215 17:07:27.558884  2028 net.cpp:129] Top shape: 10 64 5 30 30 (2880000)
I1215 17:07:27.558889  2028 net.cpp:137] Memory required for data: 339840120
I1215 17:07:27.558894  2028 layer_factory.hpp:77] Creating layer loc_pool1_loc_pool1_0_split
I1215 17:07:27.558902  2028 net.cpp:84] Creating Layer loc_pool1_loc_pool1_0_split
I1215 17:07:27.558917  2028 net.cpp:406] loc_pool1_loc_pool1_0_split <- loc_pool1
I1215 17:07:27.558925  2028 net.cpp:380] loc_pool1_loc_pool1_0_split -> loc_pool1_loc_pool1_0_split_0
I1215 17:07:27.558933  2028 net.cpp:380] loc_pool1_loc_pool1_0_split -> loc_pool1_loc_pool1_0_split_1
I1215 17:07:27.558960  2028 net.cpp:122] Setting up loc_pool1_loc_pool1_0_split
I1215 17:07:27.558969  2028 net.cpp:129] Top shape: 10 64 5 30 30 (2880000)
I1215 17:07:27.558974  2028 net.cpp:129] Top shape: 10 64 5 30 30 (2880000)
I1215 17:07:27.558979  2028 net.cpp:137] Memory required for data: 362880120
I1215 17:07:27.558984  2028 layer_factory.hpp:77] Creating layer loc_res2a_branch1
I1215 17:07:27.558995  2028 net.cpp:84] Creating Layer loc_res2a_branch1
I1215 17:07:27.559000  2028 net.cpp:406] loc_res2a_branch1 <- loc_pool1_loc_pool1_0_split_0
I1215 17:07:27.559007  2028 net.cpp:380] loc_res2a_branch1 -> loc_res2a_branch1
I1215 17:07:27.559548  2028 net.cpp:122] Setting up loc_res2a_branch1
I1215 17:07:27.559559  2028 net.cpp:129] Top shape: 10 256 5 30 30 (11520000)
I1215 17:07:27.559564  2028 net.cpp:137] Memory required for data: 408960120
I1215 17:07:27.559571  2028 layer_factory.hpp:77] Creating layer loc_bn2a_branch1
I1215 17:07:27.559578  2028 net.cpp:84] Creating Layer loc_bn2a_branch1
I1215 17:07:27.559584  2028 net.cpp:406] loc_bn2a_branch1 <- loc_res2a_branch1
I1215 17:07:27.559590  2028 net.cpp:380] loc_bn2a_branch1 -> loc_bn2a_branch1
I1215 17:07:27.559751  2028 net.cpp:122] Setting up loc_bn2a_branch1
I1215 17:07:27.559762  2028 net.cpp:129] Top shape: 10 256 5 30 30 (11520000)
I1215 17:07:27.559767  2028 net.cpp:137] Memory required for data: 455040120
I1215 17:07:27.559777  2028 layer_factory.hpp:77] Creating layer loc_res2a_branch2a
I1215 17:07:27.559785  2028 net.cpp:84] Creating Layer loc_res2a_branch2a
I1215 17:07:27.559792  2028 net.cpp:406] loc_res2a_branch2a <- loc_pool1_loc_pool1_0_split_1
I1215 17:07:27.559798  2028 net.cpp:380] loc_res2a_branch2a -> loc_res2a_branch2a
I1215 17:07:27.560029  2028 net.cpp:122] Setting up loc_res2a_branch2a
I1215 17:07:27.560039  2028 net.cpp:129] Top shape: 10 64 5 30 30 (2880000)
I1215 17:07:27.560044  2028 net.cpp:137] Memory required for data: 466560120
I1215 17:07:27.560050  2028 layer_factory.hpp:77] Creating layer loc_bn2a_branch2a
I1215 17:07:27.560057  2028 net.cpp:84] Creating Layer loc_bn2a_branch2a
I1215 17:07:27.560063  2028 net.cpp:406] loc_bn2a_branch2a <- loc_res2a_branch2a
I1215 17:07:27.560070  2028 net.cpp:380] loc_bn2a_branch2a -> loc_bn2a_branch2a
I1215 17:07:27.560245  2028 net.cpp:122] Setting up loc_bn2a_branch2a
I1215 17:07:27.560255  2028 net.cpp:129] Top shape: 10 64 5 30 30 (2880000)
I1215 17:07:27.560259  2028 net.cpp:137] Memory required for data: 478080120
I1215 17:07:27.560267  2028 layer_factory.hpp:77] Creating layer loc_res2a_branch2a_relu
I1215 17:07:27.560276  2028 net.cpp:84] Creating Layer loc_res2a_branch2a_relu
I1215 17:07:27.560282  2028 net.cpp:406] loc_res2a_branch2a_relu <- loc_bn2a_branch2a
I1215 17:07:27.560302  2028 net.cpp:367] loc_res2a_branch2a_relu -> loc_bn2a_branch2a (in-place)
I1215 17:07:27.560312  2028 net.cpp:122] Setting up loc_res2a_branch2a_relu
I1215 17:07:27.560318  2028 net.cpp:129] Top shape: 10 64 5 30 30 (2880000)
I1215 17:07:27.560322  2028 net.cpp:137] Memory required for data: 489600120
I1215 17:07:27.560328  2028 layer_factory.hpp:77] Creating layer loc_res2a_branch2b
I1215 17:07:27.560338  2028 net.cpp:84] Creating Layer loc_res2a_branch2b
I1215 17:07:27.560343  2028 net.cpp:406] loc_res2a_branch2b <- loc_bn2a_branch2a
I1215 17:07:27.560348  2028 net.cpp:380] loc_res2a_branch2b -> loc_res2a_branch2b
I1215 17:07:27.561375  2028 net.cpp:122] Setting up loc_res2a_branch2b
I1215 17:07:27.561386  2028 net.cpp:129] Top shape: 10 64 5 30 30 (2880000)
I1215 17:07:27.561391  2028 net.cpp:137] Memory required for data: 501120120
I1215 17:07:27.561398  2028 layer_factory.hpp:77] Creating layer loc_bn2a_branch2b
I1215 17:07:27.561405  2028 net.cpp:84] Creating Layer loc_bn2a_branch2b
I1215 17:07:27.561410  2028 net.cpp:406] loc_bn2a_branch2b <- loc_res2a_branch2b
I1215 17:07:27.561417  2028 net.cpp:380] loc_bn2a_branch2b -> loc_bn2a_branch2b
I1215 17:07:27.561591  2028 net.cpp:122] Setting up loc_bn2a_branch2b
I1215 17:07:27.561601  2028 net.cpp:129] Top shape: 10 64 5 30 30 (2880000)
I1215 17:07:27.561606  2028 net.cpp:137] Memory required for data: 512640120
I1215 17:07:27.561617  2028 layer_factory.hpp:77] Creating layer loc_res2a_branch2b_relu
I1215 17:07:27.561625  2028 net.cpp:84] Creating Layer loc_res2a_branch2b_relu
I1215 17:07:27.561630  2028 net.cpp:406] loc_res2a_branch2b_relu <- loc_bn2a_branch2b
I1215 17:07:27.561635  2028 net.cpp:367] loc_res2a_branch2b_relu -> loc_bn2a_branch2b (in-place)
I1215 17:07:27.561642  2028 net.cpp:122] Setting up loc_res2a_branch2b_relu
I1215 17:07:27.561648  2028 net.cpp:129] Top shape: 10 64 5 30 30 (2880000)
I1215 17:07:27.561653  2028 net.cpp:137] Memory required for data: 524160120
I1215 17:07:27.561658  2028 layer_factory.hpp:77] Creating layer loc_res2a_branch2b_t
I1215 17:07:27.561668  2028 net.cpp:84] Creating Layer loc_res2a_branch2b_t
I1215 17:07:27.561673  2028 net.cpp:406] loc_res2a_branch2b_t <- loc_bn2a_branch2b
I1215 17:07:27.561681  2028 net.cpp:380] loc_res2a_branch2b_t -> loc_res2a_branch2b_t
I1215 17:07:27.564926  2028 net.cpp:122] Setting up loc_res2a_branch2b_t
I1215 17:07:27.564950  2028 net.cpp:129] Top shape: 10 64 5 30 30 (2880000)
I1215 17:07:27.564956  2028 net.cpp:137] Memory required for data: 535680120
I1215 17:07:27.564965  2028 layer_factory.hpp:77] Creating layer loc_bn2a_branch2b_t
I1215 17:07:27.564975  2028 net.cpp:84] Creating Layer loc_bn2a_branch2b_t
I1215 17:07:27.564981  2028 net.cpp:406] loc_bn2a_branch2b_t <- loc_res2a_branch2b_t
I1215 17:07:27.564990  2028 net.cpp:380] loc_bn2a_branch2b_t -> loc_bn2a_branch2b_t
I1215 17:07:27.565201  2028 net.cpp:122] Setting up loc_bn2a_branch2b_t
I1215 17:07:27.565217  2028 net.cpp:129] Top shape: 10 64 5 30 30 (2880000)
I1215 17:07:27.565222  2028 net.cpp:137] Memory required for data: 547200120
I1215 17:07:27.565232  2028 layer_factory.hpp:77] Creating layer loc_res2a_branch2b_t_relu
I1215 17:07:27.565240  2028 net.cpp:84] Creating Layer loc_res2a_branch2b_t_relu
I1215 17:07:27.565246  2028 net.cpp:406] loc_res2a_branch2b_t_relu <- loc_bn2a_branch2b_t
I1215 17:07:27.565253  2028 net.cpp:367] loc_res2a_branch2b_t_relu -> loc_bn2a_branch2b_t (in-place)
I1215 17:07:27.565261  2028 net.cpp:122] Setting up loc_res2a_branch2b_t_relu
I1215 17:07:27.565268  2028 net.cpp:129] Top shape: 10 64 5 30 30 (2880000)
I1215 17:07:27.565273  2028 net.cpp:137] Memory required for data: 558720120
I1215 17:07:27.565277  2028 layer_factory.hpp:77] Creating layer loc_res2a_branch2c
I1215 17:07:27.565286  2028 net.cpp:84] Creating Layer loc_res2a_branch2c
I1215 17:07:27.565292  2028 net.cpp:406] loc_res2a_branch2c <- loc_bn2a_branch2b_t
I1215 17:07:27.565299  2028 net.cpp:380] loc_res2a_branch2c -> loc_res2a_branch2c
I1215 17:07:27.565834  2028 net.cpp:122] Setting up loc_res2a_branch2c
I1215 17:07:27.565865  2028 net.cpp:129] Top shape: 10 256 5 30 30 (11520000)
I1215 17:07:27.565871  2028 net.cpp:137] Memory required for data: 604800120
I1215 17:07:27.565877  2028 layer_factory.hpp:77] Creating layer loc_bn2a_branch2c
I1215 17:07:27.565886  2028 net.cpp:84] Creating Layer loc_bn2a_branch2c
I1215 17:07:27.565891  2028 net.cpp:406] loc_bn2a_branch2c <- loc_res2a_branch2c
I1215 17:07:27.565898  2028 net.cpp:380] loc_bn2a_branch2c -> loc_bn2a_branch2c
I1215 17:07:27.566061  2028 net.cpp:122] Setting up loc_bn2a_branch2c
I1215 17:07:27.566071  2028 net.cpp:129] Top shape: 10 256 5 30 30 (11520000)
I1215 17:07:27.566076  2028 net.cpp:137] Memory required for data: 650880120
I1215 17:07:27.566084  2028 layer_factory.hpp:77] Creating layer loc_res2a
I1215 17:07:27.566093  2028 net.cpp:84] Creating Layer loc_res2a
I1215 17:07:27.566098  2028 net.cpp:406] loc_res2a <- loc_bn2a_branch1
I1215 17:07:27.566104  2028 net.cpp:406] loc_res2a <- loc_bn2a_branch2c
I1215 17:07:27.566112  2028 net.cpp:380] loc_res2a -> loc_res2a
I1215 17:07:27.566133  2028 net.cpp:122] Setting up loc_res2a
I1215 17:07:27.566140  2028 net.cpp:129] Top shape: 10 256 5 30 30 (11520000)
I1215 17:07:27.566145  2028 net.cpp:137] Memory required for data: 696960120
I1215 17:07:27.566150  2028 layer_factory.hpp:77] Creating layer loc_res2a_relu
I1215 17:07:27.566157  2028 net.cpp:84] Creating Layer loc_res2a_relu
I1215 17:07:27.566162  2028 net.cpp:406] loc_res2a_relu <- loc_res2a
I1215 17:07:27.566169  2028 net.cpp:367] loc_res2a_relu -> loc_res2a (in-place)
I1215 17:07:27.566175  2028 net.cpp:122] Setting up loc_res2a_relu
I1215 17:07:27.566181  2028 net.cpp:129] Top shape: 10 256 5 30 30 (11520000)
I1215 17:07:27.566186  2028 net.cpp:137] Memory required for data: 743040120
I1215 17:07:27.566191  2028 layer_factory.hpp:77] Creating layer loc_pool2
I1215 17:07:27.566198  2028 net.cpp:84] Creating Layer loc_pool2
I1215 17:07:27.566203  2028 net.cpp:406] loc_pool2 <- loc_res2a
I1215 17:07:27.566210  2028 net.cpp:380] loc_pool2 -> loc_pool2
I1215 17:07:27.566239  2028 net.cpp:122] Setting up loc_pool2
I1215 17:07:27.566247  2028 net.cpp:129] Top shape: 10 256 3 30 30 (6912000)
I1215 17:07:27.566251  2028 net.cpp:137] Memory required for data: 770688120
I1215 17:07:27.566256  2028 layer_factory.hpp:77] Creating layer loc_ip1
I1215 17:07:27.566264  2028 net.cpp:84] Creating Layer loc_ip1
I1215 17:07:27.566270  2028 net.cpp:406] loc_ip1 <- loc_pool2
I1215 17:07:27.566277  2028 net.cpp:380] loc_ip1 -> loc_ip1
I1215 17:07:28.716111  2028 net.cpp:122] Setting up loc_ip1
I1215 17:07:28.716151  2028 net.cpp:129] Top shape: 10 64 (640)
I1215 17:07:28.716161  2028 net.cpp:137] Memory required for data: 770690680
I1215 17:07:28.716176  2028 layer_factory.hpp:77] Creating layer loc_relu1
I1215 17:07:28.716193  2028 net.cpp:84] Creating Layer loc_relu1
I1215 17:07:28.716204  2028 net.cpp:406] loc_relu1 <- loc_ip1
I1215 17:07:28.716218  2028 net.cpp:367] loc_relu1 -> loc_ip1 (in-place)
I1215 17:07:28.716413  2028 net.cpp:122] Setting up loc_relu1
I1215 17:07:28.716430  2028 net.cpp:129] Top shape: 10 64 (640)
I1215 17:07:28.716440  2028 net.cpp:137] Memory required for data: 770693240
I1215 17:07:28.716450  2028 layer_factory.hpp:77] Creating layer loc_ip2
I1215 17:07:28.716466  2028 net.cpp:84] Creating Layer loc_ip2
I1215 17:07:28.716477  2028 net.cpp:406] loc_ip2 <- loc_ip1
I1215 17:07:28.716491  2028 net.cpp:380] loc_ip2 -> theta
I1215 17:07:28.716727  2028 net.cpp:122] Setting up loc_ip2
I1215 17:07:28.716742  2028 net.cpp:129] Top shape: 10 12 (120)
I1215 17:07:28.716753  2028 net.cpp:137] Memory required for data: 770693720
I1215 17:07:28.716773  2028 layer_factory.hpp:77] Creating layer trist_layer
I1215 17:07:28.716789  2028 net.cpp:84] Creating Layer trist_layer
I1215 17:07:28.716800  2028 net.cpp:406] trist_layer <- data_data_0_split_1
I1215 17:07:28.716811  2028 net.cpp:406] trist_layer <- theta
I1215 17:07:28.716823  2028 net.cpp:380] trist_layer -> trist_output
I1215 17:07:28.720893  2028 net.cpp:122] Setting up trist_layer
I1215 17:07:28.720937  2028 net.cpp:129] Top shape: 10 3 10 120 120 (4320000)
I1215 17:07:28.720948  2028 net.cpp:137] Memory required for data: 787973720
I1215 17:07:28.720958  2028 layer_factory.hpp:77] Creating layer conv1
I1215 17:07:28.720978  2028 net.cpp:84] Creating Layer conv1
I1215 17:07:28.720993  2028 net.cpp:406] conv1 <- trist_output
I1215 17:07:28.721006  2028 net.cpp:380] conv1 -> conv1
I1215 17:07:28.721405  2028 net.cpp:122] Setting up conv1
I1215 17:07:28.721421  2028 net.cpp:129] Top shape: 10 64 10 60 60 (23040000)
I1215 17:07:28.721431  2028 net.cpp:137] Memory required for data: 880133720
I1215 17:07:28.721442  2028 layer_factory.hpp:77] Creating layer bn_conv1
I1215 17:07:28.721458  2028 net.cpp:84] Creating Layer bn_conv1
I1215 17:07:28.721468  2028 net.cpp:406] bn_conv1 <- conv1
I1215 17:07:28.721480  2028 net.cpp:380] bn_conv1 -> bn_conv1
I1215 17:07:28.721705  2028 net.cpp:122] Setting up bn_conv1
I1215 17:07:28.721721  2028 net.cpp:129] Top shape: 10 64 10 60 60 (23040000)
I1215 17:07:28.721730  2028 net.cpp:137] Memory required for data: 972293720
I1215 17:07:28.721746  2028 layer_factory.hpp:77] Creating layer conv1_relu
I1215 17:07:28.721761  2028 net.cpp:84] Creating Layer conv1_relu
I1215 17:07:28.721772  2028 net.cpp:406] conv1_relu <- bn_conv1
I1215 17:07:28.721784  2028 net.cpp:367] conv1_relu -> bn_conv1 (in-place)
I1215 17:07:28.721797  2028 net.cpp:122] Setting up conv1_relu
I1215 17:07:28.721809  2028 net.cpp:129] Top shape: 10 64 10 60 60 (23040000)
I1215 17:07:28.721818  2028 net.cpp:137] Memory required for data: 1064453720
I1215 17:07:28.721827  2028 layer_factory.hpp:77] Creating layer pool1
I1215 17:07:28.721840  2028 net.cpp:84] Creating Layer pool1
I1215 17:07:28.721849  2028 net.cpp:406] pool1 <- bn_conv1
I1215 17:07:28.721861  2028 net.cpp:380] pool1 -> pool1
I1215 17:07:28.721901  2028 net.cpp:122] Setting up pool1
I1215 17:07:28.721910  2028 net.cpp:129] Top shape: 10 64 5 30 30 (2880000)
I1215 17:07:28.721915  2028 net.cpp:137] Memory required for data: 1075973720
I1215 17:07:28.721920  2028 layer_factory.hpp:77] Creating layer pool1_pool1_0_split
I1215 17:07:28.721931  2028 net.cpp:84] Creating Layer pool1_pool1_0_split
I1215 17:07:28.721936  2028 net.cpp:406] pool1_pool1_0_split <- pool1
I1215 17:07:28.721942  2028 net.cpp:380] pool1_pool1_0_split -> pool1_pool1_0_split_0
I1215 17:07:28.721951  2028 net.cpp:380] pool1_pool1_0_split -> pool1_pool1_0_split_1
I1215 17:07:28.721978  2028 net.cpp:122] Setting up pool1_pool1_0_split
I1215 17:07:28.721985  2028 net.cpp:129] Top shape: 10 64 5 30 30 (2880000)
I1215 17:07:28.721992  2028 net.cpp:129] Top shape: 10 64 5 30 30 (2880000)
I1215 17:07:28.721995  2028 net.cpp:137] Memory required for data: 1099013720
I1215 17:07:28.722000  2028 layer_factory.hpp:77] Creating layer res2a_branch1
I1215 17:07:28.722009  2028 net.cpp:84] Creating Layer res2a_branch1
I1215 17:07:28.722015  2028 net.cpp:406] res2a_branch1 <- pool1_pool1_0_split_0
I1215 17:07:28.722023  2028 net.cpp:380] res2a_branch1 -> res2a_branch1
I1215 17:07:28.722556  2028 net.cpp:122] Setting up res2a_branch1
I1215 17:07:28.722566  2028 net.cpp:129] Top shape: 10 256 5 30 30 (11520000)
I1215 17:07:28.722571  2028 net.cpp:137] Memory required for data: 1145093720
I1215 17:07:28.722578  2028 layer_factory.hpp:77] Creating layer bn2a_branch1
I1215 17:07:28.722586  2028 net.cpp:84] Creating Layer bn2a_branch1
I1215 17:07:28.722591  2028 net.cpp:406] bn2a_branch1 <- res2a_branch1
I1215 17:07:28.722599  2028 net.cpp:380] bn2a_branch1 -> bn2a_branch1
I1215 17:07:28.722760  2028 net.cpp:122] Setting up bn2a_branch1
I1215 17:07:28.722770  2028 net.cpp:129] Top shape: 10 256 5 30 30 (11520000)
I1215 17:07:28.722775  2028 net.cpp:137] Memory required for data: 1191173720
I1215 17:07:28.722784  2028 layer_factory.hpp:77] Creating layer res2a_branch2a
I1215 17:07:28.722792  2028 net.cpp:84] Creating Layer res2a_branch2a
I1215 17:07:28.722797  2028 net.cpp:406] res2a_branch2a <- pool1_pool1_0_split_1
I1215 17:07:28.722805  2028 net.cpp:380] res2a_branch2a -> res2a_branch2a
I1215 17:07:28.723074  2028 net.cpp:122] Setting up res2a_branch2a
I1215 17:07:28.723086  2028 net.cpp:129] Top shape: 10 64 5 30 30 (2880000)
I1215 17:07:28.723091  2028 net.cpp:137] Memory required for data: 1202693720
I1215 17:07:28.723098  2028 layer_factory.hpp:77] Creating layer bn2a_branch2a
I1215 17:07:28.723114  2028 net.cpp:84] Creating Layer bn2a_branch2a
I1215 17:07:28.723119  2028 net.cpp:406] bn2a_branch2a <- res2a_branch2a
I1215 17:07:28.723126  2028 net.cpp:380] bn2a_branch2a -> bn2a_branch2a
I1215 17:07:28.723307  2028 net.cpp:122] Setting up bn2a_branch2a
I1215 17:07:28.723316  2028 net.cpp:129] Top shape: 10 64 5 30 30 (2880000)
I1215 17:07:28.723321  2028 net.cpp:137] Memory required for data: 1214213720
I1215 17:07:28.723330  2028 layer_factory.hpp:77] Creating layer res2a_branch2a_relu
I1215 17:07:28.723337  2028 net.cpp:84] Creating Layer res2a_branch2a_relu
I1215 17:07:28.723342  2028 net.cpp:406] res2a_branch2a_relu <- bn2a_branch2a
I1215 17:07:28.723348  2028 net.cpp:367] res2a_branch2a_relu -> bn2a_branch2a (in-place)
I1215 17:07:28.723356  2028 net.cpp:122] Setting up res2a_branch2a_relu
I1215 17:07:28.723361  2028 net.cpp:129] Top shape: 10 64 5 30 30 (2880000)
I1215 17:07:28.723366  2028 net.cpp:137] Memory required for data: 1225733720
I1215 17:07:28.723371  2028 layer_factory.hpp:77] Creating layer res2a_branch2b
I1215 17:07:28.723379  2028 net.cpp:84] Creating Layer res2a_branch2b
I1215 17:07:28.723386  2028 net.cpp:406] res2a_branch2b <- bn2a_branch2a
I1215 17:07:28.723392  2028 net.cpp:380] res2a_branch2b -> res2a_branch2b
I1215 17:07:28.724413  2028 net.cpp:122] Setting up res2a_branch2b
I1215 17:07:28.724423  2028 net.cpp:129] Top shape: 10 64 5 30 30 (2880000)
I1215 17:07:28.724428  2028 net.cpp:137] Memory required for data: 1237253720
I1215 17:07:28.724434  2028 layer_factory.hpp:77] Creating layer bn2a_branch2b
I1215 17:07:28.724442  2028 net.cpp:84] Creating Layer bn2a_branch2b
I1215 17:07:28.724447  2028 net.cpp:406] bn2a_branch2b <- res2a_branch2b
I1215 17:07:28.724453  2028 net.cpp:380] bn2a_branch2b -> bn2a_branch2b
I1215 17:07:28.724629  2028 net.cpp:122] Setting up bn2a_branch2b
I1215 17:07:28.724638  2028 net.cpp:129] Top shape: 10 64 5 30 30 (2880000)
I1215 17:07:28.724643  2028 net.cpp:137] Memory required for data: 1248773720
I1215 17:07:28.724651  2028 layer_factory.hpp:77] Creating layer res2a_branch2b_relu
I1215 17:07:28.724658  2028 net.cpp:84] Creating Layer res2a_branch2b_relu
I1215 17:07:28.724663  2028 net.cpp:406] res2a_branch2b_relu <- bn2a_branch2b
I1215 17:07:28.724669  2028 net.cpp:367] res2a_branch2b_relu -> bn2a_branch2b (in-place)
I1215 17:07:28.724681  2028 net.cpp:122] Setting up res2a_branch2b_relu
I1215 17:07:28.724686  2028 net.cpp:129] Top shape: 10 64 5 30 30 (2880000)
I1215 17:07:28.724691  2028 net.cpp:137] Memory required for data: 1260293720
I1215 17:07:28.724696  2028 layer_factory.hpp:77] Creating layer res2a_branch2b_t
I1215 17:07:28.724704  2028 net.cpp:84] Creating Layer res2a_branch2b_t
I1215 17:07:28.724709  2028 net.cpp:406] res2a_branch2b_t <- bn2a_branch2b
I1215 17:07:28.724716  2028 net.cpp:380] res2a_branch2b_t -> res2a_branch2b_t
I1215 17:07:28.725150  2028 net.cpp:122] Setting up res2a_branch2b_t
I1215 17:07:28.725160  2028 net.cpp:129] Top shape: 10 64 5 30 30 (2880000)
I1215 17:07:28.725165  2028 net.cpp:137] Memory required for data: 1271813720
I1215 17:07:28.725170  2028 layer_factory.hpp:77] Creating layer bn2a_branch2b_t
I1215 17:07:28.725178  2028 net.cpp:84] Creating Layer bn2a_branch2b_t
I1215 17:07:28.725184  2028 net.cpp:406] bn2a_branch2b_t <- res2a_branch2b_t
I1215 17:07:28.725190  2028 net.cpp:380] bn2a_branch2b_t -> bn2a_branch2b_t
I1215 17:07:28.725361  2028 net.cpp:122] Setting up bn2a_branch2b_t
I1215 17:07:28.725370  2028 net.cpp:129] Top shape: 10 64 5 30 30 (2880000)
I1215 17:07:28.725374  2028 net.cpp:137] Memory required for data: 1283333720
I1215 17:07:28.725383  2028 layer_factory.hpp:77] Creating layer res2a_branch2b_t_relu
I1215 17:07:28.725389  2028 net.cpp:84] Creating Layer res2a_branch2b_t_relu
I1215 17:07:28.725406  2028 net.cpp:406] res2a_branch2b_t_relu <- bn2a_branch2b_t
I1215 17:07:28.725414  2028 net.cpp:367] res2a_branch2b_t_relu -> bn2a_branch2b_t (in-place)
I1215 17:07:28.725421  2028 net.cpp:122] Setting up res2a_branch2b_t_relu
I1215 17:07:28.725427  2028 net.cpp:129] Top shape: 10 64 5 30 30 (2880000)
I1215 17:07:28.725432  2028 net.cpp:137] Memory required for data: 1294853720
I1215 17:07:28.725437  2028 layer_factory.hpp:77] Creating layer res2a_branch2c
I1215 17:07:28.725445  2028 net.cpp:84] Creating Layer res2a_branch2c
I1215 17:07:28.725451  2028 net.cpp:406] res2a_branch2c <- bn2a_branch2b_t
I1215 17:07:28.725457  2028 net.cpp:380] res2a_branch2c -> res2a_branch2c
I1215 17:07:28.725991  2028 net.cpp:122] Setting up res2a_branch2c
I1215 17:07:28.726001  2028 net.cpp:129] Top shape: 10 256 5 30 30 (11520000)
I1215 17:07:28.726006  2028 net.cpp:137] Memory required for data: 1340933720
I1215 17:07:28.726011  2028 layer_factory.hpp:77] Creating layer bn2a_branch2c
I1215 17:07:28.726019  2028 net.cpp:84] Creating Layer bn2a_branch2c
I1215 17:07:28.726024  2028 net.cpp:406] bn2a_branch2c <- res2a_branch2c
I1215 17:07:28.726032  2028 net.cpp:380] bn2a_branch2c -> bn2a_branch2c
I1215 17:07:28.726191  2028 net.cpp:122] Setting up bn2a_branch2c
I1215 17:07:28.726199  2028 net.cpp:129] Top shape: 10 256 5 30 30 (11520000)
I1215 17:07:28.726204  2028 net.cpp:137] Memory required for data: 1387013720
I1215 17:07:28.726212  2028 layer_factory.hpp:77] Creating layer res2a
I1215 17:07:28.726222  2028 net.cpp:84] Creating Layer res2a
I1215 17:07:28.726227  2028 net.cpp:406] res2a <- bn2a_branch1
I1215 17:07:28.726233  2028 net.cpp:406] res2a <- bn2a_branch2c
I1215 17:07:28.726238  2028 net.cpp:380] res2a -> res2a
I1215 17:07:28.726259  2028 net.cpp:122] Setting up res2a
I1215 17:07:28.726267  2028 net.cpp:129] Top shape: 10 256 5 30 30 (11520000)
I1215 17:07:28.726272  2028 net.cpp:137] Memory required for data: 1433093720
I1215 17:07:28.726277  2028 layer_factory.hpp:77] Creating layer res2a_relu
I1215 17:07:28.726284  2028 net.cpp:84] Creating Layer res2a_relu
I1215 17:07:28.726289  2028 net.cpp:406] res2a_relu <- res2a
I1215 17:07:28.726294  2028 net.cpp:367] res2a_relu -> res2a (in-place)
I1215 17:07:28.726301  2028 net.cpp:122] Setting up res2a_relu
I1215 17:07:28.726307  2028 net.cpp:129] Top shape: 10 256 5 30 30 (11520000)
I1215 17:07:28.726311  2028 net.cpp:137] Memory required for data: 1479173720
I1215 17:07:28.726316  2028 layer_factory.hpp:77] Creating layer pool2
I1215 17:07:28.726323  2028 net.cpp:84] Creating Layer pool2
I1215 17:07:28.726328  2028 net.cpp:406] pool2 <- res2a
I1215 17:07:28.726335  2028 net.cpp:380] pool2 -> pool2
I1215 17:07:28.726364  2028 net.cpp:122] Setting up pool2
I1215 17:07:28.726372  2028 net.cpp:129] Top shape: 10 256 3 30 30 (6912000)
I1215 17:07:28.726377  2028 net.cpp:137] Memory required for data: 1506821720
I1215 17:07:28.726382  2028 layer_factory.hpp:77] Creating layer ip1
I1215 17:07:28.726390  2028 net.cpp:84] Creating Layer ip1
I1215 17:07:28.726395  2028 net.cpp:406] ip1 <- pool2
I1215 17:07:28.726402  2028 net.cpp:380] ip1 -> ip1
I1215 17:07:28.781613  2028 net.cpp:122] Setting up ip1
I1215 17:07:28.781654  2028 net.cpp:129] Top shape: 10 3 (30)
I1215 17:07:28.781661  2028 net.cpp:137] Memory required for data: 1506821840
I1215 17:07:28.781682  2028 layer_factory.hpp:77] Creating layer ip1_ip1_0_split
I1215 17:07:28.781695  2028 net.cpp:84] Creating Layer ip1_ip1_0_split
I1215 17:07:28.781702  2028 net.cpp:406] ip1_ip1_0_split <- ip1
I1215 17:07:28.781711  2028 net.cpp:380] ip1_ip1_0_split -> ip1_ip1_0_split_0
I1215 17:07:28.781721  2028 net.cpp:380] ip1_ip1_0_split -> ip1_ip1_0_split_1
I1215 17:07:28.781761  2028 net.cpp:122] Setting up ip1_ip1_0_split
I1215 17:07:28.781771  2028 net.cpp:129] Top shape: 10 3 (30)
I1215 17:07:28.781777  2028 net.cpp:129] Top shape: 10 3 (30)
I1215 17:07:28.781782  2028 net.cpp:137] Memory required for data: 1506822080
I1215 17:07:28.781787  2028 layer_factory.hpp:77] Creating layer accuracy/top1
I1215 17:07:28.781796  2028 net.cpp:84] Creating Layer accuracy/top1
I1215 17:07:28.781823  2028 net.cpp:406] accuracy/top1 <- ip1_ip1_0_split_0
I1215 17:07:28.781831  2028 net.cpp:406] accuracy/top1 <- label_data_1_split_0
I1215 17:07:28.781846  2028 net.cpp:380] accuracy/top1 -> accuracy/top1
…
