…
I1216 21:35:52.106830 15029 net.cpp:51] Initializing net from parameters: 
name: "3DSTN-IsoGDNet"
state {
  phase: TRAIN
  level: 0
  stage: ""
}
layer {
  name: "data"
  type: "TridimData"
  top: "data"
  top: "label"
  include {
    phase: TRAIN
  }
  transform_param {
    mirror: true
    crop_size: 120
    mean_value: 128
    mean_value: 128
    mean_value: 128
  }
  tridim_data_param {
    source: "/data2/xyyu/datasets/train_3.lst"
    batch_size: 8
    shuffle: true
    new_height: 120
    new_width: 160
    root_folder: ""
    new_length: 10
    show_data: false
    use_image: true
  }
}
layer {
  name: "loc_conv1"
  type: "Convolution"
  bottom: "data"
  top: "loc_conv1"
  convolution_param {
    num_output: 20
    pad: 1
    pad: 1
    pad: 1
    kernel_size: 3
    kernel_size: 3
    kernel_size: 3
    stride: 1
    stride: 1
    stride: 1
    weight_filler {
      type: "gaussian"
      std: 0.001
    }
    bias_filler {
      type: "constant"
    }
    engine: CAFFE
  }
}
layer {
  name: "loc_pool1"
  type: "Pooling3D"
  bottom: "loc_conv1"
  top: "loc_pool1"
  pooling3d_param {
    pool: MAX
    pad: 0
    kernel_size: 3
    stride: 2
    pad_l: 0
    kernel_l: 2
    stride_l: 2
  }
}
layer {
  name: "loc_relu1"
  type: "ReLU"
  bottom: "loc_pool1"
  top: "loc_pool1"
  relu_param {
    engine: CAFFE
  }
}
layer {
  name: "loc_conv2"
  type: "Convolution"
  bottom: "loc_pool1"
  top: "loc_conv2"
  convolution_param {
    num_output: 20
    pad: 1
    pad: 1
    pad: 1
    kernel_size: 3
    kernel_size: 3
    kernel_size: 3
    stride: 1
    stride: 1
    stride: 1
    weight_filler {
      type: "gaussian"
      std: 0.001
    }
    bias_filler {
      type: "constant"
    }
    engine: CAFFE
  }
}
layer {
  name: "loc_pool2"
  type: "Pooling3D"
  bottom: "loc_conv2"
  top: "loc_pool2"
  pooling3d_param {
    pool: MAX
    pad: 0
    kernel_size: 3
    stride: 2
    pad_l: 0
    kernel_l: 2
    stride_l: 2
  }
}
layer {
  name: "loc_relu2"
  type: "ReLU"
  bottom: "loc_pool2"
  top: "loc_pool2"
  relu_param {
    engine: CAFFE
  }
}
layer {
  name: "loc_ip1"
  type: "InnerProduct"
  bottom: "loc_pool2"
  top: "loc_ip1"
  inner_product_param {
    num_output: 20
    weight_filler {
      type: "gaussian"
      std: 0.001
    }
    bias_filler {
      type: "constant"
    }
  }
}
layer {
  name: "loc_relu3"
  type: "ReLU"
  bottom: "loc_ip1"
  top: "loc_ip1"
  relu_param {
    engine: CAFFE
  }
}
layer {
  name: "loc_reg"
  type: "InnerProduct"
  bottom: "loc_ip1"
  top: "theta"
  inner_product_param {
    num_output: 12
    weight_filler {
      type: "constant"
      value: 0
    }
    bias_filler {
      type: "file"
      file: "examples/mnist_tests/bias_init.txt"
    }
  }
}
layer {
  name: "st_layer"
  type: "TridimSpatialTransformer"
  bottom: "data"
  bottom: "theta"
  top: "st_output"
}
layer {
  name: "conv1"
  type: "Convolution"
  bottom: "st_output"
  top: "conv1"
  convolution_param {
    num_output: 32
    pad: 1
    pad: 1
    pad: 1
    kernel_size: 3
    kernel_size: 3
    kernel_size: 3
    stride: 1
    stride: 1
    stride: 1
    weight_filler {
      type: "gaussian"
      std: 0.001
    }
    bias_filler {
      type: "constant"
    }
    engine: CAFFE
  }
}
layer {
  name: "pool1"
  type: "Pooling3D"
  bottom: "conv1"
  top: "pool1"
  pooling3d_param {
    pool: MAX
    pad: 0
    kernel_size: 3
    stride: 2
    pad_l: 0
    kernel_l: 2
    stride_l: 2
  }
}
layer {
  name: "relu1"
  type: "ReLU"
  bottom: "pool1"
  top: "pool1"
  relu_param {
    engine: CAFFE
  }
}
layer {
  name: "conv2"
  type: "Convolution"
  bottom: "pool1"
  top: "conv2"
  convolution_param {
    num_output: 32
    pad: 1
    pad: 1
    pad: 1
    kernel_size: 3
    kernel_size: 3
    kernel_size: 3
    stride: 1
    stride: 1
    stride: 1
    weight_filler {
      type: "gaussian"
      std: 0.001
    }
    bias_filler {
      type: "constant"
    }
    engine: CAFFE
  }
}
layer {
  name: "pool2"
  type: "Pooling3D"
  bottom: "conv2"
  top: "pool2"
  pooling3d_param {
    pool: MAX
    pad: 0
    kernel_size: 3
    stride: 2
    pad_l: 0
    kernel_l: 2
    stride_l: 2
  }
}
layer {
  name: "relu2"
  type: "ReLU"
  bottom: "pool2"
  top: "pool2"
  relu_param {
    engine: CAFFE
  }
}
layer {
  name: "ip1"
  type: "InnerProduct"
  bottom: "pool2"
  top: "ip1"
  param {
    lr_mult: 10
    decay_mult: 1
  }
  param {
    lr_mult: 20
    decay_mult: 0
  }
  inner_product_param {
    num_output: 3
    weight_filler {
      type: "gaussian"
      std: 0.001
    }
    bias_filler {
      type: "constant"
      value: 0
    }
  }
}
layer {
  name: "loss"
  type: "SoftmaxWithLoss"
  bottom: "ip1"
  bottom: "label"
  top: "loss"
}
I1216 21:35:52.108240 15029 layer_factory.hpp:77] Creating layer data
I1216 21:35:52.108284 15029 net.cpp:84] Creating Layer data
I1216 21:35:52.108295 15029 net.cpp:380] data -> data
I1216 21:35:52.108320 15029 net.cpp:380] data -> label
I1216 21:35:52.108667 15029 tridim_data_layer.cpp:67] Opening file /data2/xyyu/datasets/train_3.lst
I1216 21:35:52.144486 15029 tridim_data_layer.cpp:130] Shuffling data
I1216 21:35:52.144745 15029 tridim_data_layer.cpp:140] A total of 20698 tridim chunks.
I1216 21:35:52.148962 15029 tridim_data_layer.cpp:182] output data size: 8,3,10,120,120
I1216 21:35:52.179309 15029 net.cpp:122] Setting up data
I1216 21:35:52.179352 15029 net.cpp:129] Top shape: 8 3 10 120 120 (3456000)
I1216 21:35:52.179360 15029 net.cpp:129] Top shape: 8 (8)
I1216 21:35:52.179365 15029 net.cpp:137] Memory required for data: 13824032
I1216 21:35:52.179374 15029 layer_factory.hpp:77] Creating layer data_data_0_split
I1216 21:35:52.179389 15029 net.cpp:84] Creating Layer data_data_0_split
I1216 21:35:52.179399 15029 net.cpp:406] data_data_0_split <- data
I1216 21:35:52.179414 15029 net.cpp:380] data_data_0_split -> data_data_0_split_0
I1216 21:35:52.179426 15029 net.cpp:380] data_data_0_split -> data_data_0_split_1
I1216 21:35:52.179471 15029 net.cpp:122] Setting up data_data_0_split
I1216 21:35:52.179482 15029 net.cpp:129] Top shape: 8 3 10 120 120 (3456000)
I1216 21:35:52.179489 15029 net.cpp:129] Top shape: 8 3 10 120 120 (3456000)
I1216 21:35:52.179497 15029 net.cpp:137] Memory required for data: 41472032
I1216 21:35:52.179502 15029 layer_factory.hpp:77] Creating layer loc_conv1
I1216 21:35:52.179519 15029 net.cpp:84] Creating Layer loc_conv1
I1216 21:35:52.179525 15029 net.cpp:406] loc_conv1 <- data_data_0_split_0
I1216 21:35:52.179533 15029 net.cpp:380] loc_conv1 -> loc_conv1
I1216 21:35:52.181545 15029 net.cpp:122] Setting up loc_conv1
I1216 21:35:52.181586 15029 net.cpp:129] Top shape: 8 20 10 120 120 (23040000)
I1216 21:35:52.181601 15029 net.cpp:137] Memory required for data: 133632032
I1216 21:35:52.181630 15029 layer_factory.hpp:77] Creating layer loc_pool1
I1216 21:35:52.181653 15029 net.cpp:84] Creating Layer loc_pool1
I1216 21:35:52.181666 15029 net.cpp:406] loc_pool1 <- loc_conv1
I1216 21:35:52.181679 15029 net.cpp:380] loc_pool1 -> loc_pool1
I1216 21:35:52.181749 15029 net.cpp:122] Setting up loc_pool1
I1216 21:35:52.181768 15029 net.cpp:129] Top shape: 8 20 5 60 60 (2880000)
I1216 21:35:52.181778 15029 net.cpp:137] Memory required for data: 145152032
I1216 21:35:52.181824 15029 layer_factory.hpp:77] Creating layer loc_relu1
I1216 21:35:52.181845 15029 net.cpp:84] Creating Layer loc_relu1
I1216 21:35:52.181859 15029 net.cpp:406] loc_relu1 <- loc_pool1
I1216 21:35:52.181869 15029 net.cpp:367] loc_relu1 -> loc_pool1 (in-place)
I1216 21:35:52.181890 15029 net.cpp:122] Setting up loc_relu1
I1216 21:35:52.181905 15029 net.cpp:129] Top shape: 8 20 5 60 60 (2880000)
I1216 21:35:52.181913 15029 net.cpp:137] Memory required for data: 156672032
I1216 21:35:52.181923 15029 layer_factory.hpp:77] Creating layer loc_conv2
I1216 21:35:52.181941 15029 net.cpp:84] Creating Layer loc_conv2
I1216 21:35:52.181952 15029 net.cpp:406] loc_conv2 <- loc_pool1
I1216 21:35:52.181964 15029 net.cpp:380] loc_conv2 -> loc_conv2
I1216 21:35:52.186089 15029 net.cpp:122] Setting up loc_conv2
I1216 21:35:52.186168 15029 net.cpp:129] Top shape: 8 20 5 60 60 (2880000)
I1216 21:35:52.186195 15029 net.cpp:137] Memory required for data: 168192032
I1216 21:35:52.186251 15029 layer_factory.hpp:77] Creating layer loc_pool2
I1216 21:35:52.186291 15029 net.cpp:84] Creating Layer loc_pool2
I1216 21:35:52.186319 15029 net.cpp:406] loc_pool2 <- loc_conv2
I1216 21:35:52.186353 15029 net.cpp:380] loc_pool2 -> loc_pool2
I1216 21:35:52.186480 15029 net.cpp:122] Setting up loc_pool2
I1216 21:35:52.186517 15029 net.cpp:129] Top shape: 8 20 3 30 30 (432000)
I1216 21:35:52.186543 15029 net.cpp:137] Memory required for data: 169920032
I1216 21:35:52.186569 15029 layer_factory.hpp:77] Creating layer loc_relu2
I1216 21:35:52.186602 15029 net.cpp:84] Creating Layer loc_relu2
I1216 21:35:52.186630 15029 net.cpp:406] loc_relu2 <- loc_pool2
I1216 21:35:52.186659 15029 net.cpp:367] loc_relu2 -> loc_pool2 (in-place)
I1216 21:35:52.186693 15029 net.cpp:122] Setting up loc_relu2
I1216 21:35:52.186725 15029 net.cpp:129] Top shape: 8 20 3 30 30 (432000)
I1216 21:35:52.186751 15029 net.cpp:137] Memory required for data: 171648032
I1216 21:35:52.186782 15029 layer_factory.hpp:77] Creating layer loc_ip1
I1216 21:35:52.186831 15029 net.cpp:84] Creating Layer loc_ip1
I1216 21:35:52.186864 15029 net.cpp:406] loc_ip1 <- loc_pool2
I1216 21:35:52.186897 15029 net.cpp:380] loc_ip1 -> loc_ip1
I1216 21:35:52.232470 15029 net.cpp:122] Setting up loc_ip1
I1216 21:35:52.232516 15029 net.cpp:129] Top shape: 8 20 (160)
I1216 21:35:52.232527 15029 net.cpp:137] Memory required for data: 171648672
I1216 21:35:52.232547 15029 layer_factory.hpp:77] Creating layer loc_relu3
I1216 21:35:52.232571 15029 net.cpp:84] Creating Layer loc_relu3
I1216 21:35:52.232587 15029 net.cpp:406] loc_relu3 <- loc_ip1
I1216 21:35:52.232602 15029 net.cpp:367] loc_relu3 -> loc_ip1 (in-place)
I1216 21:35:52.232620 15029 net.cpp:122] Setting up loc_relu3
I1216 21:35:52.232632 15029 net.cpp:129] Top shape: 8 20 (160)
I1216 21:35:52.232641 15029 net.cpp:137] Memory required for data: 171649312
I1216 21:35:52.232651 15029 layer_factory.hpp:77] Creating layer loc_reg
I1216 21:35:52.232666 15029 net.cpp:84] Creating Layer loc_reg
I1216 21:35:52.232677 15029 net.cpp:406] loc_reg <- loc_ip1
I1216 21:35:52.232688 15029 net.cpp:380] loc_reg -> theta
I1216 21:35:52.270334 15029 net.cpp:122] Setting up loc_reg
I1216 21:35:52.270373 15029 net.cpp:129] Top shape: 8 12 (96)
I1216 21:35:52.270391 15029 net.cpp:137] Memory required for data: 171649696
I1216 21:35:52.270416 15029 layer_factory.hpp:77] Creating layer st_layer
I1216 21:35:52.270445 15029 net.cpp:84] Creating Layer st_layer
I1216 21:35:52.270468 15029 net.cpp:406] st_layer <- data_data_0_split_1
I1216 21:35:52.270488 15029 net.cpp:406] st_layer <- theta
I1216 21:35:52.270506 15029 net.cpp:380] st_layer -> st_output
I1216 21:35:52.275370 15029 net.cpp:122] Setting up st_layer
I1216 21:35:52.275401 15029 net.cpp:129] Top shape: 8 3 10 120 120 (3456000)
I1216 21:35:52.275414 15029 net.cpp:137] Memory required for data: 185473696
I1216 21:35:52.275426 15029 layer_factory.hpp:77] Creating layer conv1
I1216 21:35:52.275449 15029 net.cpp:84] Creating Layer conv1
I1216 21:35:52.275462 15029 net.cpp:406] conv1 <- st_output
I1216 21:35:52.275480 15029 net.cpp:380] conv1 -> conv1
I1216 21:35:52.276038 15029 net.cpp:122] Setting up conv1
I1216 21:35:52.276063 15029 net.cpp:129] Top shape: 8 32 10 120 120 (36864000)
I1216 21:35:52.276075 15029 net.cpp:137] Memory required for data: 332929696
I1216 21:35:52.276096 15029 layer_factory.hpp:77] Creating layer pool1
I1216 21:35:52.276113 15029 net.cpp:84] Creating Layer pool1
I1216 21:35:52.276125 15029 net.cpp:406] pool1 <- conv1
I1216 21:35:52.276139 15029 net.cpp:380] pool1 -> pool1
I1216 21:35:52.276188 15029 net.cpp:122] Setting up pool1
I1216 21:35:52.276209 15029 net.cpp:129] Top shape: 8 32 5 60 60 (4608000)
I1216 21:35:52.276219 15029 net.cpp:137] Memory required for data: 351361696
I1216 21:35:52.276232 15029 layer_factory.hpp:77] Creating layer relu1
I1216 21:35:52.276247 15029 net.cpp:84] Creating Layer relu1
I1216 21:35:52.276257 15029 net.cpp:406] relu1 <- pool1
I1216 21:35:52.276269 15029 net.cpp:367] relu1 -> pool1 (in-place)
I1216 21:35:52.276285 15029 net.cpp:122] Setting up relu1
I1216 21:35:52.276298 15029 net.cpp:129] Top shape: 8 32 5 60 60 (4608000)
I1216 21:35:52.276309 15029 net.cpp:137] Memory required for data: 369793696
I1216 21:35:52.276319 15029 layer_factory.hpp:77] Creating layer conv2
I1216 21:35:52.276335 15029 net.cpp:84] Creating Layer conv2
I1216 21:35:52.276346 15029 net.cpp:406] conv2 <- pool1
I1216 21:35:52.276360 15029 net.cpp:380] conv2 -> conv2
I1216 21:35:52.277643 15029 net.cpp:122] Setting up conv2
I1216 21:35:52.277668 15029 net.cpp:129] Top shape: 8 32 5 60 60 (4608000)
I1216 21:35:52.277679 15029 net.cpp:137] Memory required for data: 388225696
I1216 21:35:52.277694 15029 layer_factory.hpp:77] Creating layer pool2
I1216 21:35:52.277711 15029 net.cpp:84] Creating Layer pool2
I1216 21:35:52.277724 15029 net.cpp:406] pool2 <- conv2
I1216 21:35:52.277739 15029 net.cpp:380] pool2 -> pool2
I1216 21:35:52.277788 15029 net.cpp:122] Setting up pool2
I1216 21:35:52.277809 15029 net.cpp:129] Top shape: 8 32 3 30 30 (691200)
I1216 21:35:52.277819 15029 net.cpp:137] Memory required for data: 390990496
I1216 21:35:52.277832 15029 layer_factory.hpp:77] Creating layer relu2
I1216 21:35:52.277844 15029 net.cpp:84] Creating Layer relu2
I1216 21:35:52.277855 15029 net.cpp:406] relu2 <- pool2
I1216 21:35:52.277868 15029 net.cpp:367] relu2 -> pool2 (in-place)
I1216 21:35:52.277882 15029 net.cpp:122] Setting up relu2
I1216 21:35:52.277894 15029 net.cpp:129] Top shape: 8 32 3 30 30 (691200)
I1216 21:35:52.277905 15029 net.cpp:137] Memory required for data: 393755296
I1216 21:35:52.277915 15029 layer_factory.hpp:77] Creating layer ip1
I1216 21:35:52.277931 15029 net.cpp:84] Creating Layer ip1
I1216 21:35:52.277941 15029 net.cpp:406] ip1 <- pool2
I1216 21:35:52.277954 15029 net.cpp:380] ip1 -> ip1
I1216 21:35:52.286979 15029 net.cpp:122] Setting up ip1
I1216 21:35:52.287009 15029 net.cpp:129] Top shape: 8 3 (24)
I1216 21:35:52.287016 15029 net.cpp:137] Memory required for data: 393755392
I1216 21:35:52.287027 15029 layer_factory.hpp:77] Creating layer loss
I1216 21:35:52.287045 15029 net.cpp:84] Creating Layer loss
I1216 21:35:52.287051 15029 net.cpp:406] loss <- ip1
I1216 21:35:52.287060 15029 net.cpp:406] loss <- label
I1216 21:35:52.287068 15029 net.cpp:380] loss -> loss
I1216 21:35:52.287087 15029 layer_factory.hpp:77] Creating layer loss
…
I1216 21:35:52.912818 15029 net.cpp:51] Initializing net from parameters: 
name: "3DSTN-IsoGDNet"
state {
  phase: TEST
}
layer {
  name: "data"
  type: "TridimData"
  top: "data"
  top: "label"
  include {
    phase: TEST
  }
  transform_param {
    mirror: false
    crop_size: 120
    mean_value: 128
    mean_value: 128
    mean_value: 128
  }
  tridim_data_param {
    source: "/data2/xyyu/datasets/valid_3.lst"
    batch_size: 10
    shuffle: true
    new_height: 120
    new_width: 160
    root_folder: ""
    new_length: 10
    show_data: false
    use_image: true
  }
}
layer {
  name: "loc_conv1"
  type: "Convolution"
  bottom: "data"
  top: "loc_conv1"
  convolution_param {
    num_output: 20
    pad: 1
    pad: 1
    pad: 1
    kernel_size: 3
    kernel_size: 3
    kernel_size: 3
    stride: 1
    stride: 1
    stride: 1
    weight_filler {
      type: "gaussian"
      std: 0.001
    }
    bias_filler {
      type: "constant"
    }
    engine: CAFFE
  }
}
layer {
  name: "loc_pool1"
  type: "Pooling3D"
  bottom: "loc_conv1"
  top: "loc_pool1"
  pooling3d_param {
    pool: MAX
    pad: 0
    kernel_size: 3
    stride: 2
    pad_l: 0
    kernel_l: 2
    stride_l: 2
  }
}
layer {
  name: "loc_relu1"
  type: "ReLU"
  bottom: "loc_pool1"
  top: "loc_pool1"
  relu_param {
    engine: CAFFE
  }
}
layer {
  name: "loc_conv2"
  type: "Convolution"
  bottom: "loc_pool1"
  top: "loc_conv2"
  convolution_param {
    num_output: 20
    pad: 1
    pad: 1
    pad: 1
    kernel_size: 3
    kernel_size: 3
    kernel_size: 3
    stride: 1
    stride: 1
    stride: 1
    weight_filler {
      type: "gaussian"
      std: 0.001
    }
    bias_filler {
      type: "constant"
    }
    engine: CAFFE
  }
}
layer {
  name: "loc_pool2"
  type: "Pooling3D"
  bottom: "loc_conv2"
  top: "loc_pool2"
  pooling3d_param {
    pool: MAX
    pad: 0
    kernel_size: 3
    stride: 2
    pad_l: 0
    kernel_l: 2
    stride_l: 2
  }
}
layer {
  name: "loc_relu2"
  type: "ReLU"
  bottom: "loc_pool2"
  top: "loc_pool2"
  relu_param {
    engine: CAFFE
  }
}
layer {
  name: "loc_ip1"
  type: "InnerProduct"
  bottom: "loc_pool2"
  top: "loc_ip1"
  inner_product_param {
    num_output: 20
    weight_filler {
      type: "gaussian"
      std: 0.001
    }
    bias_filler {
      type: "constant"
    }
  }
}
layer {
  name: "loc_relu3"
  type: "ReLU"
  bottom: "loc_ip1"
  top: "loc_ip1"
  relu_param {
    engine: CAFFE
  }
}
layer {
  name: "loc_reg"
  type: "InnerProduct"
  bottom: "loc_ip1"
  top: "theta"
  inner_product_param {
    num_output: 12
    weight_filler {
      type: "constant"
      value: 0
    }
    bias_filler {
      type: "file"
      file: "examples/mnist_tests/bias_init.txt"
    }
  }
}
layer {
  name: "st_layer"
  type: "TridimSpatialTransformer"
  bottom: "data"
  bottom: "theta"
  top: "st_output"
}
layer {
  name: "conv1"
  type: "Convolution"
  bottom: "st_output"
  top: "conv1"
  convolution_param {
    num_output: 32
    pad: 1
    pad: 1
    pad: 1
    kernel_size: 3
    kernel_size: 3
    kernel_size: 3
    stride: 1
    stride: 1
    stride: 1
    weight_filler {
      type: "gaussian"
      std: 0.001
    }
    bias_filler {
      type: "constant"
    }
    engine: CAFFE
  }
}
layer {
  name: "pool1"
  type: "Pooling3D"
  bottom: "conv1"
  top: "pool1"
  pooling3d_param {
    pool: MAX
    pad: 0
    kernel_size: 3
    stride: 2
    pad_l: 0
    kernel_l: 2
    stride_l: 2
  }
}
layer {
  name: "relu1"
  type: "ReLU"
  bottom: "pool1"
  top: "pool1"
  relu_param {
    engine: CAFFE
  }
}
layer {
  name: "conv2"
  type: "Convolution"
  bottom: "pool1"
  top: "conv2"
  convolution_param {
    num_output: 32
    pad: 1
    pad: 1
    pad: 1
    kernel_size: 3
    kernel_size: 3
    kernel_size: 3
    stride: 1
    stride: 1
    stride: 1
    weight_filler {
      type: "gaussian"
      std: 0.001
    }
    bias_filler {
      type: "constant"
    }
    engine: CAFFE
  }
}
layer {
  name: "pool2"
  type: "Pooling3D"
  bottom: "conv2"
  top: "pool2"
  pooling3d_param {
    pool: MAX
    pad: 0
    kernel_size: 3
    stride: 2
    pad_l: 0
    kernel_l: 2
    stride_l: 2
  }
}
layer {
  name: "relu2"
  type: "ReLU"
  bottom: "pool2"
  top: "pool2"
  relu_param {
    engine: CAFFE
  }
}
layer {
  name: "ip1"
  type: "InnerProduct"
  bottom: "pool2"
  top: "ip1"
  param {
    lr_mult: 10
    decay_mult: 1
  }
  param {
    lr_mult: 20
    decay_mult: 0
  }
  inner_product_param {
    num_output: 3
    weight_filler {
      type: "gaussian"
      std: 0.001
    }
    bias_filler {
      type: "constant"
      value: 0
    }
  }
}
layer {
  name: "accuracy/top1"
  type: "Accuracy"
  bottom: "ip1"
  bottom: "label"
  top: "accuracy/top1"
  include {
    phase: TEST
  }
}
layer {
  name: "loss"
  type: "SoftmaxWithLoss"
  bottom: "ip1"
  bottom: "label"
  top: "loss"
}
I1216 21:35:52.913640 15029 layer_factory.hpp:77] Creating layer data
I1216 21:35:52.913661 15029 net.cpp:84] Creating Layer data
I1216 21:35:52.913671 15029 net.cpp:380] data -> data
I1216 21:35:52.913681 15029 net.cpp:380] data -> label
I1216 21:35:52.913692 15029 tridim_data_layer.cpp:67] Opening file /data2/xyyu/datasets/valid_3.lst
I1216 21:35:52.932833 15029 tridim_data_layer.cpp:130] Shuffling data
I1216 21:35:52.932901 15029 tridim_data_layer.cpp:140] A total of 2467 tridim chunks.
I1216 21:35:52.937160 15029 tridim_data_layer.cpp:182] output data size: 10,3,10,120,120
I1216 21:35:52.979622 15029 net.cpp:122] Setting up data
I1216 21:35:52.979662 15029 net.cpp:129] Top shape: 10 3 10 120 120 (4320000)
I1216 21:35:52.979672 15029 net.cpp:129] Top shape: 10 (10)
I1216 21:35:52.979678 15029 net.cpp:137] Memory required for data: 17280040
I1216 21:35:52.979687 15029 layer_factory.hpp:77] Creating layer data_data_0_split
I1216 21:35:52.979703 15029 net.cpp:84] Creating Layer data_data_0_split
I1216 21:35:52.979710 15029 net.cpp:406] data_data_0_split <- data
I1216 21:35:52.979719 15029 net.cpp:380] data_data_0_split -> data_data_0_split_0
I1216 21:35:52.979732 15029 net.cpp:380] data_data_0_split -> data_data_0_split_1
I1216 21:35:52.979801 15029 net.cpp:122] Setting up data_data_0_split
I1216 21:35:52.979815 15029 net.cpp:129] Top shape: 10 3 10 120 120 (4320000)
I1216 21:35:52.979821 15029 net.cpp:129] Top shape: 10 3 10 120 120 (4320000)
I1216 21:35:52.979827 15029 net.cpp:137] Memory required for data: 51840040
I1216 21:35:52.979833 15029 layer_factory.hpp:77] Creating layer label_data_1_split
I1216 21:35:52.979842 15029 net.cpp:84] Creating Layer label_data_1_split
I1216 21:35:52.979848 15029 net.cpp:406] label_data_1_split <- label
I1216 21:35:52.979856 15029 net.cpp:380] label_data_1_split -> label_data_1_split_0
I1216 21:35:52.979866 15029 net.cpp:380] label_data_1_split -> label_data_1_split_1
I1216 21:35:52.979960 15029 net.cpp:122] Setting up label_data_1_split
I1216 21:35:52.979975 15029 net.cpp:129] Top shape: 10 (10)
I1216 21:35:52.979984 15029 net.cpp:129] Top shape: 10 (10)
I1216 21:35:52.979988 15029 net.cpp:137] Memory required for data: 51840120
I1216 21:35:52.979995 15029 layer_factory.hpp:77] Creating layer loc_conv1
I1216 21:35:52.980010 15029 net.cpp:84] Creating Layer loc_conv1
I1216 21:35:52.980016 15029 net.cpp:406] loc_conv1 <- data_data_0_split_0
I1216 21:35:52.980026 15029 net.cpp:380] loc_conv1 -> loc_conv1
I1216 21:35:52.980432 15029 net.cpp:122] Setting up loc_conv1
I1216 21:35:52.980448 15029 net.cpp:129] Top shape: 10 20 10 120 120 (28800000)
I1216 21:35:52.980453 15029 net.cpp:137] Memory required for data: 167040120
I1216 21:35:52.980466 15029 layer_factory.hpp:77] Creating layer loc_pool1
I1216 21:35:52.980479 15029 net.cpp:84] Creating Layer loc_pool1
I1216 21:35:52.980484 15029 net.cpp:406] loc_pool1 <- loc_conv1
I1216 21:35:52.980492 15029 net.cpp:380] loc_pool1 -> loc_pool1
I1216 21:35:52.980531 15029 net.cpp:122] Setting up loc_pool1
I1216 21:35:52.980541 15029 net.cpp:129] Top shape: 10 20 5 60 60 (3600000)
I1216 21:35:52.980548 15029 net.cpp:137] Memory required for data: 181440120
I1216 21:35:52.980554 15029 layer_factory.hpp:77] Creating layer loc_relu1
I1216 21:35:52.980562 15029 net.cpp:84] Creating Layer loc_relu1
I1216 21:35:52.980569 15029 net.cpp:406] loc_relu1 <- loc_pool1
I1216 21:35:52.980578 15029 net.cpp:367] loc_relu1 -> loc_pool1 (in-place)
I1216 21:35:52.980587 15029 net.cpp:122] Setting up loc_relu1
I1216 21:35:52.980595 15029 net.cpp:129] Top shape: 10 20 5 60 60 (3600000)
I1216 21:35:52.980600 15029 net.cpp:137] Memory required for data: 195840120
I1216 21:35:52.980607 15029 layer_factory.hpp:77] Creating layer loc_conv2
I1216 21:35:52.980617 15029 net.cpp:84] Creating Layer loc_conv2
I1216 21:35:52.980623 15029 net.cpp:406] loc_conv2 <- loc_pool1
I1216 21:35:52.980633 15029 net.cpp:380] loc_conv2 -> loc_conv2
I1216 21:35:52.981140 15029 net.cpp:122] Setting up loc_conv2
I1216 21:35:52.981156 15029 net.cpp:129] Top shape: 10 20 5 60 60 (3600000)
I1216 21:35:52.981163 15029 net.cpp:137] Memory required for data: 210240120
I1216 21:35:52.981173 15029 layer_factory.hpp:77] Creating layer loc_pool2
I1216 21:35:52.981181 15029 net.cpp:84] Creating Layer loc_pool2
I1216 21:35:52.981187 15029 net.cpp:406] loc_pool2 <- loc_conv2
I1216 21:35:52.981195 15029 net.cpp:380] loc_pool2 -> loc_pool2
I1216 21:35:52.981231 15029 net.cpp:122] Setting up loc_pool2
I1216 21:35:52.981241 15029 net.cpp:129] Top shape: 10 20 3 30 30 (540000)
I1216 21:35:52.981247 15029 net.cpp:137] Memory required for data: 212400120
I1216 21:35:52.981253 15029 layer_factory.hpp:77] Creating layer loc_relu2
I1216 21:35:52.981261 15029 net.cpp:84] Creating Layer loc_relu2
I1216 21:35:52.981268 15029 net.cpp:406] loc_relu2 <- loc_pool2
I1216 21:35:52.981276 15029 net.cpp:367] loc_relu2 -> loc_pool2 (in-place)
I1216 21:35:52.981283 15029 net.cpp:122] Setting up loc_relu2
I1216 21:35:52.981290 15029 net.cpp:129] Top shape: 10 20 3 30 30 (540000)
I1216 21:35:52.981295 15029 net.cpp:137] Memory required for data: 214560120
I1216 21:35:52.981302 15029 layer_factory.hpp:77] Creating layer loc_ip1
I1216 21:35:52.981310 15029 net.cpp:84] Creating Layer loc_ip1
I1216 21:35:52.981317 15029 net.cpp:406] loc_ip1 <- loc_pool2
I1216 21:35:52.981323 15029 net.cpp:380] loc_ip1 -> loc_ip1
I1216 21:35:53.015581 15029 net.cpp:122] Setting up loc_ip1
I1216 21:35:53.015619 15029 net.cpp:129] Top shape: 10 20 (200)
I1216 21:35:53.015627 15029 net.cpp:137] Memory required for data: 214560920
I1216 21:35:53.015643 15029 layer_factory.hpp:77] Creating layer loc_relu3
I1216 21:35:53.015658 15029 net.cpp:84] Creating Layer loc_relu3
I1216 21:35:53.015666 15029 net.cpp:406] loc_relu3 <- loc_ip1
I1216 21:35:53.015676 15029 net.cpp:367] loc_relu3 -> loc_ip1 (in-place)
I1216 21:35:53.015691 15029 net.cpp:122] Setting up loc_relu3
I1216 21:35:53.015699 15029 net.cpp:129] Top shape: 10 20 (200)
I1216 21:35:53.015741 15029 net.cpp:137] Memory required for data: 214561720
I1216 21:35:53.015750 15029 layer_factory.hpp:77] Creating layer loc_reg
I1216 21:35:53.015761 15029 net.cpp:84] Creating Layer loc_reg
I1216 21:35:53.015767 15029 net.cpp:406] loc_reg <- loc_ip1
I1216 21:35:53.015775 15029 net.cpp:380] loc_reg -> theta
I1216 21:35:53.015967 15029 net.cpp:122] Setting up loc_reg
I1216 21:35:53.015983 15029 net.cpp:129] Top shape: 10 12 (120)
I1216 21:35:53.015990 15029 net.cpp:137] Memory required for data: 214562200
I1216 21:35:53.016000 15029 layer_factory.hpp:77] Creating layer st_layer
I1216 21:35:53.016010 15029 net.cpp:84] Creating Layer st_layer
I1216 21:35:53.016017 15029 net.cpp:406] st_layer <- data_data_0_split_1
I1216 21:35:53.016026 15029 net.cpp:406] st_layer <- theta
I1216 21:35:53.016034 15029 net.cpp:380] st_layer -> st_output
I1216 21:35:53.021086 15029 net.cpp:122] Setting up st_layer
I1216 21:35:53.021107 15029 net.cpp:129] Top shape: 10 3 10 120 120 (4320000)
I1216 21:35:53.021114 15029 net.cpp:137] Memory required for data: 231842200
I1216 21:35:53.021123 15029 layer_factory.hpp:77] Creating layer conv1
I1216 21:35:53.021138 15029 net.cpp:84] Creating Layer conv1
I1216 21:35:53.021148 15029 net.cpp:406] conv1 <- st_output
I1216 21:35:53.021158 15029 net.cpp:380] conv1 -> conv1
I1216 21:35:53.021592 15029 net.cpp:122] Setting up conv1
I1216 21:35:53.021608 15029 net.cpp:129] Top shape: 10 32 10 120 120 (46080000)
I1216 21:35:53.021615 15029 net.cpp:137] Memory required for data: 416162200
I1216 21:35:53.021627 15029 layer_factory.hpp:77] Creating layer pool1
I1216 21:35:53.021639 15029 net.cpp:84] Creating Layer pool1
I1216 21:35:53.021647 15029 net.cpp:406] pool1 <- conv1
I1216 21:35:53.021656 15029 net.cpp:380] pool1 -> pool1
I1216 21:35:53.021697 15029 net.cpp:122] Setting up pool1
I1216 21:35:53.021709 15029 net.cpp:129] Top shape: 10 32 5 60 60 (5760000)
I1216 21:35:53.021715 15029 net.cpp:137] Memory required for data: 439202200
I1216 21:35:53.021723 15029 layer_factory.hpp:77] Creating layer relu1
I1216 21:35:53.021731 15029 net.cpp:84] Creating Layer relu1
I1216 21:35:53.021744 15029 net.cpp:406] relu1 <- pool1
I1216 21:35:53.021751 15029 net.cpp:367] relu1 -> pool1 (in-place)
I1216 21:35:53.021761 15029 net.cpp:122] Setting up relu1
I1216 21:35:53.021770 15029 net.cpp:129] Top shape: 10 32 5 60 60 (5760000)
I1216 21:35:53.021775 15029 net.cpp:137] Memory required for data: 462242200
I1216 21:35:53.021781 15029 layer_factory.hpp:77] Creating layer conv2
I1216 21:35:53.021793 15029 net.cpp:84] Creating Layer conv2
I1216 21:35:53.021800 15029 net.cpp:406] conv2 <- pool1
I1216 21:35:53.021807 15029 net.cpp:380] conv2 -> conv2
I1216 21:35:53.022754 15029 net.cpp:122] Setting up conv2
I1216 21:35:53.022769 15029 net.cpp:129] Top shape: 10 32 5 60 60 (5760000)
I1216 21:35:53.022775 15029 net.cpp:137] Memory required for data: 485282200
I1216 21:35:53.022783 15029 layer_factory.hpp:77] Creating layer pool2
I1216 21:35:53.022792 15029 net.cpp:84] Creating Layer pool2
I1216 21:35:53.022799 15029 net.cpp:406] pool2 <- conv2
I1216 21:35:53.022805 15029 net.cpp:380] pool2 -> pool2
I1216 21:35:53.022842 15029 net.cpp:122] Setting up pool2
I1216 21:35:53.022853 15029 net.cpp:129] Top shape: 10 32 3 30 30 (864000)
I1216 21:35:53.022860 15029 net.cpp:137] Memory required for data: 488738200
I1216 21:35:53.022864 15029 layer_factory.hpp:77] Creating layer relu2
I1216 21:35:53.022872 15029 net.cpp:84] Creating Layer relu2
I1216 21:35:53.022878 15029 net.cpp:406] relu2 <- pool2
I1216 21:35:53.022886 15029 net.cpp:367] relu2 -> pool2 (in-place)
I1216 21:35:53.022893 15029 net.cpp:122] Setting up relu2
I1216 21:35:53.022900 15029 net.cpp:129] Top shape: 10 32 3 30 30 (864000)
I1216 21:35:53.022914 15029 net.cpp:137] Memory required for data: 492194200
I1216 21:35:53.022920 15029 layer_factory.hpp:77] Creating layer ip1
I1216 21:35:53.022930 15029 net.cpp:84] Creating Layer ip1
I1216 21:35:53.022936 15029 net.cpp:406] ip1 <- pool2
I1216 21:35:53.022943 15029 net.cpp:380] ip1 -> ip1
I1216 21:35:53.030680 15029 net.cpp:122] Setting up ip1
I1216 21:35:53.030733 15029 net.cpp:129] Top shape: 10 3 (30)
I1216 21:35:53.030742 15029 net.cpp:137] Memory required for data: 492194320
I1216 21:35:53.030752 15029 layer_factory.hpp:77] Creating layer ip1_ip1_0_split
I1216 21:35:53.030763 15029 net.cpp:84] Creating Layer ip1_ip1_0_split
I1216 21:35:53.030771 15029 net.cpp:406] ip1_ip1_0_split <- ip1
I1216 21:35:53.030778 15029 net.cpp:380] ip1_ip1_0_split -> ip1_ip1_0_split_0
I1216 21:35:53.030788 15029 net.cpp:380] ip1_ip1_0_split -> ip1_ip1_0_split_1
I1216 21:35:53.030829 15029 net.cpp:122] Setting up ip1_ip1_0_split
I1216 21:35:53.030838 15029 net.cpp:129] Top shape: 10 3 (30)
I1216 21:35:53.030845 15029 net.cpp:129] Top shape: 10 3 (30)
I1216 21:35:53.030850 15029 net.cpp:137] Memory required for data: 492194560
I1216 21:35:53.030856 15029 layer_factory.hpp:77] Creating layer accuracy/top1
I1216 21:35:53.030865 15029 net.cpp:84] Creating Layer accuracy/top1
I1216 21:35:53.030870 15029 net.cpp:406] accuracy/top1 <- ip1_ip1_0_split_0
I1216 21:35:53.030877 15029 net.cpp:406] accuracy/top1 <- label_data_1_split_0
I1216 21:35:53.030884 15029 net.cpp:380] accuracy/top1 -> accuracy/top1
…
