…
I1216 17:25:56.417527 24919 net.cpp:51] Initializing net from parameters: 
name: "3DSTN-IsoGDNet"
state {
  phase: TRAIN
  level: 0
  stage: ""
}
layer {
  name: "data"
  type: "TridimData"
  top: "data"
  top: "label"
  include {
    phase: TRAIN
  }
  transform_param {
    mirror: true
    crop_size: 120
    mean_value: 128
    mean_value: 128
    mean_value: 128
  }
  tridim_data_param {
    source: "/data2/xyyu/datasets/train_3.lst"
    batch_size: 8
    shuffle: true
    new_height: 120
    new_width: 160
    root_folder: ""
    new_length: 10
    show_data: false
    use_image: true
  }
}
layer {
  name: "loc_conv1"
  type: "Convolution"
  bottom: "data"
  top: "loc_conv1"
  convolution_param {
    num_output: 20
    pad: 1
    pad: 1
    pad: 1
    kernel_size: 3
    kernel_size: 3
    kernel_size: 3
    stride: 1
    stride: 1
    stride: 1
    weight_filler {
      type: "gaussian"
      std: 0.001
    }
    bias_filler {
      type: "constant"
    }
    engine: CAFFE
  }
}
layer {
  name: "loc_pool1"
  type: "Pooling3D"
  bottom: "loc_conv1"
  top: "loc_pool1"
  pooling3d_param {
    pool: MAX
    pad: 0
    kernel_size: 3
    stride: 2
    pad_l: 0
    kernel_l: 2
    stride_l: 2
  }
}
layer {
  name: "loc_relu1"
  type: "ReLU"
  bottom: "loc_pool1"
  top: "loc_pool1"
  relu_param {
    engine: CAFFE
  }
}
layer {
  name: "loc_conv2"
  type: "Convolution"
  bottom: "loc_pool1"
  top: "loc_conv2"
  convolution_param {
    num_output: 20
    pad: 1
    pad: 1
    pad: 1
    kernel_size: 3
    kernel_size: 3
    kernel_size: 3
    stride: 1
    stride: 1
    stride: 1
    weight_filler {
      type: "gaussian"
      std: 0.001
    }
    bias_filler {
      type: "constant"
    }
    engine: CAFFE
  }
}
layer {
  name: "loc_pool2"
  type: "Pooling3D"
  bottom: "loc_conv2"
  top: "loc_pool2"
  pooling3d_param {
    pool: MAX
    pad: 0
    kernel_size: 3
    stride: 2
    pad_l: 0
    kernel_l: 2
    stride_l: 2
  }
}
layer {
  name: "loc_relu2"
  type: "ReLU"
  bottom: "loc_pool2"
  top: "loc_pool2"
  relu_param {
    engine: CAFFE
  }
}
layer {
  name: "loc_ip1"
  type: "InnerProduct"
  bottom: "loc_pool2"
  top: "loc_ip1"
  inner_product_param {
    num_output: 20
    weight_filler {
      type: "gaussian"
      std: 0.001
    }
    bias_filler {
      type: "constant"
    }
  }
}
layer {
  name: "loc_relu3"
  type: "ReLU"
  bottom: "loc_ip1"
  top: "loc_ip1"
  relu_param {
    engine: CAFFE
  }
}
layer {
  name: "loc_reg"
  type: "InnerProduct"
  bottom: "loc_ip1"
  top: "theta"
  inner_product_param {
    num_output: 12
    weight_filler {
      type: "constant"
      value: 0
    }
    bias_filler {
      type: "file"
      file: "examples/mnist_tests/bias_init.txt"
    }
  }
}
layer {
  name: "st_layer"
  type: "TridimSpatialTransformer"
  bottom: "data"
  bottom: "theta"
  top: "st_output"
}
layer {
  name: "conv1"
  type: "Convolution"
  bottom: "st_output"
  top: "conv1"
  convolution_param {
    num_output: 32
    pad: 1
    pad: 1
    pad: 1
    kernel_size: 3
    kernel_size: 3
    kernel_size: 3
    stride: 1
    stride: 1
    stride: 1
    weight_filler {
      type: "gaussian"
      std: 0.001
    }
    bias_filler {
      type: "constant"
    }
    engine: CAFFE
  }
}
layer {
  name: "pool1"
  type: "Pooling3D"
  bottom: "conv1"
  top: "pool1"
  pooling3d_param {
    pool: MAX
    pad: 0
    kernel_size: 3
    stride: 2
    pad_l: 0
    kernel_l: 2
    stride_l: 2
  }
}
layer {
  name: "relu1"
  type: "ReLU"
  bottom: "pool1"
  top: "pool1"
  relu_param {
    engine: CAFFE
  }
}
layer {
  name: "conv2"
  type: "Convolution"
  bottom: "pool1"
  top: "conv2"
  convolution_param {
    num_output: 32
    pad: 1
    pad: 1
    pad: 1
    kernel_size: 3
    kernel_size: 3
    kernel_size: 3
    stride: 1
    stride: 1
    stride: 1
    weight_filler {
      type: "gaussian"
      std: 0.001
    }
    bias_filler {
      type: "constant"
    }
    engine: CAFFE
  }
}
layer {
  name: "pool2"
  type: "Pooling3D"
  bottom: "conv2"
  top: "pool2"
  pooling3d_param {
    pool: MAX
    pad: 0
    kernel_size: 3
    stride: 2
    pad_l: 0
    kernel_l: 2
    stride_l: 2
  }
}
layer {
  name: "relu2"
  type: "ReLU"
  bottom: "pool2"
  top: "pool2"
  relu_param {
    engine: CAFFE
  }
}
layer {
  name: "ip1"
  type: "InnerProduct"
  bottom: "pool2"
  top: "ip1"
  param {
    lr_mult: 10
    decay_mult: 1
  }
  param {
    lr_mult: 20
    decay_mult: 0
  }
  inner_product_param {
    num_output: 3
    weight_filler {
      type: "gaussian"
      std: 0.001
    }
    bias_filler {
      type: "constant"
      value: 0
    }
  }
}
layer {
  name: "loss"
  type: "SoftmaxWithLoss"
  bottom: "ip1"
  bottom: "label"
  top: "loss"
}
I1216 17:25:56.420424 24919 layer_factory.hpp:77] Creating layer data
I1216 17:25:56.421023 24919 net.cpp:84] Creating Layer data
I1216 17:25:56.423311 24919 net.cpp:380] data -> data
I1216 17:25:56.424213 24919 net.cpp:380] data -> label
I1216 17:25:56.424600 24919 tridim_data_layer.cpp:67] Opening file /data2/xyyu/datasets/train_3.lst
I1216 17:25:56.492203 24919 tridim_data_layer.cpp:130] Shuffling data
I1216 17:25:56.493896 24919 tridim_data_layer.cpp:140] A total of 20698 tridim chunks.
I1216 17:25:56.498447 24919 tridim_data_layer.cpp:182] output data size: 8,3,10,120,120
I1216 17:25:56.529305 24919 net.cpp:122] Setting up data
I1216 17:25:56.529361 24919 net.cpp:129] Top shape: 8 3 10 120 120 (3456000)
I1216 17:25:56.529373 24919 net.cpp:129] Top shape: 8 (8)
I1216 17:25:56.529379 24919 net.cpp:137] Memory required for data: 13824032
I1216 17:25:56.529391 24919 layer_factory.hpp:77] Creating layer data_data_0_split
I1216 17:25:56.529407 24919 net.cpp:84] Creating Layer data_data_0_split
I1216 17:25:56.529417 24919 net.cpp:406] data_data_0_split <- data
I1216 17:25:56.529433 24919 net.cpp:380] data_data_0_split -> data_data_0_split_0
I1216 17:25:56.529448 24919 net.cpp:380] data_data_0_split -> data_data_0_split_1
I1216 17:25:56.529530 24919 net.cpp:122] Setting up data_data_0_split
I1216 17:25:56.529542 24919 net.cpp:129] Top shape: 8 3 10 120 120 (3456000)
I1216 17:25:56.529549 24919 net.cpp:129] Top shape: 8 3 10 120 120 (3456000)
I1216 17:25:56.529554 24919 net.cpp:137] Memory required for data: 41472032
I1216 17:25:56.529561 24919 layer_factory.hpp:77] Creating layer loc_conv1
I1216 17:25:56.529580 24919 net.cpp:84] Creating Layer loc_conv1
I1216 17:25:56.529588 24919 net.cpp:406] loc_conv1 <- data_data_0_split_0
I1216 17:25:56.529597 24919 net.cpp:380] loc_conv1 -> loc_conv1
I1216 17:25:56.615519 24919 net.cpp:122] Setting up loc_conv1
I1216 17:25:56.615556 24919 net.cpp:129] Top shape: 8 20 10 120 120 (23040000)
I1216 17:25:56.615564 24919 net.cpp:137] Memory required for data: 133632032
I1216 17:25:56.615587 24919 layer_factory.hpp:77] Creating layer loc_pool1
I1216 17:25:56.615603 24919 net.cpp:84] Creating Layer loc_pool1
I1216 17:25:56.615612 24919 net.cpp:406] loc_pool1 <- loc_conv1
I1216 17:25:56.615619 24919 net.cpp:380] loc_pool1 -> loc_pool1
I1216 17:25:56.615667 24919 net.cpp:122] Setting up loc_pool1
I1216 17:25:56.615682 24919 net.cpp:129] Top shape: 8 20 5 60 60 (2880000)
I1216 17:25:56.615689 24919 net.cpp:137] Memory required for data: 145152032
I1216 17:25:56.615720 24919 layer_factory.hpp:77] Creating layer loc_relu1
I1216 17:25:56.624696 24919 net.cpp:84] Creating Layer loc_relu1
I1216 17:25:56.624719 24919 net.cpp:406] loc_relu1 <- loc_pool1
I1216 17:25:56.624728 24919 net.cpp:367] loc_relu1 -> loc_pool1 (in-place)
I1216 17:25:56.624745 24919 net.cpp:122] Setting up loc_relu1
I1216 17:25:56.624754 24919 net.cpp:129] Top shape: 8 20 5 60 60 (2880000)
I1216 17:25:56.624760 24919 net.cpp:137] Memory required for data: 156672032
I1216 17:25:56.624766 24919 layer_factory.hpp:77] Creating layer loc_conv2
I1216 17:25:56.624778 24919 net.cpp:84] Creating Layer loc_conv2
I1216 17:25:56.624785 24919 net.cpp:406] loc_conv2 <- loc_pool1
I1216 17:25:56.624792 24919 net.cpp:380] loc_conv2 -> loc_conv2
I1216 17:25:56.626901 24919 net.cpp:122] Setting up loc_conv2
I1216 17:25:56.626931 24919 net.cpp:129] Top shape: 8 20 5 60 60 (2880000)
I1216 17:25:56.626937 24919 net.cpp:137] Memory required for data: 168192032
I1216 17:25:56.626951 24919 layer_factory.hpp:77] Creating layer loc_pool2
I1216 17:25:56.626963 24919 net.cpp:84] Creating Layer loc_pool2
I1216 17:25:56.626969 24919 net.cpp:406] loc_pool2 <- loc_conv2
I1216 17:25:56.626977 24919 net.cpp:380] loc_pool2 -> loc_pool2
I1216 17:25:56.627017 24919 net.cpp:122] Setting up loc_pool2
I1216 17:25:56.627025 24919 net.cpp:129] Top shape: 8 20 3 30 30 (432000)
I1216 17:25:56.627030 24919 net.cpp:137] Memory required for data: 169920032
I1216 17:25:56.627037 24919 layer_factory.hpp:77] Creating layer loc_relu2
I1216 17:25:56.627044 24919 net.cpp:84] Creating Layer loc_relu2
I1216 17:25:56.627050 24919 net.cpp:406] loc_relu2 <- loc_pool2
I1216 17:25:56.627056 24919 net.cpp:367] loc_relu2 -> loc_pool2 (in-place)
I1216 17:25:56.627064 24919 net.cpp:122] Setting up loc_relu2
I1216 17:25:56.627071 24919 net.cpp:129] Top shape: 8 20 3 30 30 (432000)
I1216 17:25:56.627076 24919 net.cpp:137] Memory required for data: 171648032
I1216 17:25:56.627081 24919 layer_factory.hpp:77] Creating layer loc_ip1
I1216 17:25:56.627094 24919 net.cpp:84] Creating Layer loc_ip1
I1216 17:25:56.627100 24919 net.cpp:406] loc_ip1 <- loc_pool2
I1216 17:25:56.627107 24919 net.cpp:380] loc_ip1 -> loc_ip1
I1216 17:25:56.656455 24919 net.cpp:122] Setting up loc_ip1
I1216 17:25:56.656488 24919 net.cpp:129] Top shape: 8 20 (160)
I1216 17:25:56.656494 24919 net.cpp:137] Memory required for data: 171648672
I1216 17:25:56.656509 24919 layer_factory.hpp:77] Creating layer loc_relu3
I1216 17:25:56.656522 24919 net.cpp:84] Creating Layer loc_relu3
I1216 17:25:56.656536 24919 net.cpp:406] loc_relu3 <- loc_ip1
I1216 17:25:56.656545 24919 net.cpp:367] loc_relu3 -> loc_ip1 (in-place)
I1216 17:25:56.656556 24919 net.cpp:122] Setting up loc_relu3
I1216 17:25:56.656563 24919 net.cpp:129] Top shape: 8 20 (160)
I1216 17:25:56.656569 24919 net.cpp:137] Memory required for data: 171649312
I1216 17:25:56.656575 24919 layer_factory.hpp:77] Creating layer loc_reg
I1216 17:25:56.656584 24919 net.cpp:84] Creating Layer loc_reg
I1216 17:25:56.656590 24919 net.cpp:406] loc_reg <- loc_ip1
I1216 17:25:56.656599 24919 net.cpp:380] loc_reg -> theta
I1216 17:25:56.685183 24919 net.cpp:122] Setting up loc_reg
I1216 17:25:56.685205 24919 net.cpp:129] Top shape: 8 12 (96)
I1216 17:25:56.685211 24919 net.cpp:137] Memory required for data: 171649696
I1216 17:25:56.685223 24919 layer_factory.hpp:77] Creating layer st_layer
I1216 17:25:56.686295 24919 net.cpp:84] Creating Layer st_layer
I1216 17:25:56.686316 24919 net.cpp:406] st_layer <- data_data_0_split_1
I1216 17:25:56.686326 24919 net.cpp:406] st_layer <- theta
I1216 17:25:56.686334 24919 net.cpp:380] st_layer -> st_output
I1216 17:25:56.690867 24919 net.cpp:122] Setting up st_layer
I1216 17:25:56.690888 24919 net.cpp:129] Top shape: 8 3 10 120 120 (3456000)
I1216 17:25:56.690894 24919 net.cpp:137] Memory required for data: 185473696
I1216 17:25:56.690901 24919 layer_factory.hpp:77] Creating layer conv1
I1216 17:25:56.690922 24919 net.cpp:84] Creating Layer conv1
I1216 17:25:56.690929 24919 net.cpp:406] conv1 <- st_output
I1216 17:25:56.690939 24919 net.cpp:380] conv1 -> conv1
I1216 17:25:56.693473 24919 net.cpp:122] Setting up conv1
I1216 17:25:56.693498 24919 net.cpp:129] Top shape: 8 32 10 120 120 (36864000)
I1216 17:25:56.693506 24919 net.cpp:137] Memory required for data: 332929696
I1216 17:25:56.693518 24919 layer_factory.hpp:77] Creating layer pool1
I1216 17:25:56.693536 24919 net.cpp:84] Creating Layer pool1
I1216 17:25:56.693542 24919 net.cpp:406] pool1 <- conv1
I1216 17:25:56.693550 24919 net.cpp:380] pool1 -> pool1
I1216 17:25:56.693585 24919 net.cpp:122] Setting up pool1
I1216 17:25:56.693596 24919 net.cpp:129] Top shape: 8 32 5 60 60 (4608000)
I1216 17:25:56.693603 24919 net.cpp:137] Memory required for data: 351361696
I1216 17:25:56.693608 24919 layer_factory.hpp:77] Creating layer relu1
I1216 17:25:56.693617 24919 net.cpp:84] Creating Layer relu1
I1216 17:25:56.693624 24919 net.cpp:406] relu1 <- pool1
I1216 17:25:56.693630 24919 net.cpp:367] relu1 -> pool1 (in-place)
I1216 17:25:56.693640 24919 net.cpp:122] Setting up relu1
I1216 17:25:56.693648 24919 net.cpp:129] Top shape: 8 32 5 60 60 (4608000)
I1216 17:25:56.693653 24919 net.cpp:137] Memory required for data: 369793696
I1216 17:25:56.693660 24919 layer_factory.hpp:77] Creating layer conv2
I1216 17:25:56.693670 24919 net.cpp:84] Creating Layer conv2
I1216 17:25:56.693675 24919 net.cpp:406] conv2 <- pool1
I1216 17:25:56.693683 24919 net.cpp:380] conv2 -> conv2
I1216 17:25:56.694578 24919 net.cpp:122] Setting up conv2
I1216 17:25:56.694591 24919 net.cpp:129] Top shape: 8 32 5 60 60 (4608000)
I1216 17:25:56.694597 24919 net.cpp:137] Memory required for data: 388225696
I1216 17:25:56.694605 24919 layer_factory.hpp:77] Creating layer pool2
I1216 17:25:56.694614 24919 net.cpp:84] Creating Layer pool2
I1216 17:25:56.694622 24919 net.cpp:406] pool2 <- conv2
I1216 17:25:56.694628 24919 net.cpp:380] pool2 -> pool2
I1216 17:25:56.694658 24919 net.cpp:122] Setting up pool2
I1216 17:25:56.694666 24919 net.cpp:129] Top shape: 8 32 3 30 30 (691200)
I1216 17:25:56.694671 24919 net.cpp:137] Memory required for data: 390990496
I1216 17:25:56.694677 24919 layer_factory.hpp:77] Creating layer relu2
I1216 17:25:56.694685 24919 net.cpp:84] Creating Layer relu2
I1216 17:25:56.694691 24919 net.cpp:406] relu2 <- pool2
I1216 17:25:56.694700 24919 net.cpp:367] relu2 -> pool2 (in-place)
I1216 17:25:56.694707 24919 net.cpp:122] Setting up relu2
I1216 17:25:56.694713 24919 net.cpp:129] Top shape: 8 32 3 30 30 (691200)
I1216 17:25:56.694720 24919 net.cpp:137] Memory required for data: 393755296
I1216 17:25:56.694725 24919 layer_factory.hpp:77] Creating layer ip1
I1216 17:25:56.694733 24919 net.cpp:84] Creating Layer ip1
I1216 17:25:56.694739 24919 net.cpp:406] ip1 <- pool2
I1216 17:25:56.694746 24919 net.cpp:380] ip1 -> ip1
I1216 17:25:56.704689 24919 net.cpp:122] Setting up ip1
I1216 17:25:56.704726 24919 net.cpp:129] Top shape: 8 3 (24)
I1216 17:25:56.704735 24919 net.cpp:137] Memory required for data: 393755392
I1216 17:25:56.704748 24919 layer_factory.hpp:77] Creating layer loss
I1216 17:25:56.705549 24919 net.cpp:84] Creating Layer loss
I1216 17:25:56.705571 24919 net.cpp:406] loss <- ip1
I1216 17:25:56.705584 24919 net.cpp:406] loss <- label
I1216 17:25:56.705595 24919 net.cpp:380] loss -> loss
I1216 17:25:56.705621 24919 layer_factory.hpp:77] Creating layer loss
…
I1216 17:25:58.824815 24919 net.cpp:51] Initializing net from parameters: 
name: "3DSTN-IsoGDNet"
state {
  phase: TEST
}
layer {
  name: "data"
  type: "TridimData"
  top: "data"
  top: "label"
  include {
    phase: TEST
  }
  transform_param {
    mirror: false
    crop_size: 120
    mean_value: 128
    mean_value: 128
    mean_value: 128
  }
  tridim_data_param {
    source: "/data2/xyyu/datasets/valid_3.lst"
    batch_size: 10
    shuffle: true
    new_height: 120
    new_width: 160
    root_folder: ""
    new_length: 10
    show_data: false
    use_image: true
  }
}
layer {
  name: "loc_conv1"
  type: "Convolution"
  bottom: "data"
  top: "loc_conv1"
  convolution_param {
    num_output: 20
    pad: 1
    pad: 1
    pad: 1
    kernel_size: 3
    kernel_size: 3
    kernel_size: 3
    stride: 1
    stride: 1
    stride: 1
    weight_filler {
      type: "gaussian"
      std: 0.001
    }
    bias_filler {
      type: "constant"
    }
    engine: CAFFE
  }
}
layer {
  name: "loc_pool1"
  type: "Pooling3D"
  bottom: "loc_conv1"
  top: "loc_pool1"
  pooling3d_param {
    pool: MAX
    pad: 0
    kernel_size: 3
    stride: 2
    pad_l: 0
    kernel_l: 2
    stride_l: 2
  }
}
layer {
  name: "loc_relu1"
  type: "ReLU"
  bottom: "loc_pool1"
  top: "loc_pool1"
  relu_param {
    engine: CAFFE
  }
}
layer {
  name: "loc_conv2"
  type: "Convolution"
  bottom: "loc_pool1"
  top: "loc_conv2"
  convolution_param {
    num_output: 20
    pad: 1
    pad: 1
    pad: 1
    kernel_size: 3
    kernel_size: 3
    kernel_size: 3
    stride: 1
    stride: 1
    stride: 1
    weight_filler {
      type: "gaussian"
      std: 0.001
    }
    bias_filler {
      type: "constant"
    }
    engine: CAFFE
  }
}
layer {
  name: "loc_pool2"
  type: "Pooling3D"
  bottom: "loc_conv2"
  top: "loc_pool2"
  pooling3d_param {
    pool: MAX
    pad: 0
    kernel_size: 3
    stride: 2
    pad_l: 0
    kernel_l: 2
    stride_l: 2
  }
}
layer {
  name: "loc_relu2"
  type: "ReLU"
  bottom: "loc_pool2"
  top: "loc_pool2"
  relu_param {
    engine: CAFFE
  }
}
layer {
  name: "loc_ip1"
  type: "InnerProduct"
  bottom: "loc_pool2"
  top: "loc_ip1"
  inner_product_param {
    num_output: 20
    weight_filler {
      type: "gaussian"
      std: 0.001
    }
    bias_filler {
      type: "constant"
    }
  }
}
layer {
  name: "loc_relu3"
  type: "ReLU"
  bottom: "loc_ip1"
  top: "loc_ip1"
  relu_param {
    engine: CAFFE
  }
}
layer {
  name: "loc_reg"
  type: "InnerProduct"
  bottom: "loc_ip1"
  top: "theta"
  inner_product_param {
    num_output: 12
    weight_filler {
      type: "constant"
      value: 0
    }
    bias_filler {
      type: "file"
      file: "examples/mnist_tests/bias_init.txt"
    }
  }
}
layer {
  name: "st_layer"
  type: "TridimSpatialTransformer"
  bottom: "data"
  bottom: "theta"
  top: "st_output"
}
layer {
  name: "conv1"
  type: "Convolution"
  bottom: "st_output"
  top: "conv1"
  convolution_param {
    num_output: 32
    pad: 1
    pad: 1
    pad: 1
    kernel_size: 3
    kernel_size: 3
    kernel_size: 3
    stride: 1
    stride: 1
    stride: 1
    weight_filler {
      type: "gaussian"
      std: 0.001
    }
    bias_filler {
      type: "constant"
    }
    engine: CAFFE
  }
}
layer {
  name: "pool1"
  type: "Pooling3D"
  bottom: "conv1"
  top: "pool1"
  pooling3d_param {
    pool: MAX
    pad: 0
    kernel_size: 3
    stride: 2
    pad_l: 0
    kernel_l: 2
    stride_l: 2
  }
}
layer {
  name: "relu1"
  type: "ReLU"
  bottom: "pool1"
  top: "pool1"
  relu_param {
    engine: CAFFE
  }
}
layer {
  name: "conv2"
  type: "Convolution"
  bottom: "pool1"
  top: "conv2"
  convolution_param {
    num_output: 32
    pad: 1
    pad: 1
    pad: 1
    kernel_size: 3
    kernel_size: 3
    kernel_size: 3
    stride: 1
    stride: 1
    stride: 1
    weight_filler {
      type: "gaussian"
      std: 0.001
    }
    bias_filler {
      type: "constant"
    }
    engine: CAFFE
  }
}
layer {
  name: "pool2"
  type: "Pooling3D"
  bottom: "conv2"
  top: "pool2"
  pooling3d_param {
    pool: MAX
    pad: 0
    kernel_size: 3
    stride: 2
    pad_l: 0
    kernel_l: 2
    stride_l: 2
  }
}
layer {
  name: "relu2"
  type: "ReLU"
  bottom: "pool2"
  top: "pool2"
  relu_param {
    engine: CAFFE
  }
}
layer {
  name: "ip1"
  type: "InnerProduct"
  bottom: "pool2"
  top: "ip1"
  param {
    lr_mult: 10
    decay_mult: 1
  }
  param {
    lr_mult: 20
    decay_mult: 0
  }
  inner_product_param {
    num_output: 3
    weight_filler {
      type: "gaussian"
      std: 0.001
    }
    bias_filler {
      type: "constant"
      value: 0
    }
  }
}
layer {
  name: "accuracy/top1"
  type: "Accuracy"
  bottom: "ip1"
  bottom: "label"
  top: "accuracy/top1"
  include {
    phase: TEST
  }
}
layer {
  name: "loss"
  type: "SoftmaxWithLoss"
  bottom: "ip1"
  bottom: "label"
  top: "loss"
}
I1216 17:25:58.825979 24919 layer_factory.hpp:77] Creating layer data
I1216 17:25:58.826006 24919 net.cpp:84] Creating Layer data
I1216 17:25:58.826019 24919 net.cpp:380] data -> data
I1216 17:25:58.826035 24919 net.cpp:380] data -> label
I1216 17:25:58.826050 24919 tridim_data_layer.cpp:67] Opening file /data2/xyyu/datasets/valid_3.lst
I1216 17:25:58.847931 24919 tridim_data_layer.cpp:130] Shuffling data
I1216 17:25:58.848004 24919 tridim_data_layer.cpp:140] A total of 2467 tridim chunks.
I1216 17:25:58.851819 24919 tridim_data_layer.cpp:182] output data size: 10,3,10,120,120
I1216 17:25:58.906718 24919 net.cpp:122] Setting up data
I1216 17:25:58.906759 24919 net.cpp:129] Top shape: 10 3 10 120 120 (4320000)
I1216 17:25:58.906769 24919 net.cpp:129] Top shape: 10 (10)
I1216 17:25:58.906776 24919 net.cpp:137] Memory required for data: 17280040
I1216 17:25:58.906786 24919 layer_factory.hpp:77] Creating layer data_data_0_split
I1216 17:25:58.906803 24919 net.cpp:84] Creating Layer data_data_0_split
I1216 17:25:58.906819 24919 net.cpp:406] data_data_0_split <- data
I1216 17:25:58.906829 24919 net.cpp:380] data_data_0_split -> data_data_0_split_0
I1216 17:25:58.906844 24919 net.cpp:380] data_data_0_split -> data_data_0_split_1
I1216 17:25:58.906919 24919 net.cpp:122] Setting up data_data_0_split
I1216 17:25:58.906934 24919 net.cpp:129] Top shape: 10 3 10 120 120 (4320000)
I1216 17:25:58.906944 24919 net.cpp:129] Top shape: 10 3 10 120 120 (4320000)
I1216 17:25:58.906950 24919 net.cpp:137] Memory required for data: 51840040
I1216 17:25:58.906957 24919 layer_factory.hpp:77] Creating layer label_data_1_split
I1216 17:25:58.906970 24919 net.cpp:84] Creating Layer label_data_1_split
I1216 17:25:58.906976 24919 net.cpp:406] label_data_1_split <- label
I1216 17:25:58.906985 24919 net.cpp:380] label_data_1_split -> label_data_1_split_0
I1216 17:25:58.906996 24919 net.cpp:380] label_data_1_split -> label_data_1_split_1
I1216 17:25:58.907069 24919 net.cpp:122] Setting up label_data_1_split
I1216 17:25:58.907083 24919 net.cpp:129] Top shape: 10 (10)
I1216 17:25:58.907090 24919 net.cpp:129] Top shape: 10 (10)
I1216 17:25:58.907096 24919 net.cpp:137] Memory required for data: 51840120
I1216 17:25:58.907104 24919 layer_factory.hpp:77] Creating layer loc_conv1
I1216 17:25:58.907120 24919 net.cpp:84] Creating Layer loc_conv1
I1216 17:25:58.907131 24919 net.cpp:406] loc_conv1 <- data_data_0_split_0
I1216 17:25:58.907141 24919 net.cpp:380] loc_conv1 -> loc_conv1
I1216 17:25:58.907588 24919 net.cpp:122] Setting up loc_conv1
I1216 17:25:58.907605 24919 net.cpp:129] Top shape: 10 20 10 120 120 (28800000)
I1216 17:25:58.907613 24919 net.cpp:137] Memory required for data: 167040120
I1216 17:25:58.907626 24919 layer_factory.hpp:77] Creating layer loc_pool1
I1216 17:25:58.907640 24919 net.cpp:84] Creating Layer loc_pool1
I1216 17:25:58.907649 24919 net.cpp:406] loc_pool1 <- loc_conv1
I1216 17:25:58.907656 24919 net.cpp:380] loc_pool1 -> loc_pool1
I1216 17:25:58.907701 24919 net.cpp:122] Setting up loc_pool1
I1216 17:25:58.907714 24919 net.cpp:129] Top shape: 10 20 5 60 60 (3600000)
I1216 17:25:58.907721 24919 net.cpp:137] Memory required for data: 181440120
I1216 17:25:58.907727 24919 layer_factory.hpp:77] Creating layer loc_relu1
I1216 17:25:58.907738 24919 net.cpp:84] Creating Layer loc_relu1
I1216 17:25:58.907745 24919 net.cpp:406] loc_relu1 <- loc_pool1
I1216 17:25:58.907754 24919 net.cpp:367] loc_relu1 -> loc_pool1 (in-place)
I1216 17:25:58.907764 24919 net.cpp:122] Setting up loc_relu1
I1216 17:25:58.907773 24919 net.cpp:129] Top shape: 10 20 5 60 60 (3600000)
I1216 17:25:58.907779 24919 net.cpp:137] Memory required for data: 195840120
I1216 17:25:58.907786 24919 layer_factory.hpp:77] Creating layer loc_conv2
I1216 17:25:58.907797 24919 net.cpp:84] Creating Layer loc_conv2
I1216 17:25:58.907805 24919 net.cpp:406] loc_conv2 <- loc_pool1
I1216 17:25:58.907814 24919 net.cpp:380] loc_conv2 -> loc_conv2
I1216 17:25:58.912608 24919 net.cpp:122] Setting up loc_conv2
I1216 17:25:58.912639 24919 net.cpp:129] Top shape: 10 20 5 60 60 (3600000)
I1216 17:25:58.912653 24919 net.cpp:137] Memory required for data: 210240120
I1216 17:25:58.912674 24919 layer_factory.hpp:77] Creating layer loc_pool2
I1216 17:25:58.912704 24919 net.cpp:84] Creating Layer loc_pool2
I1216 17:25:58.912719 24919 net.cpp:406] loc_pool2 <- loc_conv2
I1216 17:25:58.912736 24919 net.cpp:380] loc_pool2 -> loc_pool2
I1216 17:25:58.912808 24919 net.cpp:122] Setting up loc_pool2
I1216 17:25:58.912828 24919 net.cpp:129] Top shape: 10 20 3 30 30 (540000)
I1216 17:25:58.912838 24919 net.cpp:137] Memory required for data: 212400120
I1216 17:25:58.912848 24919 layer_factory.hpp:77] Creating layer loc_relu2
I1216 17:25:58.912865 24919 net.cpp:84] Creating Layer loc_relu2
I1216 17:25:58.912878 24919 net.cpp:406] loc_relu2 <- loc_pool2
I1216 17:25:58.912890 24919 net.cpp:367] loc_relu2 -> loc_pool2 (in-place)
I1216 17:25:58.912906 24919 net.cpp:122] Setting up loc_relu2
I1216 17:25:58.912919 24919 net.cpp:129] Top shape: 10 20 3 30 30 (540000)
I1216 17:25:58.912930 24919 net.cpp:137] Memory required for data: 214560120
I1216 17:25:58.912941 24919 layer_factory.hpp:77] Creating layer loc_ip1
I1216 17:25:58.912958 24919 net.cpp:84] Creating Layer loc_ip1
I1216 17:25:58.912969 24919 net.cpp:406] loc_ip1 <- loc_pool2
I1216 17:25:58.912982 24919 net.cpp:380] loc_ip1 -> loc_ip1
I1216 17:25:58.950580 24919 net.cpp:122] Setting up loc_ip1
I1216 17:25:58.950621 24919 net.cpp:129] Top shape: 10 20 (200)
I1216 17:25:58.950633 24919 net.cpp:137] Memory required for data: 214560920
I1216 17:25:58.950654 24919 layer_factory.hpp:77] Creating layer loc_relu3
I1216 17:25:58.950675 24919 net.cpp:84] Creating Layer loc_relu3
I1216 17:25:58.950688 24919 net.cpp:406] loc_relu3 <- loc_ip1
I1216 17:25:58.950701 24919 net.cpp:367] loc_relu3 -> loc_ip1 (in-place)
I1216 17:25:58.950719 24919 net.cpp:122] Setting up loc_relu3
I1216 17:25:58.950731 24919 net.cpp:129] Top shape: 10 20 (200)
I1216 17:25:58.950779 24919 net.cpp:137] Memory required for data: 214561720
I1216 17:25:58.950789 24919 layer_factory.hpp:77] Creating layer loc_reg
I1216 17:25:58.950803 24919 net.cpp:84] Creating Layer loc_reg
I1216 17:25:58.950814 24919 net.cpp:406] loc_reg <- loc_ip1
I1216 17:25:58.950826 24919 net.cpp:380] loc_reg -> theta
I1216 17:25:58.951084 24919 net.cpp:122] Setting up loc_reg
I1216 17:25:58.951103 24919 net.cpp:129] Top shape: 10 12 (120)
I1216 17:25:58.951112 24919 net.cpp:137] Memory required for data: 214562200
I1216 17:25:58.951124 24919 layer_factory.hpp:77] Creating layer st_layer
I1216 17:25:58.951141 24919 net.cpp:84] Creating Layer st_layer
I1216 17:25:58.951153 24919 net.cpp:406] st_layer <- data_data_0_split_1
I1216 17:25:58.951164 24919 net.cpp:406] st_layer <- theta
I1216 17:25:58.951174 24919 net.cpp:380] st_layer -> st_output
I1216 17:25:58.955416 24919 net.cpp:122] Setting up st_layer
I1216 17:25:58.955438 24919 net.cpp:129] Top shape: 10 3 10 120 120 (4320000)
I1216 17:25:58.955447 24919 net.cpp:137] Memory required for data: 231842200
I1216 17:25:58.955456 24919 layer_factory.hpp:77] Creating layer conv1
I1216 17:25:58.955474 24919 net.cpp:84] Creating Layer conv1
I1216 17:25:58.955487 24919 net.cpp:406] conv1 <- st_output
I1216 17:25:58.955498 24919 net.cpp:380] conv1 -> conv1
I1216 17:25:58.956032 24919 net.cpp:122] Setting up conv1
I1216 17:25:58.956055 24919 net.cpp:129] Top shape: 10 32 10 120 120 (46080000)
I1216 17:25:58.956068 24919 net.cpp:137] Memory required for data: 416162200
I1216 17:25:58.956084 24919 layer_factory.hpp:77] Creating layer pool1
I1216 17:25:58.956100 24919 net.cpp:84] Creating Layer pool1
I1216 17:25:58.956111 24919 net.cpp:406] pool1 <- conv1
I1216 17:25:58.956122 24919 net.cpp:380] pool1 -> pool1
I1216 17:25:58.956174 24919 net.cpp:122] Setting up pool1
I1216 17:25:58.956189 24919 net.cpp:129] Top shape: 10 32 5 60 60 (5760000)
I1216 17:25:58.956198 24919 net.cpp:137] Memory required for data: 439202200
I1216 17:25:58.956207 24919 layer_factory.hpp:77] Creating layer relu1
I1216 17:25:58.956221 24919 net.cpp:84] Creating Layer relu1
I1216 17:25:58.956233 24919 net.cpp:406] relu1 <- pool1
I1216 17:25:58.956243 24919 net.cpp:367] relu1 -> pool1 (in-place)
I1216 17:25:58.956255 24919 net.cpp:122] Setting up relu1
I1216 17:25:58.956265 24919 net.cpp:129] Top shape: 10 32 5 60 60 (5760000)
I1216 17:25:58.956274 24919 net.cpp:137] Memory required for data: 462242200
I1216 17:25:58.956281 24919 layer_factory.hpp:77] Creating layer conv2
I1216 17:25:58.956297 24919 net.cpp:84] Creating Layer conv2
I1216 17:25:58.956307 24919 net.cpp:406] conv2 <- pool1
I1216 17:25:58.956318 24919 net.cpp:380] conv2 -> conv2
I1216 17:25:58.957530 24919 net.cpp:122] Setting up conv2
I1216 17:25:58.957551 24919 net.cpp:129] Top shape: 10 32 5 60 60 (5760000)
I1216 17:25:58.957559 24919 net.cpp:137] Memory required for data: 485282200
I1216 17:25:58.957571 24919 layer_factory.hpp:77] Creating layer pool2
I1216 17:25:58.957584 24919 net.cpp:84] Creating Layer pool2
I1216 17:25:58.957593 24919 net.cpp:406] pool2 <- conv2
I1216 17:25:58.957603 24919 net.cpp:380] pool2 -> pool2
I1216 17:25:58.957650 24919 net.cpp:122] Setting up pool2
I1216 17:25:58.957664 24919 net.cpp:129] Top shape: 10 32 3 30 30 (864000)
I1216 17:25:58.957672 24919 net.cpp:137] Memory required for data: 488738200
I1216 17:25:58.957681 24919 layer_factory.hpp:77] Creating layer relu2
I1216 17:25:58.957692 24919 net.cpp:84] Creating Layer relu2
I1216 17:25:58.957700 24919 net.cpp:406] relu2 <- pool2
I1216 17:25:58.957710 24919 net.cpp:367] relu2 -> pool2 (in-place)
I1216 17:25:58.957721 24919 net.cpp:122] Setting up relu2
I1216 17:25:58.957731 24919 net.cpp:129] Top shape: 10 32 3 30 30 (864000)
I1216 17:25:58.957739 24919 net.cpp:137] Memory required for data: 492194200
I1216 17:25:58.957748 24919 layer_factory.hpp:77] Creating layer ip1
I1216 17:25:58.957762 24919 net.cpp:84] Creating Layer ip1
I1216 17:25:58.957770 24919 net.cpp:406] ip1 <- pool2
I1216 17:25:58.957780 24919 net.cpp:380] ip1 -> ip1
I1216 17:25:58.968513 24919 net.cpp:122] Setting up ip1
I1216 17:25:58.968569 24919 net.cpp:129] Top shape: 10 3 (30)
I1216 17:25:58.968578 24919 net.cpp:137] Memory required for data: 492194320
I1216 17:25:58.968591 24919 layer_factory.hpp:77] Creating layer ip1_ip1_0_split
I1216 17:25:58.968605 24919 net.cpp:84] Creating Layer ip1_ip1_0_split
I1216 17:25:58.968613 24919 net.cpp:406] ip1_ip1_0_split <- ip1
I1216 17:25:58.968624 24919 net.cpp:380] ip1_ip1_0_split -> ip1_ip1_0_split_0
I1216 17:25:58.968636 24919 net.cpp:380] ip1_ip1_0_split -> ip1_ip1_0_split_1
I1216 17:25:58.968682 24919 net.cpp:122] Setting up ip1_ip1_0_split
I1216 17:25:58.968704 24919 net.cpp:129] Top shape: 10 3 (30)
I1216 17:25:58.968714 24919 net.cpp:129] Top shape: 10 3 (30)
I1216 17:25:58.968722 24919 net.cpp:137] Memory required for data: 492194560
I1216 17:25:58.968729 24919 layer_factory.hpp:77] Creating layer accuracy/top1
I1216 17:25:58.968750 24919 net.cpp:84] Creating Layer accuracy/top1
I1216 17:25:58.968760 24919 net.cpp:406] accuracy/top1 <- ip1_ip1_0_split_0
I1216 17:25:58.968770 24919 net.cpp:406] accuracy/top1 <- label_data_1_split_0
I1216 17:25:58.968780 24919 net.cpp:380] accuracy/top1 -> accuracy/top1
…
