…
I1216 15:23:20.934180  2914 net.cpp:51] Initializing net from parameters: 
name: "3DSTN-IsoGDNet"
state {
  phase: TRAIN
  level: 0
  stage: ""
}
layer {
  name: "data"
  type: "TridimData"
  top: "data"
  top: "label"
  include {
    phase: TRAIN
  }
  transform_param {
    mirror: true
    crop_size: 120
    mean_value: 128
    mean_value: 128
    mean_value: 128
  }
  tridim_data_param {
    source: "/data2/xyyu/datasets/train_3.lst"
    batch_size: 8
    shuffle: true
    new_height: 120
    new_width: 160
    root_folder: ""
    new_length: 10
    show_data: false
    use_image: true
  }
}
layer {
  name: "loc_conv1"
  type: "Convolution"
  bottom: "data"
  top: "loc_conv1"
  convolution_param {
    num_output: 20
    pad: 1
    pad: 1
    pad: 1
    kernel_size: 3
    kernel_size: 3
    kernel_size: 3
    stride: 1
    stride: 1
    stride: 1
    weight_filler {
      type: "gaussian"
      std: 0.001
    }
    bias_filler {
      type: "constant"
    }
    engine: CAFFE
  }
}
layer {
  name: "loc_pool1"
  type: "Pooling3D"
  bottom: "loc_conv1"
  top: "loc_pool1"
  pooling3d_param {
    pool: MAX
    pad: 0
    kernel_size: 3
    stride: 2
    pad_l: 0
    kernel_l: 2
    stride_l: 2
  }
}
layer {
  name: "loc_relu1"
  type: "ReLU"
  bottom: "loc_pool1"
  top: "loc_pool1"
  relu_param {
    engine: CAFFE
  }
}
layer {
  name: "loc_conv2"
  type: "Convolution"
  bottom: "loc_pool1"
  top: "loc_conv2"
  convolution_param {
    num_output: 20
    pad: 1
    pad: 1
    pad: 1
    kernel_size: 3
    kernel_size: 3
    kernel_size: 3
    stride: 1
    stride: 1
    stride: 1
    weight_filler {
      type: "gaussian"
      std: 0.001
    }
    bias_filler {
      type: "constant"
    }
    engine: CAFFE
  }
}
layer {
  name: "loc_pool2"
  type: "Pooling3D"
  bottom: "loc_conv2"
  top: "loc_pool2"
  pooling3d_param {
    pool: MAX
    pad: 0
    kernel_size: 3
    stride: 2
    pad_l: 0
    kernel_l: 2
    stride_l: 2
  }
}
layer {
  name: "loc_relu2"
  type: "ReLU"
  bottom: "loc_pool2"
  top: "loc_pool2"
  relu_param {
    engine: CAFFE
  }
}
layer {
  name: "loc_ip1"
  type: "InnerProduct"
  bottom: "loc_pool2"
  top: "loc_ip1"
  inner_product_param {
    num_output: 20
    weight_filler {
      type: "gaussian"
      std: 0.001
    }
    bias_filler {
      type: "constant"
    }
  }
}
layer {
  name: "loc_relu3"
  type: "ReLU"
  bottom: "loc_ip1"
  top: "loc_ip1"
  relu_param {
    engine: CAFFE
  }
}
layer {
  name: "loc_reg"
  type: "InnerProduct"
  bottom: "loc_ip1"
  top: "theta"
  inner_product_param {
    num_output: 12
    weight_filler {
      type: "constant"
      value: 0
    }
    bias_filler {
      type: "file"
      file: "examples/mnist_tests/bias_init.txt"
    }
  }
}
layer {
  name: "st_layer"
  type: "TridimSpatialTransformer"
  bottom: "data"
  bottom: "theta"
  top: "st_output"
}
layer {
  name: "conv1"
  type: "Convolution"
  bottom: "st_output"
  top: "conv1"
  convolution_param {
    num_output: 32
    pad: 1
    pad: 1
    pad: 1
    kernel_size: 3
    kernel_size: 3
    kernel_size: 3
    stride: 1
    stride: 1
    stride: 1
    weight_filler {
      type: "gaussian"
      std: 0.001
    }
    bias_filler {
      type: "constant"
    }
    engine: CAFFE
  }
}
layer {
  name: "pool1"
  type: "Pooling3D"
  bottom: "conv1"
  top: "pool1"
  pooling3d_param {
    pool: MAX
    pad: 0
    kernel_size: 3
    stride: 2
    pad_l: 0
    kernel_l: 2
    stride_l: 2
  }
}
layer {
  name: "relu1"
  type: "ReLU"
  bottom: "pool1"
  top: "pool1"
  relu_param {
    engine: CAFFE
  }
}
layer {
  name: "conv2"
  type: "Convolution"
  bottom: "pool1"
  top: "conv2"
  convolution_param {
    num_output: 32
    pad: 1
    pad: 1
    pad: 1
    kernel_size: 3
    kernel_size: 3
    kernel_size: 3
    stride: 1
    stride: 1
    stride: 1
    weight_filler {
      type: "gaussian"
      std: 0.001
    }
    bias_filler {
      type: "constant"
    }
    engine: CAFFE
  }
}
layer {
  name: "pool2"
  type: "Pooling3D"
  bottom: "conv2"
  top: "pool2"
  pooling3d_param {
    pool: MAX
    pad: 0
    kernel_size: 3
    stride: 2
    pad_l: 0
    kernel_l: 2
    stride_l: 2
  }
}
layer {
  name: "relu2"
  type: "ReLU"
  bottom: "pool2"
  top: "pool2"
  relu_param {
    engine: CAFFE
  }
}
layer {
  name: "ip1"
  type: "InnerProduct"
  bottom: "pool2"
  top: "ip1"
  param {
    lr_mult: 10
    decay_mult: 1
  }
  param {
    lr_mult: 20
    decay_mult: 0
  }
  inner_product_param {
    num_output: 3
    weight_filler {
      type: "gaussian"
      std: 0.001
    }
    bias_filler {
      type: "constant"
      value: 0
    }
  }
}
layer {
  name: "loss"
  type: "SoftmaxWithLoss"
  bottom: "ip1"
  bottom: "label"
  top: "loss"
}
I1216 15:23:20.934993  2914 layer_factory.hpp:77] Creating layer data
I1216 15:23:20.935032  2914 net.cpp:84] Creating Layer data
I1216 15:23:20.935044  2914 net.cpp:380] data -> data
I1216 15:23:20.935068  2914 net.cpp:380] data -> label
I1216 15:23:20.935417  2914 tridim_data_layer.cpp:67] Opening file /data2/xyyu/datasets/train_3.lst
I1216 15:23:20.942216  2914 tridim_data_layer.cpp:130] Shuffling data
I1216 15:23:20.942487  2914 tridim_data_layer.cpp:140] A total of 20698 tridim chunks.
I1216 15:23:21.015595  2914 tridim_data_layer.cpp:182] output data size: 8,3,10,120,120
I1216 15:23:21.245457  2914 net.cpp:122] Setting up data
I1216 15:23:21.245496  2914 net.cpp:129] Top shape: 8 3 10 120 120 (3456000)
I1216 15:23:21.245506  2914 net.cpp:129] Top shape: 8 (8)
I1216 15:23:21.245512  2914 net.cpp:137] Memory required for data: 13824032
I1216 15:23:21.245520  2914 layer_factory.hpp:77] Creating layer data_data_0_split
I1216 15:23:21.245537  2914 net.cpp:84] Creating Layer data_data_0_split
I1216 15:23:21.245554  2914 net.cpp:406] data_data_0_split <- data
I1216 15:23:21.245570  2914 net.cpp:380] data_data_0_split -> data_data_0_split_0
I1216 15:23:21.245585  2914 net.cpp:380] data_data_0_split -> data_data_0_split_1
I1216 15:23:21.245652  2914 net.cpp:122] Setting up data_data_0_split
I1216 15:23:21.245666  2914 net.cpp:129] Top shape: 8 3 10 120 120 (3456000)
I1216 15:23:21.245672  2914 net.cpp:129] Top shape: 8 3 10 120 120 (3456000)
I1216 15:23:21.245679  2914 net.cpp:137] Memory required for data: 41472032
I1216 15:23:21.245687  2914 layer_factory.hpp:77] Creating layer loc_conv1
I1216 15:23:21.245707  2914 net.cpp:84] Creating Layer loc_conv1
I1216 15:23:21.245713  2914 net.cpp:406] loc_conv1 <- data_data_0_split_0
I1216 15:23:21.245721  2914 net.cpp:380] loc_conv1 -> loc_conv1
I1216 15:23:21.255810  2914 net.cpp:122] Setting up loc_conv1
I1216 15:23:21.255831  2914 net.cpp:129] Top shape: 8 20 10 120 120 (23040000)
I1216 15:23:21.255837  2914 net.cpp:137] Memory required for data: 133632032
I1216 15:23:21.255857  2914 layer_factory.hpp:77] Creating layer loc_pool1
I1216 15:23:21.255870  2914 net.cpp:84] Creating Layer loc_pool1
I1216 15:23:21.255892  2914 net.cpp:406] loc_pool1 <- loc_conv1
I1216 15:23:21.255900  2914 net.cpp:380] loc_pool1 -> loc_pool1
I1216 15:23:21.255950  2914 net.cpp:122] Setting up loc_pool1
I1216 15:23:21.255962  2914 net.cpp:129] Top shape: 8 20 5 60 60 (2880000)
I1216 15:23:21.255969  2914 net.cpp:137] Memory required for data: 145152032
I1216 15:23:21.256002  2914 layer_factory.hpp:77] Creating layer loc_relu1
I1216 15:23:21.256021  2914 net.cpp:84] Creating Layer loc_relu1
I1216 15:23:21.256031  2914 net.cpp:406] loc_relu1 <- loc_pool1
I1216 15:23:21.256037  2914 net.cpp:367] loc_relu1 -> loc_pool1 (in-place)
I1216 15:23:21.256049  2914 net.cpp:122] Setting up loc_relu1
I1216 15:23:21.256057  2914 net.cpp:129] Top shape: 8 20 5 60 60 (2880000)
I1216 15:23:21.256063  2914 net.cpp:137] Memory required for data: 156672032
I1216 15:23:21.256068  2914 layer_factory.hpp:77] Creating layer loc_conv2
I1216 15:23:21.256079  2914 net.cpp:84] Creating Layer loc_conv2
I1216 15:23:21.256085  2914 net.cpp:406] loc_conv2 <- loc_pool1
I1216 15:23:21.256093  2914 net.cpp:380] loc_conv2 -> loc_conv2
I1216 15:23:21.264961  2914 net.cpp:122] Setting up loc_conv2
I1216 15:23:21.264984  2914 net.cpp:129] Top shape: 8 20 5 60 60 (2880000)
I1216 15:23:21.264991  2914 net.cpp:137] Memory required for data: 168192032
I1216 15:23:21.265007  2914 layer_factory.hpp:77] Creating layer loc_pool2
I1216 15:23:21.265017  2914 net.cpp:84] Creating Layer loc_pool2
I1216 15:23:21.265024  2914 net.cpp:406] loc_pool2 <- loc_conv2
I1216 15:23:21.265033  2914 net.cpp:380] loc_pool2 -> loc_pool2
I1216 15:23:21.312911  2914 net.cpp:122] Setting up loc_pool2
I1216 15:23:21.312938  2914 net.cpp:129] Top shape: 8 20 3 30 30 (432000)
I1216 15:23:21.312947  2914 net.cpp:137] Memory required for data: 169920032
I1216 15:23:21.312954  2914 layer_factory.hpp:77] Creating layer loc_relu2
I1216 15:23:21.312968  2914 net.cpp:84] Creating Layer loc_relu2
I1216 15:23:21.312974  2914 net.cpp:406] loc_relu2 <- loc_pool2
I1216 15:23:21.312983  2914 net.cpp:367] loc_relu2 -> loc_pool2 (in-place)
I1216 15:23:21.312995  2914 net.cpp:122] Setting up loc_relu2
I1216 15:23:21.313004  2914 net.cpp:129] Top shape: 8 20 3 30 30 (432000)
I1216 15:23:21.313010  2914 net.cpp:137] Memory required for data: 171648032
I1216 15:23:21.313016  2914 layer_factory.hpp:77] Creating layer loc_ip1
I1216 15:23:21.313033  2914 net.cpp:84] Creating Layer loc_ip1
I1216 15:23:21.313047  2914 net.cpp:406] loc_ip1 <- loc_pool2
I1216 15:23:21.313056  2914 net.cpp:380] loc_ip1 -> loc_ip1
I1216 15:23:21.349380  2914 net.cpp:122] Setting up loc_ip1
I1216 15:23:21.349409  2914 net.cpp:129] Top shape: 8 20 (160)
I1216 15:23:21.349416  2914 net.cpp:137] Memory required for data: 171648672
I1216 15:23:21.349431  2914 layer_factory.hpp:77] Creating layer loc_relu3
I1216 15:23:21.349452  2914 net.cpp:84] Creating Layer loc_relu3
I1216 15:23:21.349458  2914 net.cpp:406] loc_relu3 <- loc_ip1
I1216 15:23:21.349467  2914 net.cpp:367] loc_relu3 -> loc_ip1 (in-place)
I1216 15:23:21.349478  2914 net.cpp:122] Setting up loc_relu3
I1216 15:23:21.349485  2914 net.cpp:129] Top shape: 8 20 (160)
I1216 15:23:21.349490  2914 net.cpp:137] Memory required for data: 171649312
I1216 15:23:21.349496  2914 layer_factory.hpp:77] Creating layer loc_reg
I1216 15:23:21.349505  2914 net.cpp:84] Creating Layer loc_reg
I1216 15:23:21.349511  2914 net.cpp:406] loc_reg <- loc_ip1
I1216 15:23:21.349519  2914 net.cpp:380] loc_reg -> theta
I1216 15:23:21.349714  2914 net.cpp:122] Setting up loc_reg
I1216 15:23:21.349727  2914 net.cpp:129] Top shape: 8 12 (96)
I1216 15:23:21.349735  2914 net.cpp:137] Memory required for data: 171649696
I1216 15:23:21.349742  2914 layer_factory.hpp:77] Creating layer st_layer
I1216 15:23:21.349753  2914 net.cpp:84] Creating Layer st_layer
I1216 15:23:21.349761  2914 net.cpp:406] st_layer <- data_data_0_split_1
I1216 15:23:21.349767  2914 net.cpp:406] st_layer <- theta
I1216 15:23:21.349774  2914 net.cpp:380] st_layer -> st_output
I1216 15:23:21.358974  2914 net.cpp:122] Setting up st_layer
I1216 15:23:21.358990  2914 net.cpp:129] Top shape: 8 3 10 120 120 (3456000)
I1216 15:23:21.358996  2914 net.cpp:137] Memory required for data: 185473696
I1216 15:23:21.359004  2914 layer_factory.hpp:77] Creating layer conv1
I1216 15:23:21.359016  2914 net.cpp:84] Creating Layer conv1
I1216 15:23:21.359024  2914 net.cpp:406] conv1 <- st_output
I1216 15:23:21.359032  2914 net.cpp:380] conv1 -> conv1
I1216 15:23:21.359421  2914 net.cpp:122] Setting up conv1
I1216 15:23:21.359438  2914 net.cpp:129] Top shape: 8 32 10 120 120 (36864000)
I1216 15:23:21.359444  2914 net.cpp:137] Memory required for data: 332929696
I1216 15:23:21.359455  2914 layer_factory.hpp:77] Creating layer pool1
I1216 15:23:21.359465  2914 net.cpp:84] Creating Layer pool1
I1216 15:23:21.359472  2914 net.cpp:406] pool1 <- conv1
I1216 15:23:21.359478  2914 net.cpp:380] pool1 -> pool1
I1216 15:23:21.359511  2914 net.cpp:122] Setting up pool1
I1216 15:23:21.359522  2914 net.cpp:129] Top shape: 8 32 5 60 60 (4608000)
I1216 15:23:21.359529  2914 net.cpp:137] Memory required for data: 351361696
I1216 15:23:21.359534  2914 layer_factory.hpp:77] Creating layer relu1
I1216 15:23:21.359541  2914 net.cpp:84] Creating Layer relu1
I1216 15:23:21.359547  2914 net.cpp:406] relu1 <- pool1
I1216 15:23:21.359555  2914 net.cpp:367] relu1 -> pool1 (in-place)
I1216 15:23:21.359562  2914 net.cpp:122] Setting up relu1
I1216 15:23:21.359570  2914 net.cpp:129] Top shape: 8 32 5 60 60 (4608000)
I1216 15:23:21.359575  2914 net.cpp:137] Memory required for data: 369793696
I1216 15:23:21.359580  2914 layer_factory.hpp:77] Creating layer conv2
I1216 15:23:21.359589  2914 net.cpp:84] Creating Layer conv2
I1216 15:23:21.359594  2914 net.cpp:406] conv2 <- pool1
I1216 15:23:21.359602  2914 net.cpp:380] conv2 -> conv2
I1216 15:23:21.360503  2914 net.cpp:122] Setting up conv2
I1216 15:23:21.360514  2914 net.cpp:129] Top shape: 8 32 5 60 60 (4608000)
I1216 15:23:21.360520  2914 net.cpp:137] Memory required for data: 388225696
I1216 15:23:21.360527  2914 layer_factory.hpp:77] Creating layer pool2
I1216 15:23:21.360538  2914 net.cpp:84] Creating Layer pool2
I1216 15:23:21.360544  2914 net.cpp:406] pool2 <- conv2
I1216 15:23:21.360551  2914 net.cpp:380] pool2 -> pool2
I1216 15:23:21.360581  2914 net.cpp:122] Setting up pool2
I1216 15:23:21.360590  2914 net.cpp:129] Top shape: 8 32 3 30 30 (691200)
I1216 15:23:21.360595  2914 net.cpp:137] Memory required for data: 390990496
I1216 15:23:21.360600  2914 layer_factory.hpp:77] Creating layer relu2
I1216 15:23:21.360608  2914 net.cpp:84] Creating Layer relu2
I1216 15:23:21.360613  2914 net.cpp:406] relu2 <- pool2
I1216 15:23:21.360620  2914 net.cpp:367] relu2 -> pool2 (in-place)
I1216 15:23:21.360627  2914 net.cpp:122] Setting up relu2
I1216 15:23:21.360633  2914 net.cpp:129] Top shape: 8 32 3 30 30 (691200)
I1216 15:23:21.360640  2914 net.cpp:137] Memory required for data: 393755296
I1216 15:23:21.360644  2914 layer_factory.hpp:77] Creating layer ip1
I1216 15:23:21.360652  2914 net.cpp:84] Creating Layer ip1
I1216 15:23:21.360657  2914 net.cpp:406] ip1 <- pool2
I1216 15:23:21.360664  2914 net.cpp:380] ip1 -> ip1
I1216 15:23:21.371713  2914 net.cpp:122] Setting up ip1
I1216 15:23:21.371733  2914 net.cpp:129] Top shape: 8 3 (24)
I1216 15:23:21.371739  2914 net.cpp:137] Memory required for data: 393755392
I1216 15:23:21.371747  2914 layer_factory.hpp:77] Creating layer loss
I1216 15:23:21.371762  2914 net.cpp:84] Creating Layer loss
I1216 15:23:21.371767  2914 net.cpp:406] loss <- ip1
I1216 15:23:21.371773  2914 net.cpp:406] loss <- label
I1216 15:23:21.371781  2914 net.cpp:380] loss -> loss
I1216 15:23:21.371798  2914 layer_factory.hpp:77] Creating layer loss
…
I1216 15:23:21.867863  2914 net.cpp:51] Initializing net from parameters: 
name: "3DSTN-IsoGDNet"
state {
  phase: TEST
}
layer {
  name: "data"
  type: "TridimData"
  top: "data"
  top: "label"
  include {
    phase: TEST
  }
  transform_param {
    mirror: false
    crop_size: 120
    mean_value: 128
    mean_value: 128
    mean_value: 128
  }
  tridim_data_param {
    source: "/data2/xyyu/datasets/valid_3.lst"
    batch_size: 10
    shuffle: true
    new_height: 120
    new_width: 160
    root_folder: ""
    new_length: 10
    show_data: false
    use_image: true
  }
}
layer {
  name: "loc_conv1"
  type: "Convolution"
  bottom: "data"
  top: "loc_conv1"
  convolution_param {
    num_output: 20
    pad: 1
    pad: 1
    pad: 1
    kernel_size: 3
    kernel_size: 3
    kernel_size: 3
    stride: 1
    stride: 1
    stride: 1
    weight_filler {
      type: "gaussian"
      std: 0.001
    }
    bias_filler {
      type: "constant"
    }
    engine: CAFFE
  }
}
layer {
  name: "loc_pool1"
  type: "Pooling3D"
  bottom: "loc_conv1"
  top: "loc_pool1"
  pooling3d_param {
    pool: MAX
    pad: 0
    kernel_size: 3
    stride: 2
    pad_l: 0
    kernel_l: 2
    stride_l: 2
  }
}
layer {
  name: "loc_relu1"
  type: "ReLU"
  bottom: "loc_pool1"
  top: "loc_pool1"
  relu_param {
    engine: CAFFE
  }
}
layer {
  name: "loc_conv2"
  type: "Convolution"
  bottom: "loc_pool1"
  top: "loc_conv2"
  convolution_param {
    num_output: 20
    pad: 1
    pad: 1
    pad: 1
    kernel_size: 3
    kernel_size: 3
    kernel_size: 3
    stride: 1
    stride: 1
    stride: 1
    weight_filler {
      type: "gaussian"
      std: 0.001
    }
    bias_filler {
      type: "constant"
    }
    engine: CAFFE
  }
}
layer {
  name: "loc_pool2"
  type: "Pooling3D"
  bottom: "loc_conv2"
  top: "loc_pool2"
  pooling3d_param {
    pool: MAX
    pad: 0
    kernel_size: 3
    stride: 2
    pad_l: 0
    kernel_l: 2
    stride_l: 2
  }
}
layer {
  name: "loc_relu2"
  type: "ReLU"
  bottom: "loc_pool2"
  top: "loc_pool2"
  relu_param {
    engine: CAFFE
  }
}
layer {
  name: "loc_ip1"
  type: "InnerProduct"
  bottom: "loc_pool2"
  top: "loc_ip1"
  inner_product_param {
    num_output: 20
    weight_filler {
      type: "gaussian"
      std: 0.001
    }
    bias_filler {
      type: "constant"
    }
  }
}
layer {
  name: "loc_relu3"
  type: "ReLU"
  bottom: "loc_ip1"
  top: "loc_ip1"
  relu_param {
    engine: CAFFE
  }
}
layer {
  name: "loc_reg"
  type: "InnerProduct"
  bottom: "loc_ip1"
  top: "theta"
  inner_product_param {
    num_output: 12
    weight_filler {
      type: "constant"
      value: 0
    }
    bias_filler {
      type: "file"
      file: "examples/mnist_tests/bias_init.txt"
    }
  }
}
layer {
  name: "st_layer"
  type: "TridimSpatialTransformer"
  bottom: "data"
  bottom: "theta"
  top: "st_output"
}
layer {
  name: "conv1"
  type: "Convolution"
  bottom: "st_output"
  top: "conv1"
  convolution_param {
    num_output: 32
    pad: 1
    pad: 1
    pad: 1
    kernel_size: 3
    kernel_size: 3
    kernel_size: 3
    stride: 1
    stride: 1
    stride: 1
    weight_filler {
      type: "gaussian"
      std: 0.001
    }
    bias_filler {
      type: "constant"
    }
    engine: CAFFE
  }
}
layer {
  name: "pool1"
  type: "Pooling3D"
  bottom: "conv1"
  top: "pool1"
  pooling3d_param {
    pool: MAX
    pad: 0
    kernel_size: 3
    stride: 2
    pad_l: 0
    kernel_l: 2
    stride_l: 2
  }
}
layer {
  name: "relu1"
  type: "ReLU"
  bottom: "pool1"
  top: "pool1"
  relu_param {
    engine: CAFFE
  }
}
layer {
  name: "conv2"
  type: "Convolution"
  bottom: "pool1"
  top: "conv2"
  convolution_param {
    num_output: 32
    pad: 1
    pad: 1
    pad: 1
    kernel_size: 3
    kernel_size: 3
    kernel_size: 3
    stride: 1
    stride: 1
    stride: 1
    weight_filler {
      type: "gaussian"
      std: 0.001
    }
    bias_filler {
      type: "constant"
    }
    engine: CAFFE
  }
}
layer {
  name: "pool2"
  type: "Pooling3D"
  bottom: "conv2"
  top: "pool2"
  pooling3d_param {
    pool: MAX
    pad: 0
    kernel_size: 3
    stride: 2
    pad_l: 0
    kernel_l: 2
    stride_l: 2
  }
}
layer {
  name: "relu2"
  type: "ReLU"
  bottom: "pool2"
  top: "pool2"
  relu_param {
    engine: CAFFE
  }
}
layer {
  name: "ip1"
  type: "InnerProduct"
  bottom: "pool2"
  top: "ip1"
  param {
    lr_mult: 10
    decay_mult: 1
  }
  param {
    lr_mult: 20
    decay_mult: 0
  }
  inner_product_param {
    num_output: 3
    weight_filler {
      type: "gaussian"
      std: 0.001
    }
    bias_filler {
      type: "constant"
      value: 0
    }
  }
}
layer {
  name: "accuracy/top1"
  type: "Accuracy"
  bottom: "ip1"
  bottom: "label"
  top: "accuracy/top1"
  include {
    phase: TEST
  }
}
layer {
  name: "loss"
  type: "SoftmaxWithLoss"
  bottom: "ip1"
  bottom: "label"
  top: "loss"
}
I1216 15:23:21.869048  2914 layer_factory.hpp:77] Creating layer data
I1216 15:23:21.869079  2914 net.cpp:84] Creating Layer data
I1216 15:23:21.869096  2914 net.cpp:380] data -> data
I1216 15:23:21.869114  2914 net.cpp:380] data -> label
I1216 15:23:21.869134  2914 tridim_data_layer.cpp:67] Opening file /data2/xyyu/datasets/valid_3.lst
I1216 15:23:21.870488  2914 tridim_data_layer.cpp:130] Shuffling data
I1216 15:23:21.870551  2914 tridim_data_layer.cpp:140] A total of 2467 tridim chunks.
I1216 15:23:21.996141  2914 tridim_data_layer.cpp:182] output data size: 10,3,10,120,120
I1216 15:23:22.071009  2914 net.cpp:122] Setting up data
I1216 15:23:22.071043  2914 net.cpp:129] Top shape: 10 3 10 120 120 (4320000)
I1216 15:23:22.071050  2914 net.cpp:129] Top shape: 10 (10)
I1216 15:23:22.071055  2914 net.cpp:137] Memory required for data: 17280040
I1216 15:23:22.071064  2914 layer_factory.hpp:77] Creating layer data_data_0_split
I1216 15:23:22.071079  2914 net.cpp:84] Creating Layer data_data_0_split
I1216 15:23:22.071086  2914 net.cpp:406] data_data_0_split <- data
I1216 15:23:22.071095  2914 net.cpp:380] data_data_0_split -> data_data_0_split_0
I1216 15:23:22.071107  2914 net.cpp:380] data_data_0_split -> data_data_0_split_1
I1216 15:23:22.071199  2914 net.cpp:122] Setting up data_data_0_split
I1216 15:23:22.071214  2914 net.cpp:129] Top shape: 10 3 10 120 120 (4320000)
I1216 15:23:22.071221  2914 net.cpp:129] Top shape: 10 3 10 120 120 (4320000)
I1216 15:23:22.071226  2914 net.cpp:137] Memory required for data: 51840040
I1216 15:23:22.071233  2914 layer_factory.hpp:77] Creating layer label_data_1_split
I1216 15:23:22.071240  2914 net.cpp:84] Creating Layer label_data_1_split
I1216 15:23:22.071246  2914 net.cpp:406] label_data_1_split <- label
I1216 15:23:22.071264  2914 net.cpp:380] label_data_1_split -> label_data_1_split_0
I1216 15:23:22.071280  2914 net.cpp:380] label_data_1_split -> label_data_1_split_1
I1216 15:23:22.071343  2914 net.cpp:122] Setting up label_data_1_split
I1216 15:23:22.071362  2914 net.cpp:129] Top shape: 10 (10)
I1216 15:23:22.071368  2914 net.cpp:129] Top shape: 10 (10)
I1216 15:23:22.071373  2914 net.cpp:137] Memory required for data: 51840120
I1216 15:23:22.071379  2914 layer_factory.hpp:77] Creating layer loc_conv1
I1216 15:23:22.071393  2914 net.cpp:84] Creating Layer loc_conv1
I1216 15:23:22.071401  2914 net.cpp:406] loc_conv1 <- data_data_0_split_0
I1216 15:23:22.071410  2914 net.cpp:380] loc_conv1 -> loc_conv1
I1216 15:23:22.071802  2914 net.cpp:122] Setting up loc_conv1
I1216 15:23:22.071818  2914 net.cpp:129] Top shape: 10 20 10 120 120 (28800000)
I1216 15:23:22.071825  2914 net.cpp:137] Memory required for data: 167040120
I1216 15:23:22.071836  2914 layer_factory.hpp:77] Creating layer loc_pool1
I1216 15:23:22.071848  2914 net.cpp:84] Creating Layer loc_pool1
I1216 15:23:22.071861  2914 net.cpp:406] loc_pool1 <- loc_conv1
I1216 15:23:22.071868  2914 net.cpp:380] loc_pool1 -> loc_pool1
I1216 15:23:22.071903  2914 net.cpp:122] Setting up loc_pool1
I1216 15:23:22.071914  2914 net.cpp:129] Top shape: 10 20 5 60 60 (3600000)
I1216 15:23:22.071920  2914 net.cpp:137] Memory required for data: 181440120
I1216 15:23:22.071925  2914 layer_factory.hpp:77] Creating layer loc_relu1
I1216 15:23:22.071938  2914 net.cpp:84] Creating Layer loc_relu1
I1216 15:23:22.071946  2914 net.cpp:406] loc_relu1 <- loc_pool1
I1216 15:23:22.071954  2914 net.cpp:367] loc_relu1 -> loc_pool1 (in-place)
I1216 15:23:22.071961  2914 net.cpp:122] Setting up loc_relu1
I1216 15:23:22.071969  2914 net.cpp:129] Top shape: 10 20 5 60 60 (3600000)
I1216 15:23:22.071974  2914 net.cpp:137] Memory required for data: 195840120
I1216 15:23:22.071979  2914 layer_factory.hpp:77] Creating layer loc_conv2
I1216 15:23:22.071988  2914 net.cpp:84] Creating Layer loc_conv2
I1216 15:23:22.071995  2914 net.cpp:406] loc_conv2 <- loc_pool1
I1216 15:23:22.072000  2914 net.cpp:380] loc_conv2 -> loc_conv2
I1216 15:23:22.072468  2914 net.cpp:122] Setting up loc_conv2
I1216 15:23:22.072482  2914 net.cpp:129] Top shape: 10 20 5 60 60 (3600000)
I1216 15:23:22.072489  2914 net.cpp:137] Memory required for data: 210240120
I1216 15:23:22.072499  2914 layer_factory.hpp:77] Creating layer loc_pool2
I1216 15:23:22.072506  2914 net.cpp:84] Creating Layer loc_pool2
I1216 15:23:22.072512  2914 net.cpp:406] loc_pool2 <- loc_conv2
I1216 15:23:22.072518  2914 net.cpp:380] loc_pool2 -> loc_pool2
I1216 15:23:22.072556  2914 net.cpp:122] Setting up loc_pool2
I1216 15:23:22.072567  2914 net.cpp:129] Top shape: 10 20 3 30 30 (540000)
I1216 15:23:22.072573  2914 net.cpp:137] Memory required for data: 212400120
I1216 15:23:22.072578  2914 layer_factory.hpp:77] Creating layer loc_relu2
I1216 15:23:22.072587  2914 net.cpp:84] Creating Layer loc_relu2
I1216 15:23:22.072592  2914 net.cpp:406] loc_relu2 <- loc_pool2
I1216 15:23:22.072598  2914 net.cpp:367] loc_relu2 -> loc_pool2 (in-place)
I1216 15:23:22.072607  2914 net.cpp:122] Setting up loc_relu2
I1216 15:23:22.072613  2914 net.cpp:129] Top shape: 10 20 3 30 30 (540000)
I1216 15:23:22.072618  2914 net.cpp:137] Memory required for data: 214560120
I1216 15:23:22.072628  2914 layer_factory.hpp:77] Creating layer loc_ip1
I1216 15:23:22.072636  2914 net.cpp:84] Creating Layer loc_ip1
I1216 15:23:22.072641  2914 net.cpp:406] loc_ip1 <- loc_pool2
I1216 15:23:22.072648  2914 net.cpp:380] loc_ip1 -> loc_ip1
I1216 15:23:22.099900  2914 net.cpp:122] Setting up loc_ip1
I1216 15:23:22.099927  2914 net.cpp:129] Top shape: 10 20 (200)
I1216 15:23:22.099933  2914 net.cpp:137] Memory required for data: 214560920
I1216 15:23:22.099947  2914 layer_factory.hpp:77] Creating layer loc_relu3
I1216 15:23:22.099959  2914 net.cpp:84] Creating Layer loc_relu3
I1216 15:23:22.099967  2914 net.cpp:406] loc_relu3 <- loc_ip1
I1216 15:23:22.099974  2914 net.cpp:367] loc_relu3 -> loc_ip1 (in-place)
I1216 15:23:22.099984  2914 net.cpp:122] Setting up loc_relu3
I1216 15:23:22.099990  2914 net.cpp:129] Top shape: 10 20 (200)
I1216 15:23:22.100018  2914 net.cpp:137] Memory required for data: 214561720
I1216 15:23:22.100026  2914 layer_factory.hpp:77] Creating layer loc_reg
I1216 15:23:22.100040  2914 net.cpp:84] Creating Layer loc_reg
I1216 15:23:22.100049  2914 net.cpp:406] loc_reg <- loc_ip1
I1216 15:23:22.100060  2914 net.cpp:380] loc_reg -> theta
I1216 15:23:22.100266  2914 net.cpp:122] Setting up loc_reg
I1216 15:23:22.100281  2914 net.cpp:129] Top shape: 10 12 (120)
I1216 15:23:22.100286  2914 net.cpp:137] Memory required for data: 214562200
I1216 15:23:22.100294  2914 layer_factory.hpp:77] Creating layer st_layer
I1216 15:23:22.100302  2914 net.cpp:84] Creating Layer st_layer
I1216 15:23:22.100308  2914 net.cpp:406] st_layer <- data_data_0_split_1
I1216 15:23:22.100316  2914 net.cpp:406] st_layer <- theta
I1216 15:23:22.100322  2914 net.cpp:380] st_layer -> st_output
I1216 15:23:22.104292  2914 net.cpp:122] Setting up st_layer
I1216 15:23:22.104306  2914 net.cpp:129] Top shape: 10 3 10 120 120 (4320000)
I1216 15:23:22.104312  2914 net.cpp:137] Memory required for data: 231842200
I1216 15:23:22.104318  2914 layer_factory.hpp:77] Creating layer conv1
I1216 15:23:22.104331  2914 net.cpp:84] Creating Layer conv1
I1216 15:23:22.104338  2914 net.cpp:406] conv1 <- st_output
I1216 15:23:22.104346  2914 net.cpp:380] conv1 -> conv1
I1216 15:23:22.104742  2914 net.cpp:122] Setting up conv1
I1216 15:23:22.104761  2914 net.cpp:129] Top shape: 10 32 10 120 120 (46080000)
I1216 15:23:22.104768  2914 net.cpp:137] Memory required for data: 416162200
I1216 15:23:22.104777  2914 layer_factory.hpp:77] Creating layer pool1
I1216 15:23:22.104789  2914 net.cpp:84] Creating Layer pool1
I1216 15:23:22.104795  2914 net.cpp:406] pool1 <- conv1
I1216 15:23:22.104802  2914 net.cpp:380] pool1 -> pool1
I1216 15:23:22.104843  2914 net.cpp:122] Setting up pool1
I1216 15:23:22.104854  2914 net.cpp:129] Top shape: 10 32 5 60 60 (5760000)
I1216 15:23:22.104861  2914 net.cpp:137] Memory required for data: 439202200
I1216 15:23:22.104866  2914 layer_factory.hpp:77] Creating layer relu1
I1216 15:23:22.104873  2914 net.cpp:84] Creating Layer relu1
I1216 15:23:22.104878  2914 net.cpp:406] relu1 <- pool1
I1216 15:23:22.104885  2914 net.cpp:367] relu1 -> pool1 (in-place)
I1216 15:23:22.104893  2914 net.cpp:122] Setting up relu1
I1216 15:23:22.104900  2914 net.cpp:129] Top shape: 10 32 5 60 60 (5760000)
I1216 15:23:22.104905  2914 net.cpp:137] Memory required for data: 462242200
I1216 15:23:22.104910  2914 layer_factory.hpp:77] Creating layer conv2
I1216 15:23:22.104928  2914 net.cpp:84] Creating Layer conv2
I1216 15:23:22.104935  2914 net.cpp:406] conv2 <- pool1
I1216 15:23:22.104943  2914 net.cpp:380] conv2 -> conv2
I1216 15:23:22.105861  2914 net.cpp:122] Setting up conv2
I1216 15:23:22.105876  2914 net.cpp:129] Top shape: 10 32 5 60 60 (5760000)
I1216 15:23:22.105881  2914 net.cpp:137] Memory required for data: 485282200
I1216 15:23:22.105890  2914 layer_factory.hpp:77] Creating layer pool2
I1216 15:23:22.105897  2914 net.cpp:84] Creating Layer pool2
I1216 15:23:22.105903  2914 net.cpp:406] pool2 <- conv2
I1216 15:23:22.105911  2914 net.cpp:380] pool2 -> pool2
I1216 15:23:22.105950  2914 net.cpp:122] Setting up pool2
I1216 15:23:22.105960  2914 net.cpp:129] Top shape: 10 32 3 30 30 (864000)
I1216 15:23:22.105965  2914 net.cpp:137] Memory required for data: 488738200
I1216 15:23:22.105970  2914 layer_factory.hpp:77] Creating layer relu2
I1216 15:23:22.105978  2914 net.cpp:84] Creating Layer relu2
I1216 15:23:22.105983  2914 net.cpp:406] relu2 <- pool2
I1216 15:23:22.105993  2914 net.cpp:367] relu2 -> pool2 (in-place)
I1216 15:23:22.106003  2914 net.cpp:122] Setting up relu2
I1216 15:23:22.106009  2914 net.cpp:129] Top shape: 10 32 3 30 30 (864000)
I1216 15:23:22.106014  2914 net.cpp:137] Memory required for data: 492194200
I1216 15:23:22.106019  2914 layer_factory.hpp:77] Creating layer ip1
I1216 15:23:22.106026  2914 net.cpp:84] Creating Layer ip1
I1216 15:23:22.106031  2914 net.cpp:406] ip1 <- pool2
I1216 15:23:22.106037  2914 net.cpp:380] ip1 -> ip1
I1216 15:23:22.113135  2914 net.cpp:122] Setting up ip1
I1216 15:23:22.113170  2914 net.cpp:129] Top shape: 10 3 (30)
I1216 15:23:22.113178  2914 net.cpp:137] Memory required for data: 492194320
I1216 15:23:22.113185  2914 layer_factory.hpp:77] Creating layer ip1_ip1_0_split
I1216 15:23:22.113194  2914 net.cpp:84] Creating Layer ip1_ip1_0_split
I1216 15:23:22.113200  2914 net.cpp:406] ip1_ip1_0_split <- ip1
I1216 15:23:22.113207  2914 net.cpp:380] ip1_ip1_0_split -> ip1_ip1_0_split_0
I1216 15:23:22.113215  2914 net.cpp:380] ip1_ip1_0_split -> ip1_ip1_0_split_1
I1216 15:23:22.113248  2914 net.cpp:122] Setting up ip1_ip1_0_split
I1216 15:23:22.113257  2914 net.cpp:129] Top shape: 10 3 (30)
I1216 15:23:22.113262  2914 net.cpp:129] Top shape: 10 3 (30)
I1216 15:23:22.113267  2914 net.cpp:137] Memory required for data: 492194560
I1216 15:23:22.113272  2914 layer_factory.hpp:77] Creating layer accuracy/top1
I1216 15:23:22.113281  2914 net.cpp:84] Creating Layer accuracy/top1
I1216 15:23:22.113286  2914 net.cpp:406] accuracy/top1 <- ip1_ip1_0_split_0
I1216 15:23:22.113291  2914 net.cpp:406] accuracy/top1 <- label_data_1_split_0
I1216 15:23:22.113298  2914 net.cpp:380] accuracy/top1 -> accuracy/top1
…
