…
I1217 01:25:42.186537 26545 net.cpp:51] Initializing net from parameters: 
name: "3DSTN-IsoGDNet"
state {
  phase: TRAIN
  level: 0
  stage: ""
}
layer {
  name: "data"
  type: "TridimData"
  top: "data"
  top: "label"
  include {
    phase: TRAIN
  }
  transform_param {
    mirror: true
    crop_size: 120
    mean_value: 128
    mean_value: 128
    mean_value: 128
  }
  tridim_data_param {
    source: "/data2/xyyu/datasets/train_3.lst"
    batch_size: 8
    shuffle: true
    new_height: 120
    new_width: 160
    root_folder: ""
    new_length: 10
    show_data: false
    use_image: true
  }
}
layer {
  name: "loc_conv1"
  type: "TridimConvolution"
  bottom: "data"
  top: "loc_conv1"
  tridim_convolution_param {
    num_output: 20
    pad: 1
    kernel_size: 3
    stride: 1
    weight_filler {
      type: "gaussian"
      std: 0.001
    }
    bias_filler {
      type: "constant"
    }
  }
}
layer {
  name: "loc_pool1"
  type: "TridimPooling"
  bottom: "loc_conv1"
  top: "loc_pool1"
  tridim_pooling_param {
    pool: AVE
    kernel_size: 2
    stride: 2
    pad: 2
  }
}
layer {
  name: "loc_relu1"
  type: "ReLU"
  bottom: "loc_pool1"
  top: "loc_pool1"
}
layer {
  name: "loc_conv2"
  type: "TridimConvolution"
  bottom: "loc_pool1"
  top: "loc_conv2"
  tridim_convolution_param {
    num_output: 20
    pad: 1
    kernel_size: 3
    stride: 1
    weight_filler {
      type: "gaussian"
      std: 0.001
    }
    bias_filler {
      type: "constant"
    }
  }
}
layer {
  name: "loc_pool2"
  type: "TridimPooling"
  bottom: "loc_conv2"
  top: "loc_pool2"
  tridim_pooling_param {
    pool: AVE
    kernel_size: 2
    stride: 2
    pad: 2
  }
}
layer {
  name: "loc_relu2"
  type: "ReLU"
  bottom: "loc_pool2"
  top: "loc_pool2"
}
layer {
  name: "loc_ip1"
  type: "InnerProduct"
  bottom: "loc_pool2"
  top: "loc_ip1"
  inner_product_param {
    num_output: 20
    weight_filler {
      type: "gaussian"
      std: 0.001
    }
    bias_filler {
      type: "constant"
    }
  }
}
layer {
  name: "loc_relu3"
  type: "ReLU"
  bottom: "loc_ip1"
  top: "loc_ip1"
}
layer {
  name: "loc_reg"
  type: "InnerProduct"
  bottom: "loc_ip1"
  top: "theta"
  inner_product_param {
    num_output: 12
    weight_filler {
      type: "constant"
      value: 0
    }
    bias_filler {
      type: "file"
      file: "examples/mnist_tests/bias_init.txt"
    }
  }
}
layer {
  name: "st_layer"
  type: "TridimSpatialTransformer"
  bottom: "data"
  bottom: "theta"
  top: "st_output"
}
layer {
  name: "conv1"
  type: "TridimConvolution"
  bottom: "st_output"
  top: "conv1"
  tridim_convolution_param {
    num_output: 32
    pad: 1
    kernel_size: 3
    stride: 1
    weight_filler {
      type: "gaussian"
      std: 0.001
    }
    bias_filler {
      type: "constant"
    }
  }
}
layer {
  name: "pool1"
  type: "TridimPooling"
  bottom: "conv1"
  top: "pool1"
  tridim_pooling_param {
    pool: AVE
    kernel_size: 2
    stride: 2
    pad: 2
  }
}
layer {
  name: "relu1"
  type: "ReLU"
  bottom: "pool1"
  top: "pool1"
}
layer {
  name: "conv2"
  type: "TridimConvolution"
  bottom: "pool1"
  top: "conv2"
  tridim_convolution_param {
    num_output: 32
    pad: 1
    kernel_size: 3
    stride: 1
    weight_filler {
      type: "gaussian"
      std: 0.001
    }
    bias_filler {
      type: "constant"
    }
  }
}
layer {
  name: "pool2"
  type: "TridimPooling"
  bottom: "conv2"
  top: "pool2"
  tridim_pooling_param {
    pool: AVE
    kernel_size: 2
    stride: 2
    pad: 2
  }
}
layer {
  name: "relu2"
  type: "ReLU"
  bottom: "pool2"
  top: "pool2"
}
layer {
  name: "ip1"
  type: "InnerProduct"
  bottom: "pool2"
  top: "ip1"
  param {
    lr_mult: 10
    decay_mult: 1
  }
  param {
    lr_mult: 20
    decay_mult: 0
  }
  inner_product_param {
    num_output: 3
    weight_filler {
      type: "gaussian"
      std: 0.001
    }
    bias_filler {
      type: "constant"
      value: 0
    }
  }
}
layer {
  name: "loss"
  type: "SoftmaxWithLoss"
  bottom: "ip1"
  bottom: "label"
  top: "loss"
}
I1217 01:25:42.187189 26545 layer_factory.hpp:77] Creating layer data
I1217 01:25:42.187229 26545 net.cpp:84] Creating Layer data
I1217 01:25:42.187239 26545 net.cpp:380] data -> data
I1217 01:25:42.187263 26545 net.cpp:380] data -> label
I1217 01:25:42.187611 26545 tridim_data_layer.cpp:67] Opening file /data2/xyyu/datasets/train_3.lst
I1217 01:25:42.194334 26545 tridim_data_layer.cpp:130] Shuffling data
I1217 01:25:42.194571 26545 tridim_data_layer.cpp:140] A total of 20698 tridim chunks.
I1217 01:25:42.198797 26545 tridim_data_layer.cpp:182] output data size: 8,3,10,120,120
I1217 01:25:42.253945 26545 net.cpp:122] Setting up data
I1217 01:25:42.253984 26545 net.cpp:129] Top shape: 8 3 10 120 120 (3456000)
I1217 01:25:42.253993 26545 net.cpp:129] Top shape: 8 (8)
I1217 01:25:42.253999 26545 net.cpp:137] Memory required for data: 13824032
I1217 01:25:42.254009 26545 layer_factory.hpp:77] Creating layer data_data_0_split
I1217 01:25:42.254025 26545 net.cpp:84] Creating Layer data_data_0_split
I1217 01:25:42.254034 26545 net.cpp:406] data_data_0_split <- data
I1217 01:25:42.254050 26545 net.cpp:380] data_data_0_split -> data_data_0_split_0
I1217 01:25:42.254063 26545 net.cpp:380] data_data_0_split -> data_data_0_split_1
I1217 01:25:42.254109 26545 net.cpp:122] Setting up data_data_0_split
I1217 01:25:42.254122 26545 net.cpp:129] Top shape: 8 3 10 120 120 (3456000)
I1217 01:25:42.254127 26545 net.cpp:129] Top shape: 8 3 10 120 120 (3456000)
I1217 01:25:42.254132 26545 net.cpp:137] Memory required for data: 41472032
I1217 01:25:42.254137 26545 layer_factory.hpp:77] Creating layer loc_conv1
I1217 01:25:42.254150 26545 net.cpp:84] Creating Layer loc_conv1
I1217 01:25:42.254156 26545 net.cpp:406] loc_conv1 <- data_data_0_split_0
I1217 01:25:42.254163 26545 net.cpp:380] loc_conv1 -> loc_conv1
I1217 01:25:42.255923 26545 net.cpp:122] Setting up loc_conv1
I1217 01:25:42.255944 26545 net.cpp:129] Top shape: 8 20 10 120 120 (23040000)
I1217 01:25:42.255951 26545 net.cpp:137] Memory required for data: 133632032
I1217 01:25:42.255972 26545 layer_factory.hpp:77] Creating layer loc_pool1
I1217 01:25:42.255985 26545 net.cpp:84] Creating Layer loc_pool1
I1217 01:25:42.256003 26545 net.cpp:406] loc_pool1 <- loc_conv1
I1217 01:25:42.256011 26545 net.cpp:380] loc_pool1 -> loc_pool1
I1217 01:25:42.256050 26545 net.cpp:122] Setting up loc_pool1
I1217 01:25:42.256062 26545 net.cpp:129] Top shape: 8 20 5 62 62 (3075200)
I1217 01:25:42.256068 26545 net.cpp:137] Memory required for data: 145932832
I1217 01:25:42.256073 26545 layer_factory.hpp:77] Creating layer loc_relu1
I1217 01:25:42.256084 26545 net.cpp:84] Creating Layer loc_relu1
I1217 01:25:42.256091 26545 net.cpp:406] loc_relu1 <- loc_pool1
I1217 01:25:42.256098 26545 net.cpp:367] loc_relu1 -> loc_pool1 (in-place)
I1217 01:25:42.815153 26545 net.cpp:122] Setting up loc_relu1
I1217 01:25:42.815201 26545 net.cpp:129] Top shape: 8 20 5 62 62 (3075200)
I1217 01:25:42.815212 26545 net.cpp:137] Memory required for data: 158233632
I1217 01:25:42.815232 26545 layer_factory.hpp:77] Creating layer loc_conv2
I1217 01:25:42.815263 26545 net.cpp:84] Creating Layer loc_conv2
I1217 01:25:42.815276 26545 net.cpp:406] loc_conv2 <- loc_pool1
I1217 01:25:42.815317 26545 net.cpp:380] loc_conv2 -> loc_conv2
I1217 01:25:42.818027 26545 net.cpp:122] Setting up loc_conv2
I1217 01:25:42.818059 26545 net.cpp:129] Top shape: 8 20 5 62 62 (3075200)
I1217 01:25:42.818070 26545 net.cpp:137] Memory required for data: 170534432
I1217 01:25:42.818090 26545 layer_factory.hpp:77] Creating layer loc_pool2
I1217 01:25:42.818106 26545 net.cpp:84] Creating Layer loc_pool2
I1217 01:25:42.818116 26545 net.cpp:406] loc_pool2 <- loc_conv2
I1217 01:25:42.818127 26545 net.cpp:380] loc_pool2 -> loc_pool2
I1217 01:25:42.818171 26545 net.cpp:122] Setting up loc_pool2
I1217 01:25:42.818189 26545 net.cpp:129] Top shape: 8 20 3 33 33 (522720)
I1217 01:25:42.818200 26545 net.cpp:137] Memory required for data: 172625312
I1217 01:25:42.818209 26545 layer_factory.hpp:77] Creating layer loc_relu2
I1217 01:25:42.818222 26545 net.cpp:84] Creating Layer loc_relu2
I1217 01:25:42.818231 26545 net.cpp:406] loc_relu2 <- loc_pool2
I1217 01:25:42.818243 26545 net.cpp:367] loc_relu2 -> loc_pool2 (in-place)
I1217 01:25:42.819126 26545 net.cpp:122] Setting up loc_relu2
I1217 01:25:42.819154 26545 net.cpp:129] Top shape: 8 20 3 33 33 (522720)
I1217 01:25:42.819164 26545 net.cpp:137] Memory required for data: 174716192
I1217 01:25:42.819175 26545 layer_factory.hpp:77] Creating layer loc_ip1
I1217 01:25:42.819196 26545 net.cpp:84] Creating Layer loc_ip1
I1217 01:25:42.819206 26545 net.cpp:406] loc_ip1 <- loc_pool2
I1217 01:25:42.819218 26545 net.cpp:380] loc_ip1 -> loc_ip1
I1217 01:25:42.853135 26545 net.cpp:122] Setting up loc_ip1
I1217 01:25:42.853171 26545 net.cpp:129] Top shape: 8 20 (160)
I1217 01:25:42.853178 26545 net.cpp:137] Memory required for data: 174716832
I1217 01:25:42.853195 26545 layer_factory.hpp:77] Creating layer loc_relu3
I1217 01:25:42.853207 26545 net.cpp:84] Creating Layer loc_relu3
I1217 01:25:42.853214 26545 net.cpp:406] loc_relu3 <- loc_ip1
I1217 01:25:42.853222 26545 net.cpp:367] loc_relu3 -> loc_ip1 (in-place)
I1217 01:25:42.853397 26545 net.cpp:122] Setting up loc_relu3
I1217 01:25:42.853411 26545 net.cpp:129] Top shape: 8 20 (160)
I1217 01:25:42.853418 26545 net.cpp:137] Memory required for data: 174717472
I1217 01:25:42.853425 26545 layer_factory.hpp:77] Creating layer loc_reg
I1217 01:25:42.853435 26545 net.cpp:84] Creating Layer loc_reg
I1217 01:25:42.853440 26545 net.cpp:406] loc_reg <- loc_ip1
I1217 01:25:42.853447 26545 net.cpp:380] loc_reg -> theta
I1217 01:25:42.853658 26545 net.cpp:122] Setting up loc_reg
I1217 01:25:42.853672 26545 net.cpp:129] Top shape: 8 12 (96)
I1217 01:25:42.853677 26545 net.cpp:137] Memory required for data: 174717856
I1217 01:25:42.853685 26545 layer_factory.hpp:77] Creating layer st_layer
I1217 01:25:42.853698 26545 net.cpp:84] Creating Layer st_layer
I1217 01:25:42.853704 26545 net.cpp:406] st_layer <- data_data_0_split_1
I1217 01:25:42.853711 26545 net.cpp:406] st_layer <- theta
I1217 01:25:42.853718 26545 net.cpp:380] st_layer -> st_output
I1217 01:25:42.857640 26545 net.cpp:122] Setting up st_layer
I1217 01:25:42.857656 26545 net.cpp:129] Top shape: 8 3 10 120 120 (3456000)
I1217 01:25:42.857662 26545 net.cpp:137] Memory required for data: 188541856
I1217 01:25:42.857668 26545 layer_factory.hpp:77] Creating layer conv1
I1217 01:25:42.857679 26545 net.cpp:84] Creating Layer conv1
I1217 01:25:42.857686 26545 net.cpp:406] conv1 <- st_output
I1217 01:25:42.857693 26545 net.cpp:380] conv1 -> conv1
I1217 01:25:42.857976 26545 net.cpp:122] Setting up conv1
I1217 01:25:42.857991 26545 net.cpp:129] Top shape: 8 32 10 120 120 (36864000)
I1217 01:25:42.857998 26545 net.cpp:137] Memory required for data: 335997856
I1217 01:25:42.858011 26545 layer_factory.hpp:77] Creating layer pool1
I1217 01:25:42.858021 26545 net.cpp:84] Creating Layer pool1
I1217 01:25:42.858026 26545 net.cpp:406] pool1 <- conv1
I1217 01:25:42.858032 26545 net.cpp:380] pool1 -> pool1
I1217 01:25:42.858058 26545 net.cpp:122] Setting up pool1
I1217 01:25:42.858068 26545 net.cpp:129] Top shape: 8 32 5 62 62 (4920320)
I1217 01:25:42.858074 26545 net.cpp:137] Memory required for data: 355679136
I1217 01:25:42.858093 26545 layer_factory.hpp:77] Creating layer relu1
I1217 01:25:42.858101 26545 net.cpp:84] Creating Layer relu1
I1217 01:25:42.858108 26545 net.cpp:406] relu1 <- pool1
I1217 01:25:42.858115 26545 net.cpp:367] relu1 -> pool1 (in-place)
I1217 01:25:42.858255 26545 net.cpp:122] Setting up relu1
I1217 01:25:42.858269 26545 net.cpp:129] Top shape: 8 32 5 62 62 (4920320)
I1217 01:25:42.858276 26545 net.cpp:137] Memory required for data: 375360416
I1217 01:25:42.858283 26545 layer_factory.hpp:77] Creating layer conv2
I1217 01:25:42.858291 26545 net.cpp:84] Creating Layer conv2
I1217 01:25:42.858297 26545 net.cpp:406] conv2 <- pool1
I1217 01:25:42.858304 26545 net.cpp:380] conv2 -> conv2
I1217 01:25:42.859091 26545 net.cpp:122] Setting up conv2
I1217 01:25:42.859104 26545 net.cpp:129] Top shape: 8 32 5 62 62 (4920320)
I1217 01:25:42.859109 26545 net.cpp:137] Memory required for data: 395041696
I1217 01:25:42.859117 26545 layer_factory.hpp:77] Creating layer pool2
I1217 01:25:42.859127 26545 net.cpp:84] Creating Layer pool2
I1217 01:25:42.859133 26545 net.cpp:406] pool2 <- conv2
I1217 01:25:42.859139 26545 net.cpp:380] pool2 -> pool2
I1217 01:25:42.859161 26545 net.cpp:122] Setting up pool2
I1217 01:25:42.859169 26545 net.cpp:129] Top shape: 8 32 3 33 33 (836352)
I1217 01:25:42.859174 26545 net.cpp:137] Memory required for data: 398387104
I1217 01:25:42.859179 26545 layer_factory.hpp:77] Creating layer relu2
I1217 01:25:42.859186 26545 net.cpp:84] Creating Layer relu2
I1217 01:25:42.859191 26545 net.cpp:406] relu2 <- pool2
I1217 01:25:42.859197 26545 net.cpp:367] relu2 -> pool2 (in-place)
I1217 01:25:42.859760 26545 net.cpp:122] Setting up relu2
I1217 01:25:42.859776 26545 net.cpp:129] Top shape: 8 32 3 33 33 (836352)
I1217 01:25:42.859782 26545 net.cpp:137] Memory required for data: 401732512
I1217 01:25:42.859788 26545 layer_factory.hpp:77] Creating layer ip1
I1217 01:25:42.859797 26545 net.cpp:84] Creating Layer ip1
I1217 01:25:42.859803 26545 net.cpp:406] ip1 <- pool2
I1217 01:25:42.859810 26545 net.cpp:380] ip1 -> ip1
I1217 01:25:42.867992 26545 net.cpp:122] Setting up ip1
I1217 01:25:42.868010 26545 net.cpp:129] Top shape: 8 3 (24)
I1217 01:25:42.868017 26545 net.cpp:137] Memory required for data: 401732608
I1217 01:25:42.868026 26545 layer_factory.hpp:77] Creating layer loss
I1217 01:25:42.868039 26545 net.cpp:84] Creating Layer loss
I1217 01:25:42.868046 26545 net.cpp:406] loss <- ip1
I1217 01:25:42.868052 26545 net.cpp:406] loss <- label
I1217 01:25:42.868059 26545 net.cpp:380] loss -> loss
I1217 01:25:42.868075 26545 layer_factory.hpp:77] Creating layer loss
…
I1217 01:25:42.868949 26545 net.cpp:51] Initializing net from parameters: 
name: "3DSTN-IsoGDNet"
state {
  phase: TEST
}
layer {
  name: "data"
  type: "TridimData"
  top: "data"
  top: "label"
  include {
    phase: TEST
  }
  transform_param {
    mirror: false
    crop_size: 120
    mean_value: 128
    mean_value: 128
    mean_value: 128
  }
  tridim_data_param {
    source: "/data2/xyyu/datasets/valid_3.lst"
    batch_size: 10
    shuffle: true
    new_height: 120
    new_width: 160
    root_folder: ""
    new_length: 10
    show_data: false
    use_image: true
  }
}
layer {
  name: "loc_conv1"
  type: "TridimConvolution"
  bottom: "data"
  top: "loc_conv1"
  tridim_convolution_param {
    num_output: 20
    pad: 1
    kernel_size: 3
    stride: 1
    weight_filler {
      type: "gaussian"
      std: 0.001
    }
    bias_filler {
      type: "constant"
    }
  }
}
layer {
  name: "loc_pool1"
  type: "TridimPooling"
  bottom: "loc_conv1"
  top: "loc_pool1"
  tridim_pooling_param {
    pool: AVE
    kernel_size: 2
    stride: 2
    pad: 2
  }
}
layer {
  name: "loc_relu1"
  type: "ReLU"
  bottom: "loc_pool1"
  top: "loc_pool1"
}
layer {
  name: "loc_conv2"
  type: "TridimConvolution"
  bottom: "loc_pool1"
  top: "loc_conv2"
  tridim_convolution_param {
    num_output: 20
    pad: 1
    kernel_size: 3
    stride: 1
    weight_filler {
      type: "gaussian"
      std: 0.001
    }
    bias_filler {
      type: "constant"
    }
  }
}
layer {
  name: "loc_pool2"
  type: "TridimPooling"
  bottom: "loc_conv2"
  top: "loc_pool2"
  tridim_pooling_param {
    pool: AVE
    kernel_size: 2
    stride: 2
    pad: 2
  }
}
layer {
  name: "loc_relu2"
  type: "ReLU"
  bottom: "loc_pool2"
  top: "loc_pool2"
}
layer {
  name: "loc_ip1"
  type: "InnerProduct"
  bottom: "loc_pool2"
  top: "loc_ip1"
  inner_product_param {
    num_output: 20
    weight_filler {
      type: "gaussian"
      std: 0.001
    }
    bias_filler {
      type: "constant"
    }
  }
}
layer {
  name: "loc_relu3"
  type: "ReLU"
  bottom: "loc_ip1"
  top: "loc_ip1"
}
layer {
  name: "loc_reg"
  type: "InnerProduct"
  bottom: "loc_ip1"
  top: "theta"
  inner_product_param {
    num_output: 12
    weight_filler {
      type: "constant"
      value: 0
    }
    bias_filler {
      type: "file"
      file: "examples/mnist_tests/bias_init.txt"
    }
  }
}
layer {
  name: "st_layer"
  type: "TridimSpatialTransformer"
  bottom: "data"
  bottom: "theta"
  top: "st_output"
}
layer {
  name: "conv1"
  type: "TridimConvolution"
  bottom: "st_output"
  top: "conv1"
  tridim_convolution_param {
    num_output: 32
    pad: 1
    kernel_size: 3
    stride: 1
    weight_filler {
      type: "gaussian"
      std: 0.001
    }
    bias_filler {
      type: "constant"
    }
  }
}
layer {
  name: "pool1"
  type: "TridimPooling"
  bottom: "conv1"
  top: "pool1"
  tridim_pooling_param {
    pool: AVE
    kernel_size: 2
    stride: 2
    pad: 2
  }
}
layer {
  name: "relu1"
  type: "ReLU"
  bottom: "pool1"
  top: "pool1"
}
layer {
  name: "conv2"
  type: "TridimConvolution"
  bottom: "pool1"
  top: "conv2"
  tridim_convolution_param {
    num_output: 32
    pad: 1
    kernel_size: 3
    stride: 1
    weight_filler {
      type: "gaussian"
      std: 0.001
    }
    bias_filler {
      type: "constant"
    }
  }
}
layer {
  name: "pool2"
  type: "TridimPooling"
  bottom: "conv2"
  top: "pool2"
  tridim_pooling_param {
    pool: AVE
    kernel_size: 2
    stride: 2
    pad: 2
  }
}
layer {
  name: "relu2"
  type: "ReLU"
  bottom: "pool2"
  top: "pool2"
}
layer {
  name: "ip1"
  type: "InnerProduct"
  bottom: "pool2"
  top: "ip1"
  param {
    lr_mult: 10
    decay_mult: 1
  }
  param {
    lr_mult: 20
    decay_mult: 0
  }
  inner_product_param {
    num_output: 3
    weight_filler {
      type: "gaussian"
      std: 0.001
    }
    bias_filler {
      type: "constant"
      value: 0
    }
  }
}
layer {
  name: "accuracy/top1"
  type: "Accuracy"
  bottom: "ip1"
  bottom: "label"
  top: "accuracy/top1"
  include {
    phase: TEST
  }
}
layer {
  name: "loss"
  type: "SoftmaxWithLoss"
  bottom: "ip1"
  bottom: "label"
  top: "loss"
}
I1217 01:25:42.869525 26545 layer_factory.hpp:77] Creating layer data
I1217 01:25:42.869542 26545 net.cpp:84] Creating Layer data
I1217 01:25:42.869549 26545 net.cpp:380] data -> data
I1217 01:25:42.869559 26545 net.cpp:380] data -> label
I1217 01:25:42.869567 26545 tridim_data_layer.cpp:67] Opening file /data2/xyyu/datasets/valid_3.lst
I1217 01:25:42.870331 26545 tridim_data_layer.cpp:130] Shuffling data
I1217 01:25:42.870368 26545 tridim_data_layer.cpp:140] A total of 2467 tridim chunks.
I1217 01:25:42.873703 26545 tridim_data_layer.cpp:182] output data size: 10,3,10,120,120
I1217 01:25:42.912523 26545 net.cpp:122] Setting up data
I1217 01:25:42.912554 26545 net.cpp:129] Top shape: 10 3 10 120 120 (4320000)
I1217 01:25:42.912562 26545 net.cpp:129] Top shape: 10 (10)
I1217 01:25:42.912569 26545 net.cpp:137] Memory required for data: 17280040
I1217 01:25:42.912576 26545 layer_factory.hpp:77] Creating layer data_data_0_split
I1217 01:25:42.912590 26545 net.cpp:84] Creating Layer data_data_0_split
I1217 01:25:42.912595 26545 net.cpp:406] data_data_0_split <- data
I1217 01:25:42.912605 26545 net.cpp:380] data_data_0_split -> data_data_0_split_0
I1217 01:25:42.912616 26545 net.cpp:380] data_data_0_split -> data_data_0_split_1
I1217 01:25:42.912667 26545 net.cpp:122] Setting up data_data_0_split
I1217 01:25:42.912675 26545 net.cpp:129] Top shape: 10 3 10 120 120 (4320000)
I1217 01:25:42.912681 26545 net.cpp:129] Top shape: 10 3 10 120 120 (4320000)
I1217 01:25:42.912686 26545 net.cpp:137] Memory required for data: 51840040
I1217 01:25:42.912691 26545 layer_factory.hpp:77] Creating layer label_data_1_split
I1217 01:25:42.912698 26545 net.cpp:84] Creating Layer label_data_1_split
I1217 01:25:42.912704 26545 net.cpp:406] label_data_1_split <- label
I1217 01:25:42.912710 26545 net.cpp:380] label_data_1_split -> label_data_1_split_0
I1217 01:25:42.912717 26545 net.cpp:380] label_data_1_split -> label_data_1_split_1
I1217 01:25:42.912748 26545 net.cpp:122] Setting up label_data_1_split
I1217 01:25:42.912756 26545 net.cpp:129] Top shape: 10 (10)
I1217 01:25:42.912762 26545 net.cpp:129] Top shape: 10 (10)
I1217 01:25:42.912766 26545 net.cpp:137] Memory required for data: 51840120
I1217 01:25:42.912771 26545 layer_factory.hpp:77] Creating layer loc_conv1
I1217 01:25:42.912781 26545 net.cpp:84] Creating Layer loc_conv1
I1217 01:25:42.912786 26545 net.cpp:406] loc_conv1 <- data_data_0_split_0
I1217 01:25:42.912792 26545 net.cpp:380] loc_conv1 -> loc_conv1
I1217 01:25:42.913060 26545 net.cpp:122] Setting up loc_conv1
I1217 01:25:42.913074 26545 net.cpp:129] Top shape: 10 20 10 120 120 (28800000)
I1217 01:25:42.913079 26545 net.cpp:137] Memory required for data: 167040120
I1217 01:25:42.913092 26545 layer_factory.hpp:77] Creating layer loc_pool1
I1217 01:25:42.913101 26545 net.cpp:84] Creating Layer loc_pool1
I1217 01:25:42.913107 26545 net.cpp:406] loc_pool1 <- loc_conv1
I1217 01:25:42.913113 26545 net.cpp:380] loc_pool1 -> loc_pool1
I1217 01:25:42.913137 26545 net.cpp:122] Setting up loc_pool1
I1217 01:25:42.913146 26545 net.cpp:129] Top shape: 10 20 5 62 62 (3844000)
I1217 01:25:42.913151 26545 net.cpp:137] Memory required for data: 182416120
I1217 01:25:42.913156 26545 layer_factory.hpp:77] Creating layer loc_relu1
I1217 01:25:42.913163 26545 net.cpp:84] Creating Layer loc_relu1
I1217 01:25:42.913182 26545 net.cpp:406] loc_relu1 <- loc_pool1
I1217 01:25:42.913188 26545 net.cpp:367] loc_relu1 -> loc_pool1 (in-place)
I1217 01:25:42.913400 26545 net.cpp:122] Setting up loc_relu1
I1217 01:25:42.913416 26545 net.cpp:129] Top shape: 10 20 5 62 62 (3844000)
I1217 01:25:42.913422 26545 net.cpp:137] Memory required for data: 197792120
I1217 01:25:42.913429 26545 layer_factory.hpp:77] Creating layer loc_conv2
I1217 01:25:42.913436 26545 net.cpp:84] Creating Layer loc_conv2
I1217 01:25:42.913442 26545 net.cpp:406] loc_conv2 <- loc_pool1
I1217 01:25:42.913450 26545 net.cpp:380] loc_conv2 -> loc_conv2
I1217 01:25:42.913831 26545 net.cpp:122] Setting up loc_conv2
I1217 01:25:42.913846 26545 net.cpp:129] Top shape: 10 20 5 62 62 (3844000)
I1217 01:25:42.913851 26545 net.cpp:137] Memory required for data: 213168120
I1217 01:25:42.913861 26545 layer_factory.hpp:77] Creating layer loc_pool2
I1217 01:25:42.913869 26545 net.cpp:84] Creating Layer loc_pool2
I1217 01:25:42.913875 26545 net.cpp:406] loc_pool2 <- loc_conv2
I1217 01:25:42.913882 26545 net.cpp:380] loc_pool2 -> loc_pool2
I1217 01:25:42.913904 26545 net.cpp:122] Setting up loc_pool2
I1217 01:25:42.913913 26545 net.cpp:129] Top shape: 10 20 3 33 33 (653400)
I1217 01:25:42.913918 26545 net.cpp:137] Memory required for data: 215781720
I1217 01:25:42.913925 26545 layer_factory.hpp:77] Creating layer loc_relu2
I1217 01:25:42.913933 26545 net.cpp:84] Creating Layer loc_relu2
I1217 01:25:42.913938 26545 net.cpp:406] loc_relu2 <- loc_pool2
I1217 01:25:42.913944 26545 net.cpp:367] loc_relu2 -> loc_pool2 (in-place)
I1217 01:25:42.914079 26545 net.cpp:122] Setting up loc_relu2
I1217 01:25:42.914091 26545 net.cpp:129] Top shape: 10 20 3 33 33 (653400)
I1217 01:25:42.914098 26545 net.cpp:137] Memory required for data: 218395320
I1217 01:25:42.914103 26545 layer_factory.hpp:77] Creating layer loc_ip1
I1217 01:25:42.914111 26545 net.cpp:84] Creating Layer loc_ip1
I1217 01:25:42.914116 26545 net.cpp:406] loc_ip1 <- loc_pool2
I1217 01:25:42.914124 26545 net.cpp:380] loc_ip1 -> loc_ip1
I1217 01:25:42.948081 26545 net.cpp:122] Setting up loc_ip1
I1217 01:25:42.948125 26545 net.cpp:129] Top shape: 10 20 (200)
I1217 01:25:42.948137 26545 net.cpp:137] Memory required for data: 218396120
I1217 01:25:42.948158 26545 layer_factory.hpp:77] Creating layer loc_relu3
I1217 01:25:42.948175 26545 net.cpp:84] Creating Layer loc_relu3
I1217 01:25:42.948189 26545 net.cpp:406] loc_relu3 <- loc_ip1
I1217 01:25:42.948200 26545 net.cpp:367] loc_relu3 -> loc_ip1 (in-place)
I1217 01:25:42.948979 26545 net.cpp:122] Setting up loc_relu3
I1217 01:25:42.949004 26545 net.cpp:129] Top shape: 10 20 (200)
I1217 01:25:42.949015 26545 net.cpp:137] Memory required for data: 218396920
I1217 01:25:42.949024 26545 layer_factory.hpp:77] Creating layer loc_reg
I1217 01:25:42.949039 26545 net.cpp:84] Creating Layer loc_reg
I1217 01:25:42.949048 26545 net.cpp:406] loc_reg <- loc_ip1
I1217 01:25:42.949059 26545 net.cpp:380] loc_reg -> theta
I1217 01:25:42.949322 26545 net.cpp:122] Setting up loc_reg
I1217 01:25:42.949342 26545 net.cpp:129] Top shape: 10 12 (120)
I1217 01:25:42.949352 26545 net.cpp:137] Memory required for data: 218397400
I1217 01:25:42.949364 26545 layer_factory.hpp:77] Creating layer st_layer
I1217 01:25:42.949378 26545 net.cpp:84] Creating Layer st_layer
I1217 01:25:42.949388 26545 net.cpp:406] st_layer <- data_data_0_split_1
I1217 01:25:42.949399 26545 net.cpp:406] st_layer <- theta
I1217 01:25:42.949409 26545 net.cpp:380] st_layer -> st_output
I1217 01:25:42.953696 26545 net.cpp:122] Setting up st_layer
I1217 01:25:42.953718 26545 net.cpp:129] Top shape: 10 3 10 120 120 (4320000)
I1217 01:25:42.953728 26545 net.cpp:137] Memory required for data: 235677400
I1217 01:25:42.953737 26545 layer_factory.hpp:77] Creating layer conv1
I1217 01:25:42.953752 26545 net.cpp:84] Creating Layer conv1
I1217 01:25:42.953760 26545 net.cpp:406] conv1 <- st_output
I1217 01:25:42.953773 26545 net.cpp:380] conv1 -> conv1
I1217 01:25:42.954156 26545 net.cpp:122] Setting up conv1
I1217 01:25:42.954180 26545 net.cpp:129] Top shape: 10 32 10 120 120 (46080000)
I1217 01:25:42.954206 26545 net.cpp:137] Memory required for data: 419997400
I1217 01:25:42.954226 26545 layer_factory.hpp:77] Creating layer pool1
I1217 01:25:42.954239 26545 net.cpp:84] Creating Layer pool1
I1217 01:25:42.954248 26545 net.cpp:406] pool1 <- conv1
I1217 01:25:42.954258 26545 net.cpp:380] pool1 -> pool1
I1217 01:25:42.954305 26545 net.cpp:122] Setting up pool1
I1217 01:25:42.954322 26545 net.cpp:129] Top shape: 10 32 5 62 62 (6150400)
I1217 01:25:42.954331 26545 net.cpp:137] Memory required for data: 444599000
I1217 01:25:42.954340 26545 layer_factory.hpp:77] Creating layer relu1
I1217 01:25:42.954351 26545 net.cpp:84] Creating Layer relu1
I1217 01:25:42.954360 26545 net.cpp:406] relu1 <- pool1
I1217 01:25:42.954370 26545 net.cpp:367] relu1 -> pool1 (in-place)
I1217 01:25:42.954569 26545 net.cpp:122] Setting up relu1
I1217 01:25:42.954588 26545 net.cpp:129] Top shape: 10 32 5 62 62 (6150400)
I1217 01:25:42.954598 26545 net.cpp:137] Memory required for data: 469200600
I1217 01:25:42.954609 26545 layer_factory.hpp:77] Creating layer conv2
I1217 01:25:42.954627 26545 net.cpp:84] Creating Layer conv2
I1217 01:25:42.954638 26545 net.cpp:406] conv2 <- pool1
I1217 01:25:42.954649 26545 net.cpp:380] conv2 -> conv2
I1217 01:25:42.955754 26545 net.cpp:122] Setting up conv2
I1217 01:25:42.955775 26545 net.cpp:129] Top shape: 10 32 5 62 62 (6150400)
I1217 01:25:42.955783 26545 net.cpp:137] Memory required for data: 493802200
I1217 01:25:42.955796 26545 layer_factory.hpp:77] Creating layer pool2
I1217 01:25:42.955807 26545 net.cpp:84] Creating Layer pool2
I1217 01:25:42.955816 26545 net.cpp:406] pool2 <- conv2
I1217 01:25:42.955828 26545 net.cpp:380] pool2 -> pool2
I1217 01:25:42.955865 26545 net.cpp:122] Setting up pool2
I1217 01:25:42.955878 26545 net.cpp:129] Top shape: 10 32 3 33 33 (1045440)
I1217 01:25:42.955885 26545 net.cpp:137] Memory required for data: 497983960
I1217 01:25:42.955893 26545 layer_factory.hpp:77] Creating layer relu2
I1217 01:25:42.955904 26545 net.cpp:84] Creating Layer relu2
I1217 01:25:42.955912 26545 net.cpp:406] relu2 <- pool2
I1217 01:25:42.955921 26545 net.cpp:367] relu2 -> pool2 (in-place)
I1217 01:25:42.956101 26545 net.cpp:122] Setting up relu2
I1217 01:25:42.956117 26545 net.cpp:129] Top shape: 10 32 3 33 33 (1045440)
I1217 01:25:42.956125 26545 net.cpp:137] Memory required for data: 502165720
I1217 01:25:42.956133 26545 layer_factory.hpp:77] Creating layer ip1
I1217 01:25:42.956152 26545 net.cpp:84] Creating Layer ip1
I1217 01:25:42.956167 26545 net.cpp:406] ip1 <- pool2
I1217 01:25:42.956183 26545 net.cpp:380] ip1 -> ip1
I1217 01:25:42.967847 26545 net.cpp:122] Setting up ip1
I1217 01:25:42.967881 26545 net.cpp:129] Top shape: 10 3 (30)
I1217 01:25:42.967892 26545 net.cpp:137] Memory required for data: 502165840
I1217 01:25:42.967908 26545 layer_factory.hpp:77] Creating layer ip1_ip1_0_split
I1217 01:25:42.967923 26545 net.cpp:84] Creating Layer ip1_ip1_0_split
I1217 01:25:42.967933 26545 net.cpp:406] ip1_ip1_0_split <- ip1
I1217 01:25:42.967945 26545 net.cpp:380] ip1_ip1_0_split -> ip1_ip1_0_split_0
I1217 01:25:42.967959 26545 net.cpp:380] ip1_ip1_0_split -> ip1_ip1_0_split_1
I1217 01:25:42.968004 26545 net.cpp:122] Setting up ip1_ip1_0_split
I1217 01:25:42.968017 26545 net.cpp:129] Top shape: 10 3 (30)
I1217 01:25:42.968027 26545 net.cpp:129] Top shape: 10 3 (30)
I1217 01:25:42.968036 26545 net.cpp:137] Memory required for data: 502166080
I1217 01:25:42.968044 26545 layer_factory.hpp:77] Creating layer accuracy/top1
I1217 01:25:42.968056 26545 net.cpp:84] Creating Layer accuracy/top1
I1217 01:25:42.968065 26545 net.cpp:406] accuracy/top1 <- ip1_ip1_0_split_0
I1217 01:25:42.968075 26545 net.cpp:406] accuracy/top1 <- label_data_1_split_0
I1217 01:25:42.968085 26545 net.cpp:380] accuracy/top1 -> accuracy/top1
…
