…
I1213 13:02:03.512073  2870 net.cpp:51] Initializing net from parameters: 
name: "P3DSTN-IsoGDNet"
state {
  phase: TRAIN
  level: 0
  stage: ""
}
layer {
  name: "data"
  type: "TridimData"
  top: "data"
  top: "label"
  include {
    phase: TRAIN
  }
  transform_param {
    mirror: true
    crop_size: 120
    mean_value: 128
    mean_value: 128
    mean_value: 128
  }
  tridim_data_param {
    source: "/data2/xyyu/datasets/train_4.lst"
    batch_size: 10
    shuffle: false
    new_height: 120
    new_width: 160
    root_folder: ""
    new_length: 10
    show_data: false
    use_image: true
  }
}
layer {
  name: "loc_conv1"
  type: "Convolution"
  bottom: "data"
  top: "loc_conv1"
  param {
    lr_mult: 1
    decay_mult: 1
  }
  convolution_param {
    num_output: 64
    bias_term: false
    pad: 0
    pad: 3
    pad: 3
    kernel_size: 1
    kernel_size: 7
    kernel_size: 7
    stride: 1
    stride: 2
    stride: 2
    weight_filler {
      type: "gaussian"
      std: 0.001
    }
    engine: CAFFE
  }
}
layer {
  name: "loc_bn_conv1"
  type: "BN"
  bottom: "loc_conv1"
  top: "loc_bn_conv1"
  param {
    lr_mult: 1
    decay_mult: 0
  }
  param {
    lr_mult: 1
    decay_mult: 0
  }
  param {
    lr_mult: 0
  }
  param {
    lr_mult: 0
  }
  bn_param {
    slope_filler {
      type: "constant"
      value: 1
    }
    bias_filler {
      type: "constant"
      value: 0
    }
    frozen: false
  }
}
layer {
  name: "loc_conv1_relu"
  type: "ReLU"
  bottom: "loc_bn_conv1"
  top: "loc_bn_conv1"
  relu_param {
    engine: CAFFE
  }
}
layer {
  name: "loc_pool1"
  type: "Pooling3D"
  bottom: "loc_bn_conv1"
  top: "loc_pool1"
  pooling3d_param {
    pool: MAX
    pad: 0
    kernel_size: 3
    stride: 2
    pad_l: 0
    kernel_l: 2
    stride_l: 2
  }
}
layer {
  name: "loc_res2a_branch1"
  type: "Convolution"
  bottom: "loc_pool1"
  top: "loc_res2a_branch1"
  param {
    lr_mult: 1
    decay_mult: 1
  }
  convolution_param {
    num_output: 256
    bias_term: false
    pad: 0
    pad: 0
    pad: 0
    kernel_size: 1
    kernel_size: 1
    kernel_size: 1
    stride: 1
    stride: 1
    stride: 1
    weight_filler {
      type: "gaussian"
      std: 0.001
    }
    engine: CAFFE
  }
}
layer {
  name: "loc_bn2a_branch1"
  type: "BN"
  bottom: "loc_res2a_branch1"
  top: "loc_bn2a_branch1"
  param {
    lr_mult: 1
    decay_mult: 0
  }
  param {
    lr_mult: 1
    decay_mult: 0
  }
  param {
    lr_mult: 0
  }
  param {
    lr_mult: 0
  }
  bn_param {
    slope_filler {
      type: "constant"
      value: 1
    }
    bias_filler {
      type: "constant"
      value: 0
    }
    frozen: true
  }
}
layer {
  name: "loc_res2a_branch2a"
  type: "Convolution"
  bottom: "loc_pool1"
  top: "loc_res2a_branch2a"
  param {
    lr_mult: 1
    decay_mult: 1
  }
  convolution_param {
    num_output: 64
    bias_term: false
    pad: 0
    pad: 0
    pad: 0
    kernel_size: 1
    kernel_size: 1
    kernel_size: 1
    stride: 1
    stride: 1
    stride: 1
    weight_filler {
      type: "gaussian"
      std: 0.001
    }
    engine: CAFFE
  }
}
layer {
  name: "loc_bn2a_branch2a"
  type: "BN"
  bottom: "loc_res2a_branch2a"
  top: "loc_bn2a_branch2a"
  param {
    lr_mult: 1
    decay_mult: 0
  }
  param {
    lr_mult: 1
    decay_mult: 0
  }
  param {
    lr_mult: 0
  }
  param {
    lr_mult: 0
  }
  bn_param {
    slope_filler {
      type: "constant"
      value: 1
    }
    bias_filler {
      type: "constant"
      value: 0
    }
    frozen: true
  }
}
layer {
  name: "loc_res2a_branch2a_relu"
  type: "ReLU"
  bottom: "loc_bn2a_branch2a"
  top: "loc_bn2a_branch2a"
  relu_param {
    engine: CAFFE
  }
}
layer {
  name: "loc_res2a_branch2b"
  type: "Convolution"
  bottom: "loc_bn2a_branch2a"
  top: "loc_res2a_branch2b"
  param {
    lr_mult: 1
    decay_mult: 1
  }
  convolution_param {
    num_output: 64
    bias_term: false
    pad: 0
    pad: 1
    pad: 1
    kernel_size: 1
    kernel_size: 3
    kernel_size: 3
    stride: 1
    stride: 1
    stride: 1
    weight_filler {
      type: "gaussian"
      std: 0.001
    }
    engine: CAFFE
  }
}
layer {
  name: "loc_bn2a_branch2b"
  type: "BN"
  bottom: "loc_res2a_branch2b"
  top: "loc_bn2a_branch2b"
  param {
    lr_mult: 1
    decay_mult: 0
  }
  param {
    lr_mult: 1
    decay_mult: 0
  }
  param {
    lr_mult: 0
  }
  param {
    lr_mult: 0
  }
  bn_param {
    slope_filler {
      type: "constant"
      value: 1
    }
    bias_filler {
      type: "constant"
      value: 0
    }
    frozen: true
  }
}
layer {
  name: "loc_res2a_branch2b_relu"
  type: "ReLU"
  bottom: "loc_bn2a_branch2b"
  top: "loc_bn2a_branch2b"
  relu_param {
    engine: CAFFE
  }
}
layer {
  name: "loc_res2a_branch2b_t"
  type: "Convolution"
  bottom: "loc_bn2a_branch2b"
  top: "loc_res2a_branch2b_t"
  param {
    lr_mult: 1
    decay_mult: 1
  }
  convolution_param {
    num_output: 64
    bias_term: false
    pad: 1
    pad: 0
    pad: 0
    kernel_size: 3
    kernel_size: 1
    kernel_size: 1
    stride: 1
    stride: 1
    stride: 1
    weight_filler {
      type: "gaussian"
      std: 0.001
    }
    engine: CAFFE
  }
}
layer {
  name: "loc_bn2a_branch2b_t"
  type: "BN"
  bottom: "loc_res2a_branch2b_t"
  top: "loc_bn2a_branch2b_t"
  param {
    lr_mult: 1
    decay_mult: 0
  }
  param {
    lr_mult: 1
    decay_mult: 0
  }
  param {
    lr_mult: 0
  }
  param {
    lr_mult: 0
  }
  bn_param {
    slope_filler {
      type: "constant"
      value: 1
    }
    bias_filler {
      type: "constant"
      value: 0
    }
    frozen: true
  }
}
layer {
  name: "loc_res2a_branch2b_t_relu"
  type: "ReLU"
  bottom: "loc_bn2a_branch2b_t"
  top: "loc_bn2a_branch2b_t"
  relu_param {
    engine: CAFFE
  }
}
layer {
  name: "loc_res2a_branch2c"
  type: "Convolution"
  bottom: "loc_bn2a_branch2b_t"
  top: "loc_res2a_branch2c"
  param {
    lr_mult: 1
    decay_mult: 1
  }
  convolution_param {
    num_output: 256
    bias_term: false
    pad: 0
    pad: 0
    pad: 0
    kernel_size: 1
    kernel_size: 1
    kernel_size: 1
    stride: 1
    stride: 1
    stride: 1
    weight_filler {
      type: "gaussian"
      std: 0.001
    }
    engine: CAFFE
  }
}
layer {
  name: "loc_bn2a_branch2c"
  type: "BN"
  bottom: "loc_res2a_branch2c"
  top: "loc_bn2a_branch2c"
  param {
    lr_mult: 1
    decay_mult: 0
  }
  param {
    lr_mult: 1
    decay_mult: 0
  }
  param {
    lr_mult: 0
  }
  param {
    lr_mult: 0
  }
  bn_param {
    slope_filler {
      type: "constant"
      value: 1
    }
    bias_filler {
      type: "constant"
      value: 0
    }
    frozen: true
  }
}
layer {
  name: "loc_res2a"
  type: "Eltwise"
  bottom: "loc_bn2a_branch1"
  bottom: "loc_bn2a_branch2c"
  top: "loc_res2a"
  eltwise_param {
    operation: SUM
  }
}
layer {
  name: "loc_res2a_relu"
  type: "ReLU"
  bottom: "loc_res2a"
  top: "loc_res2a"
  relu_param {
    engine: CAFFE
  }
}
layer {
  name: "loc_pool2"
  type: "Pooling3D"
  bottom: "loc_res2a"
  top: "loc_pool2"
  pooling3d_param {
    pool: MAX
    pad: 0
    kernel_size: 1
    stride: 1
    pad_l: 0
    kernel_l: 2
    stride_l: 2
  }
}
layer {
  name: "loc_ip1"
  type: "InnerProduct"
  bottom: "loc_pool2"
  top: "loc_ip1"
  param {
    lr_mult: 10
    decay_mult: 1
  }
  param {
    lr_mult: 20
    decay_mult: 0
  }
  inner_product_param {
    num_output: 64
    weight_filler {
      type: "gaussian"
      std: 0.001
    }
    bias_filler {
      type: "constant"
      value: 0
    }
  }
}
layer {
  name: "loc_relu1"
  type: "ReLU"
  bottom: "loc_ip1"
  top: "loc_ip1"
}
layer {
  name: "loc_ip2"
  type: "InnerProduct"
  bottom: "loc_ip1"
  top: "theta"
  param {
    lr_mult: 10
    decay_mult: 1
  }
  param {
    lr_mult: 12
    decay_mult: 0
  }
  inner_product_param {
    num_output: 12
    weight_filler {
      type: "constant"
      value: 0
    }
    bias_filler {
      type: "file"
      file: "examples/mnist_tests/bias_init.txt"
    }
  }
}
layer {
  name: "trist_layer"
  type: "TridimSpatialTransformer"
  bottom: "data"
  bottom: "theta"
  top: "trist_output"
}
layer {
  name: "conv1"
  type: "Convolution"
  bottom: "trist_output"
  top: "conv1"
  param {
    lr_mult: 1
    decay_mult: 1
  }
  convolution_param {
    num_output: 64
    bias_term: false
    pad: 0
    pad: 3
    pad: 3
    kernel_size: 1
    kernel_size: 7
    kernel_size: 7
    stride: 1
    stride: 2
    stride: 2
    weight_filler {
      type: "gaussian"
      std: 0.001
    }
    engine: CAFFE
  }
}
layer {
  name: "bn_conv1"
  type: "BN"
  bottom: "conv1"
  top: "bn_conv1"
  param {
    lr_mult: 1
    decay_mult: 0
  }
  param {
    lr_mult: 1
    decay_mult: 0
  }
  param {
    lr_mult: 0
  }
  param {
    lr_mult: 0
  }
  bn_param {
    slope_filler {
      type: "constant"
      value: 1
    }
    bias_filler {
      type: "constant"
      value: 0
    }
    frozen: false
  }
}
layer {
  name: "conv1_relu"
  type: "ReLU"
  bottom: "bn_conv1"
  top: "bn_conv1"
  relu_param {
    engine: CAFFE
  }
}
layer {
  name: "pool1"
  type: "Pooling3D"
  bottom: "bn_conv1"
  top: "pool1"
  pooling3d_param {
    pool: MAX
    pad: 0
    kernel_size: 3
    stride: 2
    pad_l: 0
    kernel_l: 2
    stride_l: 2
  }
}
layer {
  name: "res2a_branch1"
  type: "Convolution"
  bottom: "pool1"
  top: "res2a_branch1"
  param {
    lr_mult: 1
    decay_mult: 1
  }
  convolution_param {
    num_output: 256
    bias_term: false
    pad: 0
    pad: 0
    pad: 0
    kernel_size: 1
    kernel_size: 1
    kernel_size: 1
    stride: 1
    stride: 1
    stride: 1
    weight_filler {
      type: "gaussian"
      std: 0.001
    }
    engine: CAFFE
  }
}
layer {
  name: "bn2a_branch1"
  type: "BN"
  bottom: "res2a_branch1"
  top: "bn2a_branch1"
  param {
    lr_mult: 1
    decay_mult: 0
  }
  param {
    lr_mult: 1
    decay_mult: 0
  }
  param {
    lr_mult: 0
  }
  param {
    lr_mult: 0
  }
  bn_param {
    slope_filler {
      type: "constant"
      value: 1
    }
    bias_filler {
      type: "constant"
      value: 0
    }
    frozen: true
  }
}
layer {
  name: "res2a_branch2a"
  type: "Convolution"
  bottom: "pool1"
  top: "res2a_branch2a"
  param {
    lr_mult: 1
    decay_mult: 1
  }
  convolution_param {
    num_output: 64
    bias_term: false
    pad: 0
    pad: 0
    pad: 0
    kernel_size: 1
    kernel_size: 1
    kernel_size: 1
    stride: 1
    stride: 1
    stride: 1
    weight_filler {
      type: "gaussian"
      std: 0.001
    }
    engine: CAFFE
  }
}
layer {
  name: "bn2a_branch2a"
  type: "BN"
  bottom: "res2a_branch2a"
  top: "bn2a_branch2a"
  param {
    lr_mult: 1
    decay_mult: 0
  }
  param {
    lr_mult: 1
    decay_mult: 0
  }
  param {
    lr_mult: 0
  }
  param {
    lr_mult: 0
  }
  bn_param {
    slope_filler {
      type: "constant"
      value: 1
    }
    bias_filler {
      type: "constant"
      value: 0
    }
    frozen: true
  }
}
layer {
  name: "res2a_branch2a_relu"
  type: "ReLU"
  bottom: "bn2a_branch2a"
  top: "bn2a_branch2a"
  relu_param {
    engine: CAFFE
  }
}
layer {
  name: "res2a_branch2b"
  type: "Convolution"
  bottom: "bn2a_branch2a"
  top: "res2a_branch2b"
  param {
    lr_mult: 1
    decay_mult: 1
  }
  convolution_param {
    num_output: 64
    bias_term: false
    pad: 0
    pad: 1
    pad: 1
    kernel_size: 1
    kernel_size: 3
    kernel_size: 3
    stride: 1
    stride: 1
    stride: 1
    weight_filler {
      type: "gaussian"
      std: 0.001
    }
    engine: CAFFE
  }
}
layer {
  name: "bn2a_branch2b"
  type: "BN"
  bottom: "res2a_branch2b"
  top: "bn2a_branch2b"
  param {
    lr_mult: 1
    decay_mult: 0
  }
  param {
    lr_mult: 1
    decay_mult: 0
  }
  param {
    lr_mult: 0
  }
  param {
    lr_mult: 0
  }
  bn_param {
    slope_filler {
      type: "constant"
      value: 1
    }
    bias_filler {
      type: "constant"
      value: 0
    }
    frozen: true
  }
}
layer {
  name: "res2a_branch2b_relu"
  type: "ReLU"
  bottom: "bn2a_branch2b"
  top: "bn2a_branch2b"
  relu_param {
    engine: CAFFE
  }
}
layer {
  name: "res2a_branch2b_t"
  type: "Convolution"
  bottom: "bn2a_branch2b"
  top: "res2a_branch2b_t"
  param {
    lr_mult: 1
    decay_mult: 1
  }
  convolution_param {
    num_output: 64
    bias_term: false
    pad: 1
    pad: 0
    pad: 0
    kernel_size: 3
    kernel_size: 1
    kernel_size: 1
    stride: 1
    stride: 1
    stride: 1
    weight_filler {
      type: "gaussian"
      std: 0.001
    }
    engine: CAFFE
  }
}
layer {
  name: "bn2a_branch2b_t"
  type: "BN"
  bottom: "res2a_branch2b_t"
  top: "bn2a_branch2b_t"
  param {
    lr_mult: 1
    decay_mult: 0
  }
  param {
    lr_mult: 1
    decay_mult: 0
  }
  param {
    lr_mult: 0
  }
  param {
    lr_mult: 0
  }
  bn_param {
    slope_filler {
      type: "constant"
      value: 1
    }
    bias_filler {
      type: "constant"
      value: 0
    }
    frozen: true
  }
}
layer {
  name: "res2a_branch2b_t_relu"
  type: "ReLU"
  bottom: "bn2a_branch2b_t"
  top: "bn2a_branch2b_t"
  relu_param {
    engine: CAFFE
  }
}
layer {
  name: "res2a_branch2c"
  type: "Convolution"
  bottom: "bn2a_branch2b_t"
  top: "res2a_branch2c"
  param {
    lr_mult: 1
    decay_mult: 1
  }
  convolution_param {
    num_output: 256
    bias_term: false
    pad: 0
    pad: 0
    pad: 0
    kernel_size: 1
    kernel_size: 1
    kernel_size: 1
    stride: 1
    stride: 1
    stride: 1
    weight_filler {
      type: "gaussian"
      std: 0.001
    }
    engine: CAFFE
  }
}
layer {
  name: "bn2a_branch2c"
  type: "BN"
  bottom: "res2a_branch2c"
  top: "bn2a_branch2c"
  param {
    lr_mult: 1
    decay_mult: 0
  }
  param {
    lr_mult: 1
    decay_mult: 0
  }
  param {
    lr_mult: 0
  }
  param {
    lr_mult: 0
  }
  bn_param {
    slope_filler {
      type: "constant"
      value: 1
    }
    bias_filler {
      type: "constant"
      value: 0
    }
    frozen: true
  }
}
layer {
  name: "res2a"
  type: "Eltwise"
  bottom: "bn2a_branch1"
  bottom: "bn2a_branch2c"
  top: "res2a"
  eltwise_param {
    operation: SUM
  }
}
layer {
  name: "res2a_relu"
  type: "ReLU"
  bottom: "res2a"
  top: "res2a"
  relu_param {
    engine: CAFFE
  }
}
layer {
  name: "pool2"
  type: "Pooling3D"
  bottom: "res2a"
  top: "pool2"
  pooling3d_param {
    pool: MAX
    pad: 0
    kernel_size: 1
    stride: 1
    pad_l: 0
    kernel_l: 2
    stride_l: 2
  }
}
layer {
  name: "ip1"
  type: "InnerProduct"
  bottom: "pool2"
  top: "ip1"
  param {
    lr_mult: 10
    decay_mult: 1
  }
  param {
    lr_mult: 20
    decay_mult: 0
  }
  inner_product_param {
    num_output: 3
    weight_filler {
      type: "gaussian"
      std: 0.001
    }
    bias_filler {
      type: "constant"
      value: 0
    }
  }
}
layer {
  name: "loss"
  type: "SoftmaxWithLoss"
  bottom: "ip1"
  bottom: "label"
  top: "loss"
}
I1213 13:02:03.811852  2870 layer_factory.hpp:77] Creating layer data
I1213 13:02:04.541508  2870 net.cpp:84] Creating Layer data
I1213 13:02:05.122892  2870 net.cpp:380] data -> data
I1213 13:02:05.124191  2870 net.cpp:380] data -> label
I1213 13:02:05.124632  2870 tridim_data_layer.cpp:67] Opening file /data2/xyyu/datasets/train_4.lst
I1213 13:02:05.674650  2870 tridim_data_layer.cpp:140] A total of 20698 tridim chunks.
I1213 13:02:06.099910  2870 tridim_data_layer.cpp:182] output data size: 10,3,10,120,120
I1213 13:02:06.244170  2870 net.cpp:122] Setting up data
I1213 13:02:06.244211  2870 net.cpp:129] Top shape: 10 3 10 120 120 (4320000)
I1213 13:02:06.244221  2870 net.cpp:129] Top shape: 10 (10)
I1213 13:02:06.244243  2870 net.cpp:137] Memory required for data: 17280040
I1213 13:02:06.244254  2870 layer_factory.hpp:77] Creating layer data_data_0_split
I1213 13:02:06.347363  2870 net.cpp:84] Creating Layer data_data_0_split
I1213 13:02:06.347431  2870 net.cpp:406] data_data_0_split <- data
I1213 13:02:06.347473  2870 net.cpp:380] data_data_0_split -> data_data_0_split_0
I1213 13:02:06.347508  2870 net.cpp:380] data_data_0_split -> data_data_0_split_1
I1213 13:02:06.347642  2870 net.cpp:122] Setting up data_data_0_split
I1213 13:02:06.347674  2870 net.cpp:129] Top shape: 10 3 10 120 120 (4320000)
I1213 13:02:06.347695  2870 net.cpp:129] Top shape: 10 3 10 120 120 (4320000)
I1213 13:02:06.347713  2870 net.cpp:137] Memory required for data: 51840040
I1213 13:02:06.347730  2870 layer_factory.hpp:77] Creating layer loc_conv1
I1213 13:02:06.347775  2870 net.cpp:84] Creating Layer loc_conv1
I1213 13:02:06.347795  2870 net.cpp:406] loc_conv1 <- data_data_0_split_0
I1213 13:02:06.347815  2870 net.cpp:380] loc_conv1 -> loc_conv1
I1213 13:02:06.384833  2870 net.cpp:122] Setting up loc_conv1
I1213 13:02:06.384871  2870 net.cpp:129] Top shape: 10 64 10 60 60 (23040000)
I1213 13:02:06.384878  2870 net.cpp:137] Memory required for data: 144000040
I1213 13:02:06.384899  2870 layer_factory.hpp:77] Creating layer loc_bn_conv1
I1213 13:02:06.385390  2870 net.cpp:84] Creating Layer loc_bn_conv1
I1213 13:02:06.385404  2870 net.cpp:406] loc_bn_conv1 <- loc_conv1
I1213 13:02:06.385413  2870 net.cpp:380] loc_bn_conv1 -> loc_bn_conv1
I1213 13:02:06.386472  2870 net.cpp:122] Setting up loc_bn_conv1
I1213 13:02:06.386493  2870 net.cpp:129] Top shape: 10 64 10 60 60 (23040000)
I1213 13:02:06.386499  2870 net.cpp:137] Memory required for data: 236160040
I1213 13:02:06.386514  2870 layer_factory.hpp:77] Creating layer loc_conv1_relu
I1213 13:02:06.386528  2870 net.cpp:84] Creating Layer loc_conv1_relu
I1213 13:02:06.386535  2870 net.cpp:406] loc_conv1_relu <- loc_bn_conv1
I1213 13:02:06.386543  2870 net.cpp:367] loc_conv1_relu -> loc_bn_conv1 (in-place)
I1213 13:02:06.386555  2870 net.cpp:122] Setting up loc_conv1_relu
I1213 13:02:06.386562  2870 net.cpp:129] Top shape: 10 64 10 60 60 (23040000)
I1213 13:02:06.386569  2870 net.cpp:137] Memory required for data: 328320040
I1213 13:02:06.386574  2870 layer_factory.hpp:77] Creating layer loc_pool1
I1213 13:02:06.386584  2870 net.cpp:84] Creating Layer loc_pool1
I1213 13:02:06.386592  2870 net.cpp:406] loc_pool1 <- loc_bn_conv1
I1213 13:02:06.386600  2870 net.cpp:380] loc_pool1 -> loc_pool1
I1213 13:02:06.386654  2870 net.cpp:122] Setting up loc_pool1
I1213 13:02:06.386669  2870 net.cpp:129] Top shape: 10 64 5 30 30 (2880000)
I1213 13:02:06.386674  2870 net.cpp:137] Memory required for data: 339840040
I1213 13:02:06.386680  2870 layer_factory.hpp:77] Creating layer loc_pool1_loc_pool1_0_split
I1213 13:02:06.386690  2870 net.cpp:84] Creating Layer loc_pool1_loc_pool1_0_split
I1213 13:02:06.386696  2870 net.cpp:406] loc_pool1_loc_pool1_0_split <- loc_pool1
I1213 13:02:06.386703  2870 net.cpp:380] loc_pool1_loc_pool1_0_split -> loc_pool1_loc_pool1_0_split_0
I1213 13:02:06.386713  2870 net.cpp:380] loc_pool1_loc_pool1_0_split -> loc_pool1_loc_pool1_0_split_1
I1213 13:02:06.386739  2870 net.cpp:122] Setting up loc_pool1_loc_pool1_0_split
I1213 13:02:06.386750  2870 net.cpp:129] Top shape: 10 64 5 30 30 (2880000)
I1213 13:02:06.386757  2870 net.cpp:129] Top shape: 10 64 5 30 30 (2880000)
I1213 13:02:06.386762  2870 net.cpp:137] Memory required for data: 362880040
I1213 13:02:06.386768  2870 layer_factory.hpp:77] Creating layer loc_res2a_branch1
I1213 13:02:06.386780  2870 net.cpp:84] Creating Layer loc_res2a_branch1
I1213 13:02:06.386786  2870 net.cpp:406] loc_res2a_branch1 <- loc_pool1_loc_pool1_0_split_0
I1213 13:02:06.386795  2870 net.cpp:380] loc_res2a_branch1 -> loc_res2a_branch1
I1213 13:02:06.387362  2870 net.cpp:122] Setting up loc_res2a_branch1
I1213 13:02:06.387375  2870 net.cpp:129] Top shape: 10 256 5 30 30 (11520000)
I1213 13:02:06.387382  2870 net.cpp:137] Memory required for data: 408960040
I1213 13:02:06.387409  2870 layer_factory.hpp:77] Creating layer loc_bn2a_branch1
I1213 13:02:06.387420  2870 net.cpp:84] Creating Layer loc_bn2a_branch1
I1213 13:02:06.387428  2870 net.cpp:406] loc_bn2a_branch1 <- loc_res2a_branch1
I1213 13:02:06.387435  2870 net.cpp:380] loc_bn2a_branch1 -> loc_bn2a_branch1
I1213 13:02:06.387583  2870 net.cpp:122] Setting up loc_bn2a_branch1
I1213 13:02:06.387595  2870 net.cpp:129] Top shape: 10 256 5 30 30 (11520000)
I1213 13:02:06.387601  2870 net.cpp:137] Memory required for data: 455040040
I1213 13:02:06.387612  2870 layer_factory.hpp:77] Creating layer loc_res2a_branch2a
I1213 13:02:06.387624  2870 net.cpp:84] Creating Layer loc_res2a_branch2a
I1213 13:02:06.387630  2870 net.cpp:406] loc_res2a_branch2a <- loc_pool1_loc_pool1_0_split_1
I1213 13:02:06.387639  2870 net.cpp:380] loc_res2a_branch2a -> loc_res2a_branch2a
I1213 13:02:06.388634  2870 net.cpp:122] Setting up loc_res2a_branch2a
I1213 13:02:06.388654  2870 net.cpp:129] Top shape: 10 64 5 30 30 (2880000)
I1213 13:02:06.388661  2870 net.cpp:137] Memory required for data: 466560040
I1213 13:02:06.388669  2870 layer_factory.hpp:77] Creating layer loc_bn2a_branch2a
I1213 13:02:06.388679  2870 net.cpp:84] Creating Layer loc_bn2a_branch2a
I1213 13:02:06.388685  2870 net.cpp:406] loc_bn2a_branch2a <- loc_res2a_branch2a
I1213 13:02:06.388692  2870 net.cpp:380] loc_bn2a_branch2a -> loc_bn2a_branch2a
I1213 13:02:06.388859  2870 net.cpp:122] Setting up loc_bn2a_branch2a
I1213 13:02:06.388871  2870 net.cpp:129] Top shape: 10 64 5 30 30 (2880000)
I1213 13:02:06.388876  2870 net.cpp:137] Memory required for data: 478080040
I1213 13:02:06.388886  2870 layer_factory.hpp:77] Creating layer loc_res2a_branch2a_relu
I1213 13:02:06.388895  2870 net.cpp:84] Creating Layer loc_res2a_branch2a_relu
I1213 13:02:06.388900  2870 net.cpp:406] loc_res2a_branch2a_relu <- loc_bn2a_branch2a
I1213 13:02:06.388907  2870 net.cpp:367] loc_res2a_branch2a_relu -> loc_bn2a_branch2a (in-place)
I1213 13:02:06.388916  2870 net.cpp:122] Setting up loc_res2a_branch2a_relu
I1213 13:02:06.388922  2870 net.cpp:129] Top shape: 10 64 5 30 30 (2880000)
I1213 13:02:06.388927  2870 net.cpp:137] Memory required for data: 489600040
I1213 13:02:06.388932  2870 layer_factory.hpp:77] Creating layer loc_res2a_branch2b
I1213 13:02:06.388942  2870 net.cpp:84] Creating Layer loc_res2a_branch2b
I1213 13:02:06.388948  2870 net.cpp:406] loc_res2a_branch2b <- loc_bn2a_branch2a
I1213 13:02:06.388955  2870 net.cpp:380] loc_res2a_branch2b -> loc_res2a_branch2b
I1213 13:02:06.390028  2870 net.cpp:122] Setting up loc_res2a_branch2b
I1213 13:02:06.390039  2870 net.cpp:129] Top shape: 10 64 5 30 30 (2880000)
I1213 13:02:06.390045  2870 net.cpp:137] Memory required for data: 501120040
I1213 13:02:06.390053  2870 layer_factory.hpp:77] Creating layer loc_bn2a_branch2b
I1213 13:02:06.390061  2870 net.cpp:84] Creating Layer loc_bn2a_branch2b
I1213 13:02:06.390067  2870 net.cpp:406] loc_bn2a_branch2b <- loc_res2a_branch2b
I1213 13:02:06.390074  2870 net.cpp:380] loc_bn2a_branch2b -> loc_bn2a_branch2b
I1213 13:02:06.390233  2870 net.cpp:122] Setting up loc_bn2a_branch2b
I1213 13:02:06.390244  2870 net.cpp:129] Top shape: 10 64 5 30 30 (2880000)
I1213 13:02:06.390249  2870 net.cpp:137] Memory required for data: 512640040
I1213 13:02:06.390260  2870 layer_factory.hpp:77] Creating layer loc_res2a_branch2b_relu
I1213 13:02:06.390269  2870 net.cpp:84] Creating Layer loc_res2a_branch2b_relu
I1213 13:02:06.390275  2870 net.cpp:406] loc_res2a_branch2b_relu <- loc_bn2a_branch2b
I1213 13:02:06.390280  2870 net.cpp:367] loc_res2a_branch2b_relu -> loc_bn2a_branch2b (in-place)
I1213 13:02:06.390288  2870 net.cpp:122] Setting up loc_res2a_branch2b_relu
I1213 13:02:06.390295  2870 net.cpp:129] Top shape: 10 64 5 30 30 (2880000)
I1213 13:02:06.390300  2870 net.cpp:137] Memory required for data: 524160040
I1213 13:02:06.390306  2870 layer_factory.hpp:77] Creating layer loc_res2a_branch2b_t
I1213 13:02:06.390314  2870 net.cpp:84] Creating Layer loc_res2a_branch2b_t
I1213 13:02:06.390321  2870 net.cpp:406] loc_res2a_branch2b_t <- loc_bn2a_branch2b
I1213 13:02:06.390338  2870 net.cpp:380] loc_res2a_branch2b_t -> loc_res2a_branch2b_t
I1213 13:02:06.390787  2870 net.cpp:122] Setting up loc_res2a_branch2b_t
I1213 13:02:06.390799  2870 net.cpp:129] Top shape: 10 64 5 30 30 (2880000)
I1213 13:02:06.390805  2870 net.cpp:137] Memory required for data: 535680040
I1213 13:02:06.390811  2870 layer_factory.hpp:77] Creating layer loc_bn2a_branch2b_t
I1213 13:02:06.390820  2870 net.cpp:84] Creating Layer loc_bn2a_branch2b_t
I1213 13:02:06.390826  2870 net.cpp:406] loc_bn2a_branch2b_t <- loc_res2a_branch2b_t
I1213 13:02:06.390835  2870 net.cpp:380] loc_bn2a_branch2b_t -> loc_bn2a_branch2b_t
I1213 13:02:06.391000  2870 net.cpp:122] Setting up loc_bn2a_branch2b_t
I1213 13:02:06.391012  2870 net.cpp:129] Top shape: 10 64 5 30 30 (2880000)
I1213 13:02:06.391017  2870 net.cpp:137] Memory required for data: 547200040
I1213 13:02:06.391026  2870 layer_factory.hpp:77] Creating layer loc_res2a_branch2b_t_relu
I1213 13:02:06.391034  2870 net.cpp:84] Creating Layer loc_res2a_branch2b_t_relu
I1213 13:02:06.391041  2870 net.cpp:406] loc_res2a_branch2b_t_relu <- loc_bn2a_branch2b_t
I1213 13:02:06.391047  2870 net.cpp:367] loc_res2a_branch2b_t_relu -> loc_bn2a_branch2b_t (in-place)
I1213 13:02:06.391054  2870 net.cpp:122] Setting up loc_res2a_branch2b_t_relu
I1213 13:02:06.391062  2870 net.cpp:129] Top shape: 10 64 5 30 30 (2880000)
I1213 13:02:06.391067  2870 net.cpp:137] Memory required for data: 558720040
I1213 13:02:06.391072  2870 layer_factory.hpp:77] Creating layer loc_res2a_branch2c
I1213 13:02:06.391082  2870 net.cpp:84] Creating Layer loc_res2a_branch2c
I1213 13:02:06.391086  2870 net.cpp:406] loc_res2a_branch2c <- loc_bn2a_branch2b_t
I1213 13:02:06.391093  2870 net.cpp:380] loc_res2a_branch2c -> loc_res2a_branch2c
I1213 13:02:06.391685  2870 net.cpp:122] Setting up loc_res2a_branch2c
I1213 13:02:06.391705  2870 net.cpp:129] Top shape: 10 256 5 30 30 (11520000)
I1213 13:02:06.391715  2870 net.cpp:137] Memory required for data: 604800040
I1213 13:02:06.391726  2870 layer_factory.hpp:77] Creating layer loc_bn2a_branch2c
I1213 13:02:06.391741  2870 net.cpp:84] Creating Layer loc_bn2a_branch2c
I1213 13:02:06.391750  2870 net.cpp:406] loc_bn2a_branch2c <- loc_res2a_branch2c
I1213 13:02:06.391774  2870 net.cpp:380] loc_bn2a_branch2c -> loc_bn2a_branch2c
I1213 13:02:06.391985  2870 net.cpp:122] Setting up loc_bn2a_branch2c
I1213 13:02:06.392002  2870 net.cpp:129] Top shape: 10 256 5 30 30 (11520000)
I1213 13:02:06.392012  2870 net.cpp:137] Memory required for data: 650880040
I1213 13:02:06.392027  2870 layer_factory.hpp:77] Creating layer loc_res2a
I1213 13:02:06.392045  2870 net.cpp:84] Creating Layer loc_res2a
I1213 13:02:06.392055  2870 net.cpp:406] loc_res2a <- loc_bn2a_branch1
I1213 13:02:06.392066  2870 net.cpp:406] loc_res2a <- loc_bn2a_branch2c
I1213 13:02:06.392076  2870 net.cpp:380] loc_res2a -> loc_res2a
I1213 13:02:06.392112  2870 net.cpp:122] Setting up loc_res2a
I1213 13:02:06.392125  2870 net.cpp:129] Top shape: 10 256 5 30 30 (11520000)
I1213 13:02:06.392134  2870 net.cpp:137] Memory required for data: 696960040
I1213 13:02:06.392143  2870 layer_factory.hpp:77] Creating layer loc_res2a_relu
I1213 13:02:06.392155  2870 net.cpp:84] Creating Layer loc_res2a_relu
I1213 13:02:06.392164  2870 net.cpp:406] loc_res2a_relu <- loc_res2a
I1213 13:02:06.392176  2870 net.cpp:367] loc_res2a_relu -> loc_res2a (in-place)
I1213 13:02:06.392187  2870 net.cpp:122] Setting up loc_res2a_relu
I1213 13:02:06.392199  2870 net.cpp:129] Top shape: 10 256 5 30 30 (11520000)
I1213 13:02:06.392208  2870 net.cpp:137] Memory required for data: 743040040
I1213 13:02:06.392221  2870 layer_factory.hpp:77] Creating layer loc_pool2
I1213 13:02:06.392233  2870 net.cpp:84] Creating Layer loc_pool2
I1213 13:02:06.392242  2870 net.cpp:406] loc_pool2 <- loc_res2a
I1213 13:02:06.392252  2870 net.cpp:380] loc_pool2 -> loc_pool2
I1213 13:02:06.392292  2870 net.cpp:122] Setting up loc_pool2
I1213 13:02:06.392307  2870 net.cpp:129] Top shape: 10 256 3 30 30 (6912000)
I1213 13:02:06.392328  2870 net.cpp:137] Memory required for data: 770688040
I1213 13:02:06.392338  2870 layer_factory.hpp:77] Creating layer loc_ip1
I1213 13:02:06.392359  2870 net.cpp:84] Creating Layer loc_ip1
I1213 13:02:06.392369  2870 net.cpp:406] loc_ip1 <- loc_pool2
I1213 13:02:06.392381  2870 net.cpp:380] loc_ip1 -> loc_ip1
I1213 13:02:07.551787  2870 net.cpp:122] Setting up loc_ip1
I1213 13:02:07.551825  2870 net.cpp:129] Top shape: 10 64 (640)
I1213 13:02:07.551831  2870 net.cpp:137] Memory required for data: 770690600
I1213 13:02:07.551842  2870 layer_factory.hpp:77] Creating layer loc_relu1
I1213 13:02:07.551854  2870 net.cpp:84] Creating Layer loc_relu1
I1213 13:02:07.551862  2870 net.cpp:406] loc_relu1 <- loc_ip1
I1213 13:02:07.551870  2870 net.cpp:367] loc_relu1 -> loc_ip1 (in-place)
I1213 13:02:09.341223  2870 net.cpp:122] Setting up loc_relu1
I1213 13:02:09.341368  2870 net.cpp:129] Top shape: 10 64 (640)
I1213 13:02:09.341431  2870 net.cpp:137] Memory required for data: 770693160
I1213 13:02:09.341492  2870 layer_factory.hpp:77] Creating layer loc_ip2
I1213 13:02:09.341562  2870 net.cpp:84] Creating Layer loc_ip2
I1213 13:02:09.341627  2870 net.cpp:406] loc_ip2 <- loc_ip1
I1213 13:02:09.341693  2870 net.cpp:380] loc_ip2 -> theta
I1213 13:02:09.526882  2870 net.cpp:122] Setting up loc_ip2
I1213 13:02:09.526919  2870 net.cpp:129] Top shape: 10 12 (120)
I1213 13:02:09.526927  2870 net.cpp:137] Memory required for data: 770693640
I1213 13:02:09.526944  2870 layer_factory.hpp:77] Creating layer trist_layer
I1213 13:02:09.526963  2870 net.cpp:84] Creating Layer trist_layer
I1213 13:02:09.526973  2870 net.cpp:406] trist_layer <- data_data_0_split_1
I1213 13:02:09.526981  2870 net.cpp:406] trist_layer <- theta
I1213 13:02:09.526988  2870 net.cpp:380] trist_layer -> trist_output
I1213 13:02:09.530995  2870 net.cpp:122] Setting up trist_layer
I1213 13:02:09.531010  2870 net.cpp:129] Top shape: 10 3 10 120 120 (4320000)
I1213 13:02:09.531016  2870 net.cpp:137] Memory required for data: 787973640
I1213 13:02:09.531023  2870 layer_factory.hpp:77] Creating layer conv1
I1213 13:02:09.531036  2870 net.cpp:84] Creating Layer conv1
I1213 13:02:09.531042  2870 net.cpp:406] conv1 <- trist_output
I1213 13:02:09.531051  2870 net.cpp:380] conv1 -> conv1
I1213 13:02:09.531430  2870 net.cpp:122] Setting up conv1
I1213 13:02:09.531446  2870 net.cpp:129] Top shape: 10 64 10 60 60 (23040000)
I1213 13:02:09.531452  2870 net.cpp:137] Memory required for data: 880133640
I1213 13:02:09.531460  2870 layer_factory.hpp:77] Creating layer bn_conv1
I1213 13:02:09.531468  2870 net.cpp:84] Creating Layer bn_conv1
I1213 13:02:09.531474  2870 net.cpp:406] bn_conv1 <- conv1
I1213 13:02:09.531486  2870 net.cpp:380] bn_conv1 -> bn_conv1
I1213 13:02:09.531685  2870 net.cpp:122] Setting up bn_conv1
I1213 13:02:09.531699  2870 net.cpp:129] Top shape: 10 64 10 60 60 (23040000)
I1213 13:02:09.531707  2870 net.cpp:137] Memory required for data: 972293640
I1213 13:02:09.531715  2870 layer_factory.hpp:77] Creating layer conv1_relu
I1213 13:02:09.531724  2870 net.cpp:84] Creating Layer conv1_relu
I1213 13:02:09.531730  2870 net.cpp:406] conv1_relu <- bn_conv1
I1213 13:02:09.531738  2870 net.cpp:367] conv1_relu -> bn_conv1 (in-place)
I1213 13:02:09.531745  2870 net.cpp:122] Setting up conv1_relu
I1213 13:02:09.531751  2870 net.cpp:129] Top shape: 10 64 10 60 60 (23040000)
I1213 13:02:09.531757  2870 net.cpp:137] Memory required for data: 1064453640
I1213 13:02:09.531762  2870 layer_factory.hpp:77] Creating layer pool1
I1213 13:02:09.531770  2870 net.cpp:84] Creating Layer pool1
I1213 13:02:09.531776  2870 net.cpp:406] pool1 <- bn_conv1
I1213 13:02:09.531783  2870 net.cpp:380] pool1 -> pool1
I1213 13:02:09.531814  2870 net.cpp:122] Setting up pool1
I1213 13:02:09.531824  2870 net.cpp:129] Top shape: 10 64 5 30 30 (2880000)
I1213 13:02:09.531831  2870 net.cpp:137] Memory required for data: 1075973640
I1213 13:02:09.531836  2870 layer_factory.hpp:77] Creating layer pool1_pool1_0_split
I1213 13:02:09.531844  2870 net.cpp:84] Creating Layer pool1_pool1_0_split
I1213 13:02:09.531868  2870 net.cpp:406] pool1_pool1_0_split <- pool1
I1213 13:02:09.531877  2870 net.cpp:380] pool1_pool1_0_split -> pool1_pool1_0_split_0
I1213 13:02:09.531885  2870 net.cpp:380] pool1_pool1_0_split -> pool1_pool1_0_split_1
I1213 13:02:09.531915  2870 net.cpp:122] Setting up pool1_pool1_0_split
I1213 13:02:09.531925  2870 net.cpp:129] Top shape: 10 64 5 30 30 (2880000)
I1213 13:02:09.531931  2870 net.cpp:129] Top shape: 10 64 5 30 30 (2880000)
I1213 13:02:09.531937  2870 net.cpp:137] Memory required for data: 1099013640
I1213 13:02:09.531942  2870 layer_factory.hpp:77] Creating layer res2a_branch1
I1213 13:02:09.531955  2870 net.cpp:84] Creating Layer res2a_branch1
I1213 13:02:09.531960  2870 net.cpp:406] res2a_branch1 <- pool1_pool1_0_split_0
I1213 13:02:09.531967  2870 net.cpp:380] res2a_branch1 -> res2a_branch1
I1213 13:02:09.532490  2870 net.cpp:122] Setting up res2a_branch1
I1213 13:02:09.532500  2870 net.cpp:129] Top shape: 10 256 5 30 30 (11520000)
I1213 13:02:09.532506  2870 net.cpp:137] Memory required for data: 1145093640
I1213 13:02:09.532512  2870 layer_factory.hpp:77] Creating layer bn2a_branch1
I1213 13:02:09.532521  2870 net.cpp:84] Creating Layer bn2a_branch1
I1213 13:02:09.532526  2870 net.cpp:406] bn2a_branch1 <- res2a_branch1
I1213 13:02:09.532533  2870 net.cpp:380] bn2a_branch1 -> bn2a_branch1
I1213 13:02:09.532681  2870 net.cpp:122] Setting up bn2a_branch1
I1213 13:02:09.532691  2870 net.cpp:129] Top shape: 10 256 5 30 30 (11520000)
I1213 13:02:09.532696  2870 net.cpp:137] Memory required for data: 1191173640
I1213 13:02:09.532704  2870 layer_factory.hpp:77] Creating layer res2a_branch2a
I1213 13:02:09.532714  2870 net.cpp:84] Creating Layer res2a_branch2a
I1213 13:02:09.532721  2870 net.cpp:406] res2a_branch2a <- pool1_pool1_0_split_1
I1213 13:02:09.532727  2870 net.cpp:380] res2a_branch2a -> res2a_branch2a
I1213 13:02:09.532953  2870 net.cpp:122] Setting up res2a_branch2a
I1213 13:02:09.532963  2870 net.cpp:129] Top shape: 10 64 5 30 30 (2880000)
I1213 13:02:09.532969  2870 net.cpp:137] Memory required for data: 1202693640
I1213 13:02:09.532975  2870 layer_factory.hpp:77] Creating layer bn2a_branch2a
I1213 13:02:09.532984  2870 net.cpp:84] Creating Layer bn2a_branch2a
I1213 13:02:09.532989  2870 net.cpp:406] bn2a_branch2a <- res2a_branch2a
I1213 13:02:09.532996  2870 net.cpp:380] bn2a_branch2a -> bn2a_branch2a
I1213 13:02:09.533159  2870 net.cpp:122] Setting up bn2a_branch2a
I1213 13:02:09.533169  2870 net.cpp:129] Top shape: 10 64 5 30 30 (2880000)
I1213 13:02:09.533174  2870 net.cpp:137] Memory required for data: 1214213640
I1213 13:02:09.533182  2870 layer_factory.hpp:77] Creating layer res2a_branch2a_relu
I1213 13:02:09.533190  2870 net.cpp:84] Creating Layer res2a_branch2a_relu
I1213 13:02:09.533195  2870 net.cpp:406] res2a_branch2a_relu <- bn2a_branch2a
I1213 13:02:09.533202  2870 net.cpp:367] res2a_branch2a_relu -> bn2a_branch2a (in-place)
I1213 13:02:09.533210  2870 net.cpp:122] Setting up res2a_branch2a_relu
I1213 13:02:09.533216  2870 net.cpp:129] Top shape: 10 64 5 30 30 (2880000)
I1213 13:02:09.533221  2870 net.cpp:137] Memory required for data: 1225733640
I1213 13:02:09.533226  2870 layer_factory.hpp:77] Creating layer res2a_branch2b
I1213 13:02:09.533234  2870 net.cpp:84] Creating Layer res2a_branch2b
I1213 13:02:09.533241  2870 net.cpp:406] res2a_branch2b <- bn2a_branch2a
I1213 13:02:09.533247  2870 net.cpp:380] res2a_branch2b -> res2a_branch2b
I1213 13:02:09.534258  2870 net.cpp:122] Setting up res2a_branch2b
I1213 13:02:09.534268  2870 net.cpp:129] Top shape: 10 64 5 30 30 (2880000)
I1213 13:02:09.534274  2870 net.cpp:137] Memory required for data: 1237253640
I1213 13:02:09.534281  2870 layer_factory.hpp:77] Creating layer bn2a_branch2b
I1213 13:02:09.534289  2870 net.cpp:84] Creating Layer bn2a_branch2b
I1213 13:02:09.534294  2870 net.cpp:406] bn2a_branch2b <- res2a_branch2b
I1213 13:02:09.534301  2870 net.cpp:380] bn2a_branch2b -> bn2a_branch2b
I1213 13:02:09.534463  2870 net.cpp:122] Setting up bn2a_branch2b
I1213 13:02:09.534472  2870 net.cpp:129] Top shape: 10 64 5 30 30 (2880000)
I1213 13:02:09.534487  2870 net.cpp:137] Memory required for data: 1248773640
I1213 13:02:09.534495  2870 layer_factory.hpp:77] Creating layer res2a_branch2b_relu
I1213 13:02:09.534503  2870 net.cpp:84] Creating Layer res2a_branch2b_relu
I1213 13:02:09.534509  2870 net.cpp:406] res2a_branch2b_relu <- bn2a_branch2b
I1213 13:02:09.534517  2870 net.cpp:367] res2a_branch2b_relu -> bn2a_branch2b (in-place)
I1213 13:02:09.534523  2870 net.cpp:122] Setting up res2a_branch2b_relu
I1213 13:02:09.534529  2870 net.cpp:129] Top shape: 10 64 5 30 30 (2880000)
I1213 13:02:09.534534  2870 net.cpp:137] Memory required for data: 1260293640
I1213 13:02:09.534539  2870 layer_factory.hpp:77] Creating layer res2a_branch2b_t
I1213 13:02:09.534548  2870 net.cpp:84] Creating Layer res2a_branch2b_t
I1213 13:02:09.534554  2870 net.cpp:406] res2a_branch2b_t <- bn2a_branch2b
I1213 13:02:09.534560  2870 net.cpp:380] res2a_branch2b_t -> res2a_branch2b_t
I1213 13:02:09.534998  2870 net.cpp:122] Setting up res2a_branch2b_t
I1213 13:02:09.535009  2870 net.cpp:129] Top shape: 10 64 5 30 30 (2880000)
I1213 13:02:09.535015  2870 net.cpp:137] Memory required for data: 1271813640
I1213 13:02:09.535022  2870 layer_factory.hpp:77] Creating layer bn2a_branch2b_t
I1213 13:02:09.535029  2870 net.cpp:84] Creating Layer bn2a_branch2b_t
I1213 13:02:09.535034  2870 net.cpp:406] bn2a_branch2b_t <- res2a_branch2b_t
I1213 13:02:09.535042  2870 net.cpp:380] bn2a_branch2b_t -> bn2a_branch2b_t
I1213 13:02:09.535202  2870 net.cpp:122] Setting up bn2a_branch2b_t
I1213 13:02:09.535212  2870 net.cpp:129] Top shape: 10 64 5 30 30 (2880000)
I1213 13:02:09.535217  2870 net.cpp:137] Memory required for data: 1283333640
I1213 13:02:09.535224  2870 layer_factory.hpp:77] Creating layer res2a_branch2b_t_relu
I1213 13:02:09.535233  2870 net.cpp:84] Creating Layer res2a_branch2b_t_relu
I1213 13:02:09.535238  2870 net.cpp:406] res2a_branch2b_t_relu <- bn2a_branch2b_t
I1213 13:02:09.535244  2870 net.cpp:367] res2a_branch2b_t_relu -> bn2a_branch2b_t (in-place)
I1213 13:02:09.535251  2870 net.cpp:122] Setting up res2a_branch2b_t_relu
I1213 13:02:09.535257  2870 net.cpp:129] Top shape: 10 64 5 30 30 (2880000)
I1213 13:02:09.535262  2870 net.cpp:137] Memory required for data: 1294853640
I1213 13:02:09.535267  2870 layer_factory.hpp:77] Creating layer res2a_branch2c
I1213 13:02:09.535276  2870 net.cpp:84] Creating Layer res2a_branch2c
I1213 13:02:09.535281  2870 net.cpp:406] res2a_branch2c <- bn2a_branch2b_t
I1213 13:02:09.535289  2870 net.cpp:380] res2a_branch2c -> res2a_branch2c
I1213 13:02:09.535812  2870 net.cpp:122] Setting up res2a_branch2c
I1213 13:02:09.535822  2870 net.cpp:129] Top shape: 10 256 5 30 30 (11520000)
I1213 13:02:09.535828  2870 net.cpp:137] Memory required for data: 1340933640
I1213 13:02:09.535835  2870 layer_factory.hpp:77] Creating layer bn2a_branch2c
I1213 13:02:09.535842  2870 net.cpp:84] Creating Layer bn2a_branch2c
I1213 13:02:09.535847  2870 net.cpp:406] bn2a_branch2c <- res2a_branch2c
I1213 13:02:09.535854  2870 net.cpp:380] bn2a_branch2c -> bn2a_branch2c
I1213 13:02:09.536002  2870 net.cpp:122] Setting up bn2a_branch2c
I1213 13:02:09.536011  2870 net.cpp:129] Top shape: 10 256 5 30 30 (11520000)
I1213 13:02:09.536017  2870 net.cpp:137] Memory required for data: 1387013640
I1213 13:02:09.536026  2870 layer_factory.hpp:77] Creating layer res2a
I1213 13:02:09.536033  2870 net.cpp:84] Creating Layer res2a
I1213 13:02:09.536039  2870 net.cpp:406] res2a <- bn2a_branch1
I1213 13:02:09.536046  2870 net.cpp:406] res2a <- bn2a_branch2c
I1213 13:02:09.536051  2870 net.cpp:380] res2a -> res2a
I1213 13:02:09.536072  2870 net.cpp:122] Setting up res2a
I1213 13:02:09.536082  2870 net.cpp:129] Top shape: 10 256 5 30 30 (11520000)
I1213 13:02:09.536087  2870 net.cpp:137] Memory required for data: 1433093640
I1213 13:02:09.536092  2870 layer_factory.hpp:77] Creating layer res2a_relu
I1213 13:02:09.536098  2870 net.cpp:84] Creating Layer res2a_relu
I1213 13:02:09.536103  2870 net.cpp:406] res2a_relu <- res2a
I1213 13:02:09.536110  2870 net.cpp:367] res2a_relu -> res2a (in-place)
I1213 13:02:09.536126  2870 net.cpp:122] Setting up res2a_relu
I1213 13:02:09.536134  2870 net.cpp:129] Top shape: 10 256 5 30 30 (11520000)
I1213 13:02:09.536139  2870 net.cpp:137] Memory required for data: 1479173640
I1213 13:02:09.536144  2870 layer_factory.hpp:77] Creating layer pool2
I1213 13:02:09.536151  2870 net.cpp:84] Creating Layer pool2
I1213 13:02:09.536156  2870 net.cpp:406] pool2 <- res2a
I1213 13:02:09.536164  2870 net.cpp:380] pool2 -> pool2
I1213 13:02:09.536193  2870 net.cpp:122] Setting up pool2
I1213 13:02:09.536202  2870 net.cpp:129] Top shape: 10 256 3 30 30 (6912000)
I1213 13:02:09.536207  2870 net.cpp:137] Memory required for data: 1506821640
I1213 13:02:09.536212  2870 layer_factory.hpp:77] Creating layer ip1
I1213 13:02:09.536221  2870 net.cpp:84] Creating Layer ip1
I1213 13:02:09.536226  2870 net.cpp:406] ip1 <- pool2
I1213 13:02:09.536233  2870 net.cpp:380] ip1 -> ip1
I1213 13:02:09.589942  2870 net.cpp:122] Setting up ip1
I1213 13:02:09.589979  2870 net.cpp:129] Top shape: 10 3 (30)
I1213 13:02:09.589987  2870 net.cpp:137] Memory required for data: 1506821760
I1213 13:02:09.590008  2870 layer_factory.hpp:77] Creating layer loss
I1213 13:02:10.088829  2870 net.cpp:84] Creating Layer loss
I1213 13:02:10.088871  2870 net.cpp:406] loss <- ip1
I1213 13:02:10.088883  2870 net.cpp:406] loss <- label
I1213 13:02:10.088893  2870 net.cpp:380] loss -> loss
I1213 13:02:10.088913  2870 layer_factory.hpp:77] Creating layer loss
…
I1213 13:02:11.449368  2870 net.cpp:51] Initializing net from parameters: 
name: "P3DSTN-IsoGDNet"
state {
  phase: TEST
}
layer {
  name: "data"
  type: "TridimData"
  top: "data"
  top: "label"
  include {
    phase: TEST
  }
  transform_param {
    mirror: false
    crop_size: 120
    mean_value: 128
    mean_value: 128
    mean_value: 128
  }
  tridim_data_param {
    source: "/data2/xyyu/datasets/train_4.lst"
    batch_size: 10
    shuffle: false
    new_height: 120
    new_width: 160
    root_folder: ""
    new_length: 10
    show_data: false
    use_image: true
  }
}
layer {
  name: "loc_conv1"
  type: "Convolution"
  bottom: "data"
  top: "loc_conv1"
  param {
    lr_mult: 1
    decay_mult: 1
  }
  convolution_param {
    num_output: 64
    bias_term: false
    pad: 0
    pad: 3
    pad: 3
    kernel_size: 1
    kernel_size: 7
    kernel_size: 7
    stride: 1
    stride: 2
    stride: 2
    weight_filler {
      type: "gaussian"
      std: 0.001
    }
    engine: CAFFE
  }
}
layer {
  name: "loc_bn_conv1"
  type: "BN"
  bottom: "loc_conv1"
  top: "loc_bn_conv1"
  param {
    lr_mult: 1
    decay_mult: 0
  }
  param {
    lr_mult: 1
    decay_mult: 0
  }
  param {
    lr_mult: 0
  }
  param {
    lr_mult: 0
  }
  bn_param {
    slope_filler {
      type: "constant"
      value: 1
    }
    bias_filler {
      type: "constant"
      value: 0
    }
    frozen: false
  }
}
layer {
  name: "loc_conv1_relu"
  type: "ReLU"
  bottom: "loc_bn_conv1"
  top: "loc_bn_conv1"
  relu_param {
    engine: CAFFE
  }
}
layer {
  name: "loc_pool1"
  type: "Pooling3D"
  bottom: "loc_bn_conv1"
  top: "loc_pool1"
  pooling3d_param {
    pool: MAX
    pad: 0
    kernel_size: 3
    stride: 2
    pad_l: 0
    kernel_l: 2
    stride_l: 2
  }
}
layer {
  name: "loc_res2a_branch1"
  type: "Convolution"
  bottom: "loc_pool1"
  top: "loc_res2a_branch1"
  param {
    lr_mult: 1
    decay_mult: 1
  }
  convolution_param {
    num_output: 256
    bias_term: false
    pad: 0
    pad: 0
    pad: 0
    kernel_size: 1
    kernel_size: 1
    kernel_size: 1
    stride: 1
    stride: 1
    stride: 1
    weight_filler {
      type: "gaussian"
      std: 0.001
    }
    engine: CAFFE
  }
}
layer {
  name: "loc_bn2a_branch1"
  type: "BN"
  bottom: "loc_res2a_branch1"
  top: "loc_bn2a_branch1"
  param {
    lr_mult: 1
    decay_mult: 0
  }
  param {
    lr_mult: 1
    decay_mult: 0
  }
  param {
    lr_mult: 0
  }
  param {
    lr_mult: 0
  }
  bn_param {
    slope_filler {
      type: "constant"
      value: 1
    }
    bias_filler {
      type: "constant"
      value: 0
    }
    frozen: true
  }
}
layer {
  name: "loc_res2a_branch2a"
  type: "Convolution"
  bottom: "loc_pool1"
  top: "loc_res2a_branch2a"
  param {
    lr_mult: 1
    decay_mult: 1
  }
  convolution_param {
    num_output: 64
    bias_term: false
    pad: 0
    pad: 0
    pad: 0
    kernel_size: 1
    kernel_size: 1
    kernel_size: 1
    stride: 1
    stride: 1
    stride: 1
    weight_filler {
      type: "gaussian"
      std: 0.001
    }
    engine: CAFFE
  }
}
layer {
  name: "loc_bn2a_branch2a"
  type: "BN"
  bottom: "loc_res2a_branch2a"
  top: "loc_bn2a_branch2a"
  param {
    lr_mult: 1
    decay_mult: 0
  }
  param {
    lr_mult: 1
    decay_mult: 0
  }
  param {
    lr_mult: 0
  }
  param {
    lr_mult: 0
  }
  bn_param {
    slope_filler {
      type: "constant"
      value: 1
    }
    bias_filler {
      type: "constant"
      value: 0
    }
    frozen: true
  }
}
layer {
  name: "loc_res2a_branch2a_relu"
  type: "ReLU"
  bottom: "loc_bn2a_branch2a"
  top: "loc_bn2a_branch2a"
  relu_param {
    engine: CAFFE
  }
}
layer {
  name: "loc_res2a_branch2b"
  type: "Convolution"
  bottom: "loc_bn2a_branch2a"
  top: "loc_res2a_branch2b"
  param {
    lr_mult: 1
    decay_mult: 1
  }
  convolution_param {
    num_output: 64
    bias_term: false
    pad: 0
    pad: 1
    pad: 1
    kernel_size: 1
    kernel_size: 3
    kernel_size: 3
    stride: 1
    stride: 1
    stride: 1
    weight_filler {
      type: "gaussian"
      std: 0.001
    }
    engine: CAFFE
  }
}
layer {
  name: "loc_bn2a_branch2b"
  type: "BN"
  bottom: "loc_res2a_branch2b"
  top: "loc_bn2a_branch2b"
  param {
    lr_mult: 1
    decay_mult: 0
  }
  param {
    lr_mult: 1
    decay_mult: 0
  }
  param {
    lr_mult: 0
  }
  param {
    lr_mult: 0
  }
  bn_param {
    slope_filler {
      type: "constant"
      value: 1
    }
    bias_filler {
      type: "constant"
      value: 0
    }
    frozen: true
  }
}
layer {
  name: "loc_res2a_branch2b_relu"
  type: "ReLU"
  bottom: "loc_bn2a_branch2b"
  top: "loc_bn2a_branch2b"
  relu_param {
    engine: CAFFE
  }
}
layer {
  name: "loc_res2a_branch2b_t"
  type: "Convolution"
  bottom: "loc_bn2a_branch2b"
  top: "loc_res2a_branch2b_t"
  param {
    lr_mult: 1
    decay_mult: 1
  }
  convolution_param {
    num_output: 64
    bias_term: false
    pad: 1
    pad: 0
    pad: 0
    kernel_size: 3
    kernel_size: 1
    kernel_size: 1
    stride: 1
    stride: 1
    stride: 1
    weight_filler {
      type: "gaussian"
      std: 0.001
    }
    engine: CAFFE
  }
}
layer {
  name: "loc_bn2a_branch2b_t"
  type: "BN"
  bottom: "loc_res2a_branch2b_t"
  top: "loc_bn2a_branch2b_t"
  param {
    lr_mult: 1
    decay_mult: 0
  }
  param {
    lr_mult: 1
    decay_mult: 0
  }
  param {
    lr_mult: 0
  }
  param {
    lr_mult: 0
  }
  bn_param {
    slope_filler {
      type: "constant"
      value: 1
    }
    bias_filler {
      type: "constant"
      value: 0
    }
    frozen: true
  }
}
layer {
  name: "loc_res2a_branch2b_t_relu"
  type: "ReLU"
  bottom: "loc_bn2a_branch2b_t"
  top: "loc_bn2a_branch2b_t"
  relu_param {
    engine: CAFFE
  }
}
layer {
  name: "loc_res2a_branch2c"
  type: "Convolution"
  bottom: "loc_bn2a_branch2b_t"
  top: "loc_res2a_branch2c"
  param {
    lr_mult: 1
    decay_mult: 1
  }
  convolution_param {
    num_output: 256
    bias_term: false
    pad: 0
    pad: 0
    pad: 0
    kernel_size: 1
    kernel_size: 1
    kernel_size: 1
    stride: 1
    stride: 1
    stride: 1
    weight_filler {
      type: "gaussian"
      std: 0.001
    }
    engine: CAFFE
  }
}
layer {
  name: "loc_bn2a_branch2c"
  type: "BN"
  bottom: "loc_res2a_branch2c"
  top: "loc_bn2a_branch2c"
  param {
    lr_mult: 1
    decay_mult: 0
  }
  param {
    lr_mult: 1
    decay_mult: 0
  }
  param {
    lr_mult: 0
  }
  param {
    lr_mult: 0
  }
  bn_param {
    slope_filler {
      type: "constant"
      value: 1
    }
    bias_filler {
      type: "constant"
      value: 0
    }
    frozen: true
  }
}
layer {
  name: "loc_res2a"
  type: "Eltwise"
  bottom: "loc_bn2a_branch1"
  bottom: "loc_bn2a_branch2c"
  top: "loc_res2a"
  eltwise_param {
    operation: SUM
  }
}
layer {
  name: "loc_res2a_relu"
  type: "ReLU"
  bottom: "loc_res2a"
  top: "loc_res2a"
  relu_param {
    engine: CAFFE
  }
}
layer {
  name: "loc_pool2"
  type: "Pooling3D"
  bottom: "loc_res2a"
  top: "loc_pool2"
  pooling3d_param {
    pool: MAX
    pad: 0
    kernel_size: 1
    stride: 1
    pad_l: 0
    kernel_l: 2
    stride_l: 2
  }
}
layer {
  name: "loc_ip1"
  type: "InnerProduct"
  bottom: "loc_pool2"
  top: "loc_ip1"
  param {
    lr_mult: 10
    decay_mult: 1
  }
  param {
    lr_mult: 20
    decay_mult: 0
  }
  inner_product_param {
    num_output: 64
    weight_filler {
      type: "gaussian"
      std: 0.001
    }
    bias_filler {
      type: "constant"
      value: 0
    }
  }
}
layer {
  name: "loc_relu1"
  type: "ReLU"
  bottom: "loc_ip1"
  top: "loc_ip1"
}
layer {
  name: "loc_ip2"
  type: "InnerProduct"
  bottom: "loc_ip1"
  top: "theta"
  param {
    lr_mult: 10
    decay_mult: 1
  }
  param {
    lr_mult: 12
    decay_mult: 0
  }
  inner_product_param {
    num_output: 12
    weight_filler {
      type: "constant"
      value: 0
    }
    bias_filler {
      type: "file"
      file: "examples/mnist_tests/bias_init.txt"
    }
  }
}
layer {
  name: "trist_layer"
  type: "TridimSpatialTransformer"
  bottom: "data"
  bottom: "theta"
  top: "trist_output"
}
layer {
  name: "conv1"
  type: "Convolution"
  bottom: "trist_output"
  top: "conv1"
  param {
    lr_mult: 1
    decay_mult: 1
  }
  convolution_param {
    num_output: 64
    bias_term: false
    pad: 0
    pad: 3
    pad: 3
    kernel_size: 1
    kernel_size: 7
    kernel_size: 7
    stride: 1
    stride: 2
    stride: 2
    weight_filler {
      type: "gaussian"
      std: 0.001
    }
    engine: CAFFE
  }
}
layer {
  name: "bn_conv1"
  type: "BN"
  bottom: "conv1"
  top: "bn_conv1"
  param {
    lr_mult: 1
    decay_mult: 0
  }
  param {
    lr_mult: 1
    decay_mult: 0
  }
  param {
    lr_mult: 0
  }
  param {
    lr_mult: 0
  }
  bn_param {
    slope_filler {
      type: "constant"
      value: 1
    }
    bias_filler {
      type: "constant"
      value: 0
    }
    frozen: false
  }
}
layer {
  name: "conv1_relu"
  type: "ReLU"
  bottom: "bn_conv1"
  top: "bn_conv1"
  relu_param {
    engine: CAFFE
  }
}
layer {
  name: "pool1"
  type: "Pooling3D"
  bottom: "bn_conv1"
  top: "pool1"
  pooling3d_param {
    pool: MAX
    pad: 0
    kernel_size: 3
    stride: 2
    pad_l: 0
    kernel_l: 2
    stride_l: 2
  }
}
layer {
  name: "res2a_branch1"
  type: "Convolution"
  bottom: "pool1"
  top: "res2a_branch1"
  param {
    lr_mult: 1
    decay_mult: 1
  }
  convolution_param {
    num_output: 256
    bias_term: false
    pad: 0
    pad: 0
    pad: 0
    kernel_size: 1
    kernel_size: 1
    kernel_size: 1
    stride: 1
    stride: 1
    stride: 1
    weight_filler {
      type: "gaussian"
      std: 0.001
    }
    engine: CAFFE
  }
}
layer {
  name: "bn2a_branch1"
  type: "BN"
  bottom: "res2a_branch1"
  top: "bn2a_branch1"
  param {
    lr_mult: 1
    decay_mult: 0
  }
  param {
    lr_mult: 1
    decay_mult: 0
  }
  param {
    lr_mult: 0
  }
  param {
    lr_mult: 0
  }
  bn_param {
    slope_filler {
      type: "constant"
      value: 1
    }
    bias_filler {
      type: "constant"
      value: 0
    }
    frozen: true
  }
}
layer {
  name: "res2a_branch2a"
  type: "Convolution"
  bottom: "pool1"
  top: "res2a_branch2a"
  param {
    lr_mult: 1
    decay_mult: 1
  }
  convolution_param {
    num_output: 64
    bias_term: false
    pad: 0
    pad: 0
    pad: 0
    kernel_size: 1
    kernel_size: 1
    kernel_size: 1
    stride: 1
    stride: 1
    stride: 1
    weight_filler {
      type: "gaussian"
      std: 0.001
    }
    engine: CAFFE
  }
}
layer {
  name: "bn2a_branch2a"
  type: "BN"
  bottom: "res2a_branch2a"
  top: "bn2a_branch2a"
  param {
    lr_mult: 1
    decay_mult: 0
  }
  param {
    lr_mult: 1
    decay_mult: 0
  }
  param {
    lr_mult: 0
  }
  param {
    lr_mult: 0
  }
  bn_param {
    slope_filler {
      type: "constant"
      value: 1
    }
    bias_filler {
      type: "constant"
      value: 0
    }
    frozen: true
  }
}
layer {
  name: "res2a_branch2a_relu"
  type: "ReLU"
  bottom: "bn2a_branch2a"
  top: "bn2a_branch2a"
  relu_param {
    engine: CAFFE
  }
}
layer {
  name: "res2a_branch2b"
  type: "Convolution"
  bottom: "bn2a_branch2a"
  top: "res2a_branch2b"
  param {
    lr_mult: 1
    decay_mult: 1
  }
  convolution_param {
    num_output: 64
    bias_term: false
    pad: 0
    pad: 1
    pad: 1
    kernel_size: 1
    kernel_size: 3
    kernel_size: 3
    stride: 1
    stride: 1
    stride: 1
    weight_filler {
      type: "gaussian"
      std: 0.001
    }
    engine: CAFFE
  }
}
layer {
  name: "bn2a_branch2b"
  type: "BN"
  bottom: "res2a_branch2b"
  top: "bn2a_branch2b"
  param {
    lr_mult: 1
    decay_mult: 0
  }
  param {
    lr_mult: 1
    decay_mult: 0
  }
  param {
    lr_mult: 0
  }
  param {
    lr_mult: 0
  }
  bn_param {
    slope_filler {
      type: "constant"
      value: 1
    }
    bias_filler {
      type: "constant"
      value: 0
    }
    frozen: true
  }
}
layer {
  name: "res2a_branch2b_relu"
  type: "ReLU"
  bottom: "bn2a_branch2b"
  top: "bn2a_branch2b"
  relu_param {
    engine: CAFFE
  }
}
layer {
  name: "res2a_branch2b_t"
  type: "Convolution"
  bottom: "bn2a_branch2b"
  top: "res2a_branch2b_t"
  param {
    lr_mult: 1
    decay_mult: 1
  }
  convolution_param {
    num_output: 64
    bias_term: false
    pad: 1
    pad: 0
    pad: 0
    kernel_size: 3
    kernel_size: 1
    kernel_size: 1
    stride: 1
    stride: 1
    stride: 1
    weight_filler {
      type: "gaussian"
      std: 0.001
    }
    engine: CAFFE
  }
}
layer {
  name: "bn2a_branch2b_t"
  type: "BN"
  bottom: "res2a_branch2b_t"
  top: "bn2a_branch2b_t"
  param {
    lr_mult: 1
    decay_mult: 0
  }
  param {
    lr_mult: 1
    decay_mult: 0
  }
  param {
    lr_mult: 0
  }
  param {
    lr_mult: 0
  }
  bn_param {
    slope_filler {
      type: "constant"
      value: 1
    }
    bias_filler {
      type: "constant"
      value: 0
    }
    frozen: true
  }
}
layer {
  name: "res2a_branch2b_t_relu"
  type: "ReLU"
  bottom: "bn2a_branch2b_t"
  top: "bn2a_branch2b_t"
  relu_param {
    engine: CAFFE
  }
}
layer {
  name: "res2a_branch2c"
  type: "Convolution"
  bottom: "bn2a_branch2b_t"
  top: "res2a_branch2c"
  param {
    lr_mult: 1
    decay_mult: 1
  }
  convolution_param {
    num_output: 256
    bias_term: false
    pad: 0
    pad: 0
    pad: 0
    kernel_size: 1
    kernel_size: 1
    kernel_size: 1
    stride: 1
    stride: 1
    stride: 1
    weight_filler {
      type: "gaussian"
      std: 0.001
    }
    engine: CAFFE
  }
}
layer {
  name: "bn2a_branch2c"
  type: "BN"
  bottom: "res2a_branch2c"
  top: "bn2a_branch2c"
  param {
    lr_mult: 1
    decay_mult: 0
  }
  param {
    lr_mult: 1
    decay_mult: 0
  }
  param {
    lr_mult: 0
  }
  param {
    lr_mult: 0
  }
  bn_param {
    slope_filler {
      type: "constant"
      value: 1
    }
    bias_filler {
      type: "constant"
      value: 0
    }
    frozen: true
  }
}
layer {
  name: "res2a"
  type: "Eltwise"
  bottom: "bn2a_branch1"
  bottom: "bn2a_branch2c"
  top: "res2a"
  eltwise_param {
    operation: SUM
  }
}
layer {
  name: "res2a_relu"
  type: "ReLU"
  bottom: "res2a"
  top: "res2a"
  relu_param {
    engine: CAFFE
  }
}
layer {
  name: "pool2"
  type: "Pooling3D"
  bottom: "res2a"
  top: "pool2"
  pooling3d_param {
    pool: MAX
    pad: 0
    kernel_size: 1
    stride: 1
    pad_l: 0
    kernel_l: 2
    stride_l: 2
  }
}
layer {
  name: "ip1"
  type: "InnerProduct"
  bottom: "pool2"
  top: "ip1"
  param {
    lr_mult: 10
    decay_mult: 1
  }
  param {
    lr_mult: 20
    decay_mult: 0
  }
  inner_product_param {
    num_output: 3
    weight_filler {
      type: "gaussian"
      std: 0.001
    }
    bias_filler {
      type: "constant"
      value: 0
    }
  }
}
layer {
  name: "accuracy/top1"
  type: "Accuracy"
  bottom: "ip1"
  bottom: "label"
  top: "accuracy/top1"
  include {
    phase: TEST
  }
}
layer {
  name: "loss"
  type: "SoftmaxWithLoss"
  bottom: "ip1"
  bottom: "label"
  top: "loss"
}
I1213 13:02:11.451439  2870 layer_factory.hpp:77] Creating layer data
I1213 13:02:11.451459  2870 net.cpp:84] Creating Layer data
I1213 13:02:11.451467  2870 net.cpp:380] data -> data
I1213 13:02:11.451478  2870 net.cpp:380] data -> label
I1213 13:02:11.451488  2870 tridim_data_layer.cpp:67] Opening file /data2/xyyu/datasets/train_4.lst
I1213 13:02:11.457674  2870 tridim_data_layer.cpp:140] A total of 20698 tridim chunks.
I1213 13:02:11.460714  2870 tridim_data_layer.cpp:182] output data size: 10,3,10,120,120
I1213 13:02:11.501518  2870 net.cpp:122] Setting up data
I1213 13:02:11.501587  2870 net.cpp:129] Top shape: 10 3 10 120 120 (4320000)
I1213 13:02:11.501611  2870 net.cpp:129] Top shape: 10 (10)
I1213 13:02:11.501628  2870 net.cpp:137] Memory required for data: 17280040
I1213 13:02:11.501647  2870 layer_factory.hpp:77] Creating layer data_data_0_split
I1213 13:02:11.501682  2870 net.cpp:84] Creating Layer data_data_0_split
I1213 13:02:11.501700  2870 net.cpp:406] data_data_0_split <- data
I1213 13:02:11.501722  2870 net.cpp:380] data_data_0_split -> data_data_0_split_0
I1213 13:02:11.501751  2870 net.cpp:380] data_data_0_split -> data_data_0_split_1
I1213 13:02:11.501868  2870 net.cpp:122] Setting up data_data_0_split
I1213 13:02:11.501894  2870 net.cpp:129] Top shape: 10 3 10 120 120 (4320000)
I1213 13:02:11.501914  2870 net.cpp:129] Top shape: 10 3 10 120 120 (4320000)
I1213 13:02:11.501929  2870 net.cpp:137] Memory required for data: 51840040
I1213 13:02:11.501945  2870 layer_factory.hpp:77] Creating layer label_data_1_split
I1213 13:02:11.501967  2870 net.cpp:84] Creating Layer label_data_1_split
I1213 13:02:11.501983  2870 net.cpp:406] label_data_1_split <- label
I1213 13:02:11.502002  2870 net.cpp:380] label_data_1_split -> label_data_1_split_0
I1213 13:02:11.502022  2870 net.cpp:380] label_data_1_split -> label_data_1_split_1
I1213 13:02:11.502106  2870 net.cpp:122] Setting up label_data_1_split
I1213 13:02:11.502130  2870 net.cpp:129] Top shape: 10 (10)
I1213 13:02:11.502147  2870 net.cpp:129] Top shape: 10 (10)
I1213 13:02:11.502161  2870 net.cpp:137] Memory required for data: 51840120
I1213 13:02:11.502177  2870 layer_factory.hpp:77] Creating layer loc_conv1
I1213 13:02:11.502205  2870 net.cpp:84] Creating Layer loc_conv1
I1213 13:02:11.502224  2870 net.cpp:406] loc_conv1 <- data_data_0_split_0
I1213 13:02:11.502244  2870 net.cpp:380] loc_conv1 -> loc_conv1
I1213 13:02:11.503201  2870 net.cpp:122] Setting up loc_conv1
I1213 13:02:11.503216  2870 net.cpp:129] Top shape: 10 64 10 60 60 (23040000)
I1213 13:02:11.503221  2870 net.cpp:137] Memory required for data: 144000120
I1213 13:02:11.503231  2870 layer_factory.hpp:77] Creating layer loc_bn_conv1
I1213 13:02:11.503242  2870 net.cpp:84] Creating Layer loc_bn_conv1
I1213 13:02:11.503247  2870 net.cpp:406] loc_bn_conv1 <- loc_conv1
I1213 13:02:11.503255  2870 net.cpp:380] loc_bn_conv1 -> loc_bn_conv1
I1213 13:02:11.503455  2870 net.cpp:122] Setting up loc_bn_conv1
I1213 13:02:11.503468  2870 net.cpp:129] Top shape: 10 64 10 60 60 (23040000)
I1213 13:02:11.503473  2870 net.cpp:137] Memory required for data: 236160120
I1213 13:02:11.503484  2870 layer_factory.hpp:77] Creating layer loc_conv1_relu
I1213 13:02:11.503494  2870 net.cpp:84] Creating Layer loc_conv1_relu
I1213 13:02:11.503499  2870 net.cpp:406] loc_conv1_relu <- loc_bn_conv1
I1213 13:02:11.503505  2870 net.cpp:367] loc_conv1_relu -> loc_bn_conv1 (in-place)
I1213 13:02:11.503535  2870 net.cpp:122] Setting up loc_conv1_relu
I1213 13:02:11.503543  2870 net.cpp:129] Top shape: 10 64 10 60 60 (23040000)
I1213 13:02:11.503549  2870 net.cpp:137] Memory required for data: 328320120
I1213 13:02:11.503556  2870 layer_factory.hpp:77] Creating layer loc_pool1
I1213 13:02:11.503563  2870 net.cpp:84] Creating Layer loc_pool1
I1213 13:02:11.503568  2870 net.cpp:406] loc_pool1 <- loc_bn_conv1
I1213 13:02:11.503576  2870 net.cpp:380] loc_pool1 -> loc_pool1
I1213 13:02:11.503609  2870 net.cpp:122] Setting up loc_pool1
I1213 13:02:11.503618  2870 net.cpp:129] Top shape: 10 64 5 30 30 (2880000)
I1213 13:02:11.503624  2870 net.cpp:137] Memory required for data: 339840120
I1213 13:02:11.503629  2870 layer_factory.hpp:77] Creating layer loc_pool1_loc_pool1_0_split
I1213 13:02:11.503636  2870 net.cpp:84] Creating Layer loc_pool1_loc_pool1_0_split
I1213 13:02:11.503643  2870 net.cpp:406] loc_pool1_loc_pool1_0_split <- loc_pool1
I1213 13:02:11.503648  2870 net.cpp:380] loc_pool1_loc_pool1_0_split -> loc_pool1_loc_pool1_0_split_0
I1213 13:02:11.503655  2870 net.cpp:380] loc_pool1_loc_pool1_0_split -> loc_pool1_loc_pool1_0_split_1
I1213 13:02:11.503684  2870 net.cpp:122] Setting up loc_pool1_loc_pool1_0_split
I1213 13:02:11.503691  2870 net.cpp:129] Top shape: 10 64 5 30 30 (2880000)
I1213 13:02:11.503697  2870 net.cpp:129] Top shape: 10 64 5 30 30 (2880000)
I1213 13:02:11.503702  2870 net.cpp:137] Memory required for data: 362880120
I1213 13:02:11.503707  2870 layer_factory.hpp:77] Creating layer loc_res2a_branch1
I1213 13:02:11.503717  2870 net.cpp:84] Creating Layer loc_res2a_branch1
I1213 13:02:11.503723  2870 net.cpp:406] loc_res2a_branch1 <- loc_pool1_loc_pool1_0_split_0
I1213 13:02:11.503731  2870 net.cpp:380] loc_res2a_branch1 -> loc_res2a_branch1
I1213 13:02:11.504256  2870 net.cpp:122] Setting up loc_res2a_branch1
I1213 13:02:11.504266  2870 net.cpp:129] Top shape: 10 256 5 30 30 (11520000)
I1213 13:02:11.504272  2870 net.cpp:137] Memory required for data: 408960120
I1213 13:02:11.504278  2870 layer_factory.hpp:77] Creating layer loc_bn2a_branch1
I1213 13:02:11.504287  2870 net.cpp:84] Creating Layer loc_bn2a_branch1
I1213 13:02:11.504293  2870 net.cpp:406] loc_bn2a_branch1 <- loc_res2a_branch1
I1213 13:02:11.504300  2870 net.cpp:380] loc_bn2a_branch1 -> loc_bn2a_branch1
I1213 13:02:11.504454  2870 net.cpp:122] Setting up loc_bn2a_branch1
I1213 13:02:11.504464  2870 net.cpp:129] Top shape: 10 256 5 30 30 (11520000)
I1213 13:02:11.504469  2870 net.cpp:137] Memory required for data: 455040120
I1213 13:02:11.504479  2870 layer_factory.hpp:77] Creating layer loc_res2a_branch2a
I1213 13:02:11.504489  2870 net.cpp:84] Creating Layer loc_res2a_branch2a
I1213 13:02:11.504494  2870 net.cpp:406] loc_res2a_branch2a <- loc_pool1_loc_pool1_0_split_1
I1213 13:02:11.504501  2870 net.cpp:380] loc_res2a_branch2a -> loc_res2a_branch2a
I1213 13:02:11.504731  2870 net.cpp:122] Setting up loc_res2a_branch2a
I1213 13:02:11.504741  2870 net.cpp:129] Top shape: 10 64 5 30 30 (2880000)
I1213 13:02:11.504746  2870 net.cpp:137] Memory required for data: 466560120
I1213 13:02:11.504752  2870 layer_factory.hpp:77] Creating layer loc_bn2a_branch2a
I1213 13:02:11.504760  2870 net.cpp:84] Creating Layer loc_bn2a_branch2a
I1213 13:02:11.504766  2870 net.cpp:406] loc_bn2a_branch2a <- loc_res2a_branch2a
I1213 13:02:11.504773  2870 net.cpp:380] loc_bn2a_branch2a -> loc_bn2a_branch2a
I1213 13:02:11.504941  2870 net.cpp:122] Setting up loc_bn2a_branch2a
I1213 13:02:11.504951  2870 net.cpp:129] Top shape: 10 64 5 30 30 (2880000)
I1213 13:02:11.504956  2870 net.cpp:137] Memory required for data: 478080120
I1213 13:02:11.504964  2870 layer_factory.hpp:77] Creating layer loc_res2a_branch2a_relu
I1213 13:02:11.504971  2870 net.cpp:84] Creating Layer loc_res2a_branch2a_relu
I1213 13:02:11.504977  2870 net.cpp:406] loc_res2a_branch2a_relu <- loc_bn2a_branch2a
I1213 13:02:11.504983  2870 net.cpp:367] loc_res2a_branch2a_relu -> loc_bn2a_branch2a (in-place)
I1213 13:02:11.504990  2870 net.cpp:122] Setting up loc_res2a_branch2a_relu
I1213 13:02:11.505007  2870 net.cpp:129] Top shape: 10 64 5 30 30 (2880000)
I1213 13:02:11.505012  2870 net.cpp:137] Memory required for data: 489600120
I1213 13:02:11.505017  2870 layer_factory.hpp:77] Creating layer loc_res2a_branch2b
I1213 13:02:11.505026  2870 net.cpp:84] Creating Layer loc_res2a_branch2b
I1213 13:02:11.505031  2870 net.cpp:406] loc_res2a_branch2b <- loc_bn2a_branch2a
I1213 13:02:11.505038  2870 net.cpp:380] loc_res2a_branch2b -> loc_res2a_branch2b
I1213 13:02:11.508746  2870 net.cpp:122] Setting up loc_res2a_branch2b
I1213 13:02:11.508775  2870 net.cpp:129] Top shape: 10 64 5 30 30 (2880000)
I1213 13:02:11.508781  2870 net.cpp:137] Memory required for data: 501120120
I1213 13:02:11.508791  2870 layer_factory.hpp:77] Creating layer loc_bn2a_branch2b
I1213 13:02:11.508807  2870 net.cpp:84] Creating Layer loc_bn2a_branch2b
I1213 13:02:11.508818  2870 net.cpp:406] loc_bn2a_branch2b <- loc_res2a_branch2b
I1213 13:02:11.508829  2870 net.cpp:380] loc_bn2a_branch2b -> loc_bn2a_branch2b
I1213 13:02:11.509037  2870 net.cpp:122] Setting up loc_bn2a_branch2b
I1213 13:02:11.509050  2870 net.cpp:129] Top shape: 10 64 5 30 30 (2880000)
I1213 13:02:11.509057  2870 net.cpp:137] Memory required for data: 512640120
I1213 13:02:11.509069  2870 layer_factory.hpp:77] Creating layer loc_res2a_branch2b_relu
I1213 13:02:11.509078  2870 net.cpp:84] Creating Layer loc_res2a_branch2b_relu
I1213 13:02:11.509085  2870 net.cpp:406] loc_res2a_branch2b_relu <- loc_bn2a_branch2b
I1213 13:02:11.509091  2870 net.cpp:367] loc_res2a_branch2b_relu -> loc_bn2a_branch2b (in-place)
I1213 13:02:11.509100  2870 net.cpp:122] Setting up loc_res2a_branch2b_relu
I1213 13:02:11.509106  2870 net.cpp:129] Top shape: 10 64 5 30 30 (2880000)
I1213 13:02:11.509111  2870 net.cpp:137] Memory required for data: 524160120
I1213 13:02:11.509116  2870 layer_factory.hpp:77] Creating layer loc_res2a_branch2b_t
I1213 13:02:11.509130  2870 net.cpp:84] Creating Layer loc_res2a_branch2b_t
I1213 13:02:11.509135  2870 net.cpp:406] loc_res2a_branch2b_t <- loc_bn2a_branch2b
I1213 13:02:11.509141  2870 net.cpp:380] loc_res2a_branch2b_t -> loc_res2a_branch2b_t
I1213 13:02:11.509680  2870 net.cpp:122] Setting up loc_res2a_branch2b_t
I1213 13:02:11.509702  2870 net.cpp:129] Top shape: 10 64 5 30 30 (2880000)
I1213 13:02:11.509711  2870 net.cpp:137] Memory required for data: 535680120
I1213 13:02:11.509721  2870 layer_factory.hpp:77] Creating layer loc_bn2a_branch2b_t
I1213 13:02:11.509734  2870 net.cpp:84] Creating Layer loc_bn2a_branch2b_t
I1213 13:02:11.509743  2870 net.cpp:406] loc_bn2a_branch2b_t <- loc_res2a_branch2b_t
I1213 13:02:11.509755  2870 net.cpp:380] loc_bn2a_branch2b_t -> loc_bn2a_branch2b_t
I1213 13:02:11.509994  2870 net.cpp:122] Setting up loc_bn2a_branch2b_t
I1213 13:02:11.510011  2870 net.cpp:129] Top shape: 10 64 5 30 30 (2880000)
I1213 13:02:11.510017  2870 net.cpp:137] Memory required for data: 547200120
I1213 13:02:11.510026  2870 layer_factory.hpp:77] Creating layer loc_res2a_branch2b_t_relu
I1213 13:02:11.510035  2870 net.cpp:84] Creating Layer loc_res2a_branch2b_t_relu
I1213 13:02:11.510041  2870 net.cpp:406] loc_res2a_branch2b_t_relu <- loc_bn2a_branch2b_t
I1213 13:02:11.510047  2870 net.cpp:367] loc_res2a_branch2b_t_relu -> loc_bn2a_branch2b_t (in-place)
I1213 13:02:11.510056  2870 net.cpp:122] Setting up loc_res2a_branch2b_t_relu
I1213 13:02:11.510062  2870 net.cpp:129] Top shape: 10 64 5 30 30 (2880000)
I1213 13:02:11.510067  2870 net.cpp:137] Memory required for data: 558720120
I1213 13:02:11.510072  2870 layer_factory.hpp:77] Creating layer loc_res2a_branch2c
I1213 13:02:11.510082  2870 net.cpp:84] Creating Layer loc_res2a_branch2c
I1213 13:02:11.510087  2870 net.cpp:406] loc_res2a_branch2c <- loc_bn2a_branch2b_t
I1213 13:02:11.510094  2870 net.cpp:380] loc_res2a_branch2c -> loc_res2a_branch2c
I1213 13:02:11.510646  2870 net.cpp:122] Setting up loc_res2a_branch2c
I1213 13:02:11.510659  2870 net.cpp:129] Top shape: 10 256 5 30 30 (11520000)
I1213 13:02:11.510664  2870 net.cpp:137] Memory required for data: 604800120
I1213 13:02:11.510687  2870 layer_factory.hpp:77] Creating layer loc_bn2a_branch2c
I1213 13:02:11.510697  2870 net.cpp:84] Creating Layer loc_bn2a_branch2c
I1213 13:02:11.510704  2870 net.cpp:406] loc_bn2a_branch2c <- loc_res2a_branch2c
I1213 13:02:11.510711  2870 net.cpp:380] loc_bn2a_branch2c -> loc_bn2a_branch2c
I1213 13:02:11.510874  2870 net.cpp:122] Setting up loc_bn2a_branch2c
I1213 13:02:11.510884  2870 net.cpp:129] Top shape: 10 256 5 30 30 (11520000)
I1213 13:02:11.510888  2870 net.cpp:137] Memory required for data: 650880120
I1213 13:02:11.510896  2870 layer_factory.hpp:77] Creating layer loc_res2a
I1213 13:02:11.510911  2870 net.cpp:84] Creating Layer loc_res2a
I1213 13:02:11.510918  2870 net.cpp:406] loc_res2a <- loc_bn2a_branch1
I1213 13:02:11.510924  2870 net.cpp:406] loc_res2a <- loc_bn2a_branch2c
I1213 13:02:11.510931  2870 net.cpp:380] loc_res2a -> loc_res2a
I1213 13:02:11.510954  2870 net.cpp:122] Setting up loc_res2a
I1213 13:02:11.510963  2870 net.cpp:129] Top shape: 10 256 5 30 30 (11520000)
I1213 13:02:11.510968  2870 net.cpp:137] Memory required for data: 696960120
I1213 13:02:11.510974  2870 layer_factory.hpp:77] Creating layer loc_res2a_relu
I1213 13:02:11.510982  2870 net.cpp:84] Creating Layer loc_res2a_relu
I1213 13:02:11.510987  2870 net.cpp:406] loc_res2a_relu <- loc_res2a
I1213 13:02:11.510993  2870 net.cpp:367] loc_res2a_relu -> loc_res2a (in-place)
I1213 13:02:11.511000  2870 net.cpp:122] Setting up loc_res2a_relu
I1213 13:02:11.511006  2870 net.cpp:129] Top shape: 10 256 5 30 30 (11520000)
I1213 13:02:11.511011  2870 net.cpp:137] Memory required for data: 743040120
I1213 13:02:11.511016  2870 layer_factory.hpp:77] Creating layer loc_pool2
I1213 13:02:11.511024  2870 net.cpp:84] Creating Layer loc_pool2
I1213 13:02:11.511029  2870 net.cpp:406] loc_pool2 <- loc_res2a
I1213 13:02:11.511036  2870 net.cpp:380] loc_pool2 -> loc_pool2
I1213 13:02:11.511071  2870 net.cpp:122] Setting up loc_pool2
I1213 13:02:11.511082  2870 net.cpp:129] Top shape: 10 256 3 30 30 (6912000)
I1213 13:02:11.511087  2870 net.cpp:137] Memory required for data: 770688120
I1213 13:02:11.511092  2870 layer_factory.hpp:77] Creating layer loc_ip1
I1213 13:02:11.511101  2870 net.cpp:84] Creating Layer loc_ip1
I1213 13:02:11.511106  2870 net.cpp:406] loc_ip1 <- loc_pool2
I1213 13:02:11.511113  2870 net.cpp:380] loc_ip1 -> loc_ip1
I1213 13:02:12.649102  2870 net.cpp:122] Setting up loc_ip1
I1213 13:02:12.649139  2870 net.cpp:129] Top shape: 10 64 (640)
I1213 13:02:12.649147  2870 net.cpp:137] Memory required for data: 770690680
I1213 13:02:12.649158  2870 layer_factory.hpp:77] Creating layer loc_relu1
I1213 13:02:12.649170  2870 net.cpp:84] Creating Layer loc_relu1
I1213 13:02:12.649178  2870 net.cpp:406] loc_relu1 <- loc_ip1
I1213 13:02:12.649186  2870 net.cpp:367] loc_relu1 -> loc_ip1 (in-place)
I1213 13:02:12.649379  2870 net.cpp:122] Setting up loc_relu1
I1213 13:02:12.649392  2870 net.cpp:129] Top shape: 10 64 (640)
I1213 13:02:12.649399  2870 net.cpp:137] Memory required for data: 770693240
I1213 13:02:12.649404  2870 layer_factory.hpp:77] Creating layer loc_ip2
I1213 13:02:12.649415  2870 net.cpp:84] Creating Layer loc_ip2
I1213 13:02:12.649421  2870 net.cpp:406] loc_ip2 <- loc_ip1
I1213 13:02:12.649430  2870 net.cpp:380] loc_ip2 -> theta
I1213 13:02:12.649601  2870 net.cpp:122] Setting up loc_ip2
I1213 13:02:12.649613  2870 net.cpp:129] Top shape: 10 12 (120)
I1213 13:02:12.649619  2870 net.cpp:137] Memory required for data: 770693720
I1213 13:02:12.649632  2870 layer_factory.hpp:77] Creating layer trist_layer
I1213 13:02:12.649642  2870 net.cpp:84] Creating Layer trist_layer
I1213 13:02:12.649648  2870 net.cpp:406] trist_layer <- data_data_0_split_1
I1213 13:02:12.649654  2870 net.cpp:406] trist_layer <- theta
I1213 13:02:12.649662  2870 net.cpp:380] trist_layer -> trist_output
I1213 13:02:12.653779  2870 net.cpp:122] Setting up trist_layer
I1213 13:02:12.653801  2870 net.cpp:129] Top shape: 10 3 10 120 120 (4320000)
I1213 13:02:12.653808  2870 net.cpp:137] Memory required for data: 787973720
I1213 13:02:12.653841  2870 layer_factory.hpp:77] Creating layer conv1
I1213 13:02:12.653861  2870 net.cpp:84] Creating Layer conv1
I1213 13:02:12.653869  2870 net.cpp:406] conv1 <- trist_output
I1213 13:02:12.653879  2870 net.cpp:380] conv1 -> conv1
I1213 13:02:12.654265  2870 net.cpp:122] Setting up conv1
I1213 13:02:12.654278  2870 net.cpp:129] Top shape: 10 64 10 60 60 (23040000)
I1213 13:02:12.654284  2870 net.cpp:137] Memory required for data: 880133720
I1213 13:02:12.654292  2870 layer_factory.hpp:77] Creating layer bn_conv1
I1213 13:02:12.654302  2870 net.cpp:84] Creating Layer bn_conv1
I1213 13:02:12.654311  2870 net.cpp:406] bn_conv1 <- conv1
I1213 13:02:12.654319  2870 net.cpp:380] bn_conv1 -> bn_conv1
I1213 13:02:12.654528  2870 net.cpp:122] Setting up bn_conv1
I1213 13:02:12.654541  2870 net.cpp:129] Top shape: 10 64 10 60 60 (23040000)
I1213 13:02:12.654547  2870 net.cpp:137] Memory required for data: 972293720
I1213 13:02:12.654556  2870 layer_factory.hpp:77] Creating layer conv1_relu
I1213 13:02:12.654564  2870 net.cpp:84] Creating Layer conv1_relu
I1213 13:02:12.654570  2870 net.cpp:406] conv1_relu <- bn_conv1
I1213 13:02:12.654577  2870 net.cpp:367] conv1_relu -> bn_conv1 (in-place)
I1213 13:02:12.654585  2870 net.cpp:122] Setting up conv1_relu
I1213 13:02:12.654592  2870 net.cpp:129] Top shape: 10 64 10 60 60 (23040000)
I1213 13:02:12.654597  2870 net.cpp:137] Memory required for data: 1064453720
I1213 13:02:12.654603  2870 layer_factory.hpp:77] Creating layer pool1
I1213 13:02:12.654611  2870 net.cpp:84] Creating Layer pool1
I1213 13:02:12.654616  2870 net.cpp:406] pool1 <- bn_conv1
I1213 13:02:12.654623  2870 net.cpp:380] pool1 -> pool1
I1213 13:02:12.654659  2870 net.cpp:122] Setting up pool1
I1213 13:02:12.654667  2870 net.cpp:129] Top shape: 10 64 5 30 30 (2880000)
I1213 13:02:12.654672  2870 net.cpp:137] Memory required for data: 1075973720
I1213 13:02:12.654678  2870 layer_factory.hpp:77] Creating layer pool1_pool1_0_split
I1213 13:02:12.654690  2870 net.cpp:84] Creating Layer pool1_pool1_0_split
I1213 13:02:12.654695  2870 net.cpp:406] pool1_pool1_0_split <- pool1
I1213 13:02:12.654702  2870 net.cpp:380] pool1_pool1_0_split -> pool1_pool1_0_split_0
I1213 13:02:12.654713  2870 net.cpp:380] pool1_pool1_0_split -> pool1_pool1_0_split_1
I1213 13:02:12.654749  2870 net.cpp:122] Setting up pool1_pool1_0_split
I1213 13:02:12.654758  2870 net.cpp:129] Top shape: 10 64 5 30 30 (2880000)
I1213 13:02:12.654763  2870 net.cpp:129] Top shape: 10 64 5 30 30 (2880000)
I1213 13:02:12.654768  2870 net.cpp:137] Memory required for data: 1099013720
I1213 13:02:12.654774  2870 layer_factory.hpp:77] Creating layer res2a_branch1
I1213 13:02:12.654783  2870 net.cpp:84] Creating Layer res2a_branch1
I1213 13:02:12.654789  2870 net.cpp:406] res2a_branch1 <- pool1_pool1_0_split_0
I1213 13:02:12.654796  2870 net.cpp:380] res2a_branch1 -> res2a_branch1
I1213 13:02:12.655364  2870 net.cpp:122] Setting up res2a_branch1
I1213 13:02:12.655375  2870 net.cpp:129] Top shape: 10 256 5 30 30 (11520000)
I1213 13:02:12.655380  2870 net.cpp:137] Memory required for data: 1145093720
I1213 13:02:12.655386  2870 layer_factory.hpp:77] Creating layer bn2a_branch1
I1213 13:02:12.655395  2870 net.cpp:84] Creating Layer bn2a_branch1
I1213 13:02:12.655400  2870 net.cpp:406] bn2a_branch1 <- res2a_branch1
I1213 13:02:12.655407  2870 net.cpp:380] bn2a_branch1 -> bn2a_branch1
I1213 13:02:12.655570  2870 net.cpp:122] Setting up bn2a_branch1
I1213 13:02:12.655580  2870 net.cpp:129] Top shape: 10 256 5 30 30 (11520000)
I1213 13:02:12.655586  2870 net.cpp:137] Memory required for data: 1191173720
I1213 13:02:12.655594  2870 layer_factory.hpp:77] Creating layer res2a_branch2a
I1213 13:02:12.655603  2870 net.cpp:84] Creating Layer res2a_branch2a
I1213 13:02:12.655609  2870 net.cpp:406] res2a_branch2a <- pool1_pool1_0_split_1
I1213 13:02:12.655616  2870 net.cpp:380] res2a_branch2a -> res2a_branch2a
I1213 13:02:12.655855  2870 net.cpp:122] Setting up res2a_branch2a
I1213 13:02:12.655865  2870 net.cpp:129] Top shape: 10 64 5 30 30 (2880000)
I1213 13:02:12.655885  2870 net.cpp:137] Memory required for data: 1202693720
I1213 13:02:12.655892  2870 layer_factory.hpp:77] Creating layer bn2a_branch2a
I1213 13:02:12.655901  2870 net.cpp:84] Creating Layer bn2a_branch2a
I1213 13:02:12.655907  2870 net.cpp:406] bn2a_branch2a <- res2a_branch2a
I1213 13:02:12.655915  2870 net.cpp:380] bn2a_branch2a -> bn2a_branch2a
I1213 13:02:12.656092  2870 net.cpp:122] Setting up bn2a_branch2a
I1213 13:02:12.656102  2870 net.cpp:129] Top shape: 10 64 5 30 30 (2880000)
I1213 13:02:12.656108  2870 net.cpp:137] Memory required for data: 1214213720
I1213 13:02:12.656116  2870 layer_factory.hpp:77] Creating layer res2a_branch2a_relu
I1213 13:02:12.656124  2870 net.cpp:84] Creating Layer res2a_branch2a_relu
I1213 13:02:12.656129  2870 net.cpp:406] res2a_branch2a_relu <- bn2a_branch2a
I1213 13:02:12.656136  2870 net.cpp:367] res2a_branch2a_relu -> bn2a_branch2a (in-place)
I1213 13:02:12.656143  2870 net.cpp:122] Setting up res2a_branch2a_relu
I1213 13:02:12.656149  2870 net.cpp:129] Top shape: 10 64 5 30 30 (2880000)
I1213 13:02:12.656154  2870 net.cpp:137] Memory required for data: 1225733720
I1213 13:02:12.656159  2870 layer_factory.hpp:77] Creating layer res2a_branch2b
I1213 13:02:12.656167  2870 net.cpp:84] Creating Layer res2a_branch2b
I1213 13:02:12.656173  2870 net.cpp:406] res2a_branch2b <- bn2a_branch2a
I1213 13:02:12.656180  2870 net.cpp:380] res2a_branch2b -> res2a_branch2b
I1213 13:02:12.657202  2870 net.cpp:122] Setting up res2a_branch2b
I1213 13:02:12.657213  2870 net.cpp:129] Top shape: 10 64 5 30 30 (2880000)
I1213 13:02:12.657219  2870 net.cpp:137] Memory required for data: 1237253720
I1213 13:02:12.657225  2870 layer_factory.hpp:77] Creating layer bn2a_branch2b
I1213 13:02:12.657234  2870 net.cpp:84] Creating Layer bn2a_branch2b
I1213 13:02:12.657239  2870 net.cpp:406] bn2a_branch2b <- res2a_branch2b
I1213 13:02:12.657246  2870 net.cpp:380] bn2a_branch2b -> bn2a_branch2b
I1213 13:02:12.657419  2870 net.cpp:122] Setting up bn2a_branch2b
I1213 13:02:12.657429  2870 net.cpp:129] Top shape: 10 64 5 30 30 (2880000)
I1213 13:02:12.657434  2870 net.cpp:137] Memory required for data: 1248773720
I1213 13:02:12.657443  2870 layer_factory.hpp:77] Creating layer res2a_branch2b_relu
I1213 13:02:12.657450  2870 net.cpp:84] Creating Layer res2a_branch2b_relu
I1213 13:02:12.657456  2870 net.cpp:406] res2a_branch2b_relu <- bn2a_branch2b
I1213 13:02:12.657462  2870 net.cpp:367] res2a_branch2b_relu -> bn2a_branch2b (in-place)
I1213 13:02:12.657469  2870 net.cpp:122] Setting up res2a_branch2b_relu
I1213 13:02:12.657475  2870 net.cpp:129] Top shape: 10 64 5 30 30 (2880000)
I1213 13:02:12.657480  2870 net.cpp:137] Memory required for data: 1260293720
I1213 13:02:12.657485  2870 layer_factory.hpp:77] Creating layer res2a_branch2b_t
I1213 13:02:12.657493  2870 net.cpp:84] Creating Layer res2a_branch2b_t
I1213 13:02:12.657498  2870 net.cpp:406] res2a_branch2b_t <- bn2a_branch2b
I1213 13:02:12.657505  2870 net.cpp:380] res2a_branch2b_t -> res2a_branch2b_t
I1213 13:02:12.657938  2870 net.cpp:122] Setting up res2a_branch2b_t
I1213 13:02:12.657948  2870 net.cpp:129] Top shape: 10 64 5 30 30 (2880000)
I1213 13:02:12.657953  2870 net.cpp:137] Memory required for data: 1271813720
I1213 13:02:12.657959  2870 layer_factory.hpp:77] Creating layer bn2a_branch2b_t
I1213 13:02:12.657968  2870 net.cpp:84] Creating Layer bn2a_branch2b_t
I1213 13:02:12.657972  2870 net.cpp:406] bn2a_branch2b_t <- res2a_branch2b_t
I1213 13:02:12.657979  2870 net.cpp:380] bn2a_branch2b_t -> bn2a_branch2b_t
I1213 13:02:12.658149  2870 net.cpp:122] Setting up bn2a_branch2b_t
I1213 13:02:12.658164  2870 net.cpp:129] Top shape: 10 64 5 30 30 (2880000)
I1213 13:02:12.658174  2870 net.cpp:137] Memory required for data: 1283333720
I1213 13:02:12.658187  2870 layer_factory.hpp:77] Creating layer res2a_branch2b_t_relu
I1213 13:02:12.658200  2870 net.cpp:84] Creating Layer res2a_branch2b_t_relu
I1213 13:02:12.658210  2870 net.cpp:406] res2a_branch2b_t_relu <- bn2a_branch2b_t
I1213 13:02:12.658221  2870 net.cpp:367] res2a_branch2b_t_relu -> bn2a_branch2b_t (in-place)
I1213 13:02:12.658242  2870 net.cpp:122] Setting up res2a_branch2b_t_relu
I1213 13:02:12.658249  2870 net.cpp:129] Top shape: 10 64 5 30 30 (2880000)
I1213 13:02:12.658254  2870 net.cpp:137] Memory required for data: 1294853720
I1213 13:02:12.658259  2870 layer_factory.hpp:77] Creating layer res2a_branch2c
I1213 13:02:12.658268  2870 net.cpp:84] Creating Layer res2a_branch2c
I1213 13:02:12.658273  2870 net.cpp:406] res2a_branch2c <- bn2a_branch2b_t
I1213 13:02:12.658280  2870 net.cpp:380] res2a_branch2c -> res2a_branch2c
I1213 13:02:12.658993  2870 net.cpp:122] Setting up res2a_branch2c
I1213 13:02:12.659013  2870 net.cpp:129] Top shape: 10 256 5 30 30 (11520000)
I1213 13:02:12.659024  2870 net.cpp:137] Memory required for data: 1340933720
I1213 13:02:12.659035  2870 layer_factory.hpp:77] Creating layer bn2a_branch2c
I1213 13:02:12.659051  2870 net.cpp:84] Creating Layer bn2a_branch2c
I1213 13:02:12.659060  2870 net.cpp:406] bn2a_branch2c <- res2a_branch2c
I1213 13:02:12.659075  2870 net.cpp:380] bn2a_branch2c -> bn2a_branch2c
I1213 13:02:12.659328  2870 net.cpp:122] Setting up bn2a_branch2c
I1213 13:02:12.659346  2870 net.cpp:129] Top shape: 10 256 5 30 30 (11520000)
I1213 13:02:12.659355  2870 net.cpp:137] Memory required for data: 1387013720
I1213 13:02:12.659368  2870 layer_factory.hpp:77] Creating layer res2a
I1213 13:02:12.659382  2870 net.cpp:84] Creating Layer res2a
I1213 13:02:12.659394  2870 net.cpp:406] res2a <- bn2a_branch1
I1213 13:02:12.659400  2870 net.cpp:406] res2a <- bn2a_branch2c
I1213 13:02:12.659409  2870 net.cpp:380] res2a -> res2a
I1213 13:02:12.659446  2870 net.cpp:122] Setting up res2a
I1213 13:02:12.659461  2870 net.cpp:129] Top shape: 10 256 5 30 30 (11520000)
I1213 13:02:12.659466  2870 net.cpp:137] Memory required for data: 1433093720
I1213 13:02:12.659476  2870 layer_factory.hpp:77] Creating layer res2a_relu
I1213 13:02:12.659483  2870 net.cpp:84] Creating Layer res2a_relu
I1213 13:02:12.659493  2870 net.cpp:406] res2a_relu <- res2a
I1213 13:02:12.659505  2870 net.cpp:367] res2a_relu -> res2a (in-place)
I1213 13:02:12.659514  2870 net.cpp:122] Setting up res2a_relu
I1213 13:02:12.659524  2870 net.cpp:129] Top shape: 10 256 5 30 30 (11520000)
I1213 13:02:12.659534  2870 net.cpp:137] Memory required for data: 1479173720
I1213 13:02:12.659541  2870 layer_factory.hpp:77] Creating layer pool2
I1213 13:02:12.659551  2870 net.cpp:84] Creating Layer pool2
I1213 13:02:12.659559  2870 net.cpp:406] pool2 <- res2a
I1213 13:02:12.659565  2870 net.cpp:380] pool2 -> pool2
I1213 13:02:12.659598  2870 net.cpp:122] Setting up pool2
I1213 13:02:12.659607  2870 net.cpp:129] Top shape: 10 256 3 30 30 (6912000)
I1213 13:02:12.659612  2870 net.cpp:137] Memory required for data: 1506821720
I1213 13:02:12.659617  2870 layer_factory.hpp:77] Creating layer ip1
I1213 13:02:12.659626  2870 net.cpp:84] Creating Layer ip1
I1213 13:02:12.659631  2870 net.cpp:406] ip1 <- pool2
I1213 13:02:12.659637  2870 net.cpp:380] ip1 -> ip1
I1213 13:02:12.719070  2870 net.cpp:122] Setting up ip1
I1213 13:02:12.719105  2870 net.cpp:129] Top shape: 10 3 (30)
I1213 13:02:12.719113  2870 net.cpp:137] Memory required for data: 1506821840
I1213 13:02:12.719133  2870 layer_factory.hpp:77] Creating layer ip1_ip1_0_split
I1213 13:02:12.719146  2870 net.cpp:84] Creating Layer ip1_ip1_0_split
I1213 13:02:12.719159  2870 net.cpp:406] ip1_ip1_0_split <- ip1
I1213 13:02:12.719168  2870 net.cpp:380] ip1_ip1_0_split -> ip1_ip1_0_split_0
I1213 13:02:12.719178  2870 net.cpp:380] ip1_ip1_0_split -> ip1_ip1_0_split_1
I1213 13:02:12.719215  2870 net.cpp:122] Setting up ip1_ip1_0_split
I1213 13:02:12.719225  2870 net.cpp:129] Top shape: 10 3 (30)
I1213 13:02:12.719231  2870 net.cpp:129] Top shape: 10 3 (30)
I1213 13:02:12.719236  2870 net.cpp:137] Memory required for data: 1506822080
I1213 13:02:12.719243  2870 layer_factory.hpp:77] Creating layer accuracy/top1
I1213 13:02:12.719252  2870 net.cpp:84] Creating Layer accuracy/top1
I1213 13:02:12.719257  2870 net.cpp:406] accuracy/top1 <- ip1_ip1_0_split_0
I1213 13:02:12.719265  2870 net.cpp:406] accuracy/top1 <- label_data_1_split_0
I1213 13:02:12.719291  2870 net.cpp:380] accuracy/top1 -> accuracy/top1
…
